saved_models/Dense_Epoch30_Batch100_80_20_ratio.pth (torch, 629961 bytes, 266 tensors)

features.conv0.weight f4 [32, 1, 3, 3]
0	0x3eb48a14	0.35261595
1	0x3f6f291f	0.9342212
2	0x3e183262	0.1486297
3	0x3e88669d	0.26640788
4	0x3ee53c66	0.44772643
5	0xbf15503c	-0.5832555
6	0x3d6a9355	0.057269413
7	0xbe8f1b5e	-0.27950567
8	0x3deae91f	0.114702456
9	0x3f00ae27	0.50265735
10	0x3d59ae1f	0.05314457
11	0xbf2e368c	-0.6805198
12	0xbf41c380	-0.75688934
13	0x3ec3272b	0.3811582
14	0xbef1a23d	-0.4719409
15	0x3ed11a3f	0.40840337
16	0x3e4d93b6	0.20075879
17	0x3f3dbcdb	0.74116296
18	0xbc9a1ced	-0.018812621
19	0xbe241560	-0.16023779
20	0x3e5eecfa	0.21770087
21	0xbeb58a87	-0.3545725
22	0xbe9baf09	-0.3040698
23	0xbe9c8da3	-0.3057681
24	0x3d2fa517	0.04288205
25	0x3e14a2dd	0.14515252
26	0xbe82c530	-0.25541067
27	0x3d85f1fb	0.06540295
28	0xbf149e54	-0.5805409
29	0xbdca9851	-0.09892333
30	0xbeb9a6cb	-0.36260065
31	0xbd904bcc	-0.07045707
32	0xbf2f3c53	-0.6845142
33	0x3f4ac50a	0.7920691
34	0xbd84bda5	-0.06481484
35	0x3f53fe21	0.82809645
36	0xbf4828c6	-0.78187215
37	0x3e3b0c9b	0.18266527
38	0x3f124e7e	0.5715102
39	0x3f1ba514	0.60798764
40	0x3f3dbe8d	0.7411888
41	0xbf37b29e	-0.71756923
42	0xbe7c9b61	-0.24668647
43	0x3f6189a6	0.8810066
44	0xbf9b97a9	-1.2155658
45	0x3e889da8	0.26682782
46	0xbe19c1bc	-0.1501531
47	0xbf33a5e7	-0.7017502
48	0x3ee4dbcf	0.4469895
49	0x3e80b12d	0.25135174
50	0xbd1a307a	-0.037643887
51	0x3d5cb5f5	0.053884465
52	0x3edd9ff0	0.43286085
53	0xbe78f7d2	-0.24313286
54	0xbe966261	-0.29371932
55	0xbec2330d	-0.37929574
56	0x3d1cc56a	0.038274206
57	0x3ea5a102	0.32349402
58	0x3e8fa682	0.28056723
59	0xbdfeedb8	-0.12447685
60	0xbee287c5	-0.4424421
61	0x3e1775e8	0.14791071
62	0x3ee3c797	0.44488212
63	0x3e7cd0f3	0.24689083
64	0xbe97689f	-0.29572007
65	0x3f364783	0.7120287
66	0xbe777fb9	-0.24169816
67	0x3e6f939b	0.23396151
68	0x3e7cd66e	0.24691173
69	0xbd405a82	-0.046961315
70	0xbec2ea91	-0.38069585
71	0xbd03fc94	-0.0322233
72	0x3db2f945	0.08738951
73	0x3f42ee46	0.76144826
74	0xbe077824	-0.13229424
75	0xbf660a31	-0.898593
76	0xbe89cb21	-0.26912788
77	0x3f0309f7	0.5118708
78	0xbec4a74e	-0.38408893
79	0x3e98da65	0.29854122
80	0xbe1eeb26	-0.1551939
81	0x3eb15cc3	0.34641084
82	0xbf2d4dd5	-0.6769689
83	0xbe896d95	-0.26841417
84	0x3ec315a8	0.3810246
85	0xbc939b5e	-0.01801842
86	0xbef4fdf6	-0.47850007
87	0xbf485d7c	-0.78267646
88	0x3e9f28c2	0.31085783
89	0xbdce4882	-0.100724235
90	0x3f081aaa	0.53165686
91	0xbdb4e225	-0.08832196
92	0xbee70061	-0.45117477
93	0xbecb0ed7	-0.3965976
94	0xbe117751	-0.14205672
95	0xbf46e665	-0.77695304
96	0xbe0ebb14	-0.13938552
97	0x3db34e82	0.087552086
98	0xbf07e5b5	-0.5308488
99	0x3c9bd345	0.01902164
100	0x3f0b9b27	0.5453362
101	0x3f10cf7f	0.56566614
102	0x3eebb74d	0.46038285
103	0xbf3c9f4e	-0.7368058
104	0xbd8da75c	-0.06916687
105	0xbee47160	-0.44617748
106	0xbe6cea77	-0.23136316
107	0x3b89ac49	0.004201446
108	0x3de6b021	0.11264063
109	0x3f1e7c08	0.61908007
110	0xbee080ed	-0.43848363
111	0x3e8b165e	0.27165502
112	0xbebbf39e	-0.36709303
113	0x3d81daac	0.063405365
114	0x3ec8c415	0.392121
115	0x3e64e051	0.22351195
116	0x3f15aa51	0.5846301
117	0x3d9b0093	0.07568469
118	0xbf50aac3	-0.8151056
119	0xbecac8ba	-0.39606267
120	0x3c5bbb91	0.013411419
121	0xbc8876b9	-0.016658174
122	0x3e4a86a7	0.19777928
123	0xbeda94db	-0.42691693
124	0x3d172836	0.036903583
125	0x3f65255f	0.8951015
126	0x3f03476c	0.51280856
127	0xbe23901d	-0.15972944
128	0xbe93e89e	-0.2888841
129	0xbe4104db	-0.18849508
130	0x3db3a89b	0.08772393
131	0xbee96c78	-0.45590568
132	0x3f0d58db	0.5521371
133	0xbf386553	-0.7202961
134	0xbf5b91a9	-0.85769135
135	0xbf7df4f4	-0.99201894
136	0x3e0c4a79	0.13700284
137	0x3f644d63	0.8918058
138	0x3f599761	0.8499661
139	0xbe9ac8c8	-0.3023131
140	0x3e010f79	0.12603559
141	0xbe816be4	-0.25277627
142	0x3f0182a5	0.5058997
143	0x3d8f2dc8	0.06991154
144	0xbd51bbce	-0.051204495
145	0x3ee11f76	0.43969315
146	0xbc83e79e	-0.016101655
147	0xbe7a7d9c	-0.24461979
148	0x3eaa6b3d	0.3328494
149	0xbf132a43	-0.5748636
150	0xbf08ef66	-0.53490293
151	0xbe64d7e4	-0.2234798
152	0x3e5957f1	0.21224953
153	0xbf51b9ff	-0.8192443
154	0x3ebea207	0.37232992
155	0xbe94f0ed	-0.29090062
156	0xbedbd880	-0.42938614
157	0xbf5a3143	-0.8523142
158	0xbe4b4359	-0.1984991
159	0x3f6d144b	0.9260909
160	0x3f73a532	0.95173943
161	0x3ea109b4	0.31452715
162	0x3e535ff3	0.2064207
163	0xbf8eba29	-1.1150562
164	0x3f659c02	0.89691174
165	0x3e33dcad	0.1756465
166	0xbedf2e2a	-0.43589908
167	0xbedbdbc1	-0.42941096
168	0x3dd85bab	0.10564359
169	0x3f0cddfd	0.5502623
170	0xbe63ba6c	-0.22239083
171	0xbda789e9	-0.08180601
172	0xbe0cfbd6	-0.13767943
173	0xbe90a703	-0.2825242
174	0xbe7e79d6	-0.24851164
175	0x3eba7cf9	0.36423472
176	0x3e552e5b	0.20818464
177	0xbf3c9389	-0.7366262
178	0xbe17ddb6	-0.1483067
179	0x3d6d048d	0.057865668
180	0x3e9de20a	0.30836517
181	0x3f49edfa	0.7887875
182	0x3de046f7	0.109510355
183	0x3eb4f183	0.3534051
184	0x3f1d10c1	0.6135369
185	0x3f3faac0	0.7486992
186	0x3da86195	0.08221737
187	0xbd6019ae	-0.05471199
188	0xbf71dc29	-0.9447656
189	0xbebe209b	-0.3713425
190	0xbf36c403	-0.7139284
191	0x3f0c9577	0.54915565
192	0x3ef3c98e	0.47614712
193	0xbeafa493	-0.34305248
194	0x3d0db744	0.034598604
195	0x3f25f3a4	0.6482489
196	0xbe913e53	-0.28367862
197	0x3eeb7ea9	0.45995072
198	0x3e4a50fe	0.19757459
199	0xbf222a2f	-0.6334562
200	0x3d385286	0.045000575
201	0x3ee00972	0.43757206
202	0xbf082f48	-0.53197145
203	0xbeb411e9	-0.35169914
204	0x3f50467a	0.8135754
205	0x3de0ebd6	0.10982482
206	0xbe01be53	-0.12670259
207	0x3e82c8e4	0.25543892
208	0x3f2c45b7	0.67293876
209	0x3f2378ab	0.63856
210	0xbd486374	-0.04892297
211	0x3f2ee125	0.68312293
212	0xbe0107ea	-0.12600675
213	0xbf022d78	-0.5085063
214	0x3efe9fc7	0.49731275
215	0x3ee14714	0.4399954
216	0x3dac8139	0.08423085
217	0x3f32d7bf	0.6986045
218	0xbc96d10b	-0.018410226
219	0x3be7e190	0.0070764497
220	0xbe3a5f70	-0.18200469
221	0x3e6c314e	0.23065683
222	0xbf72b8da	-0.9481331
223	0x3f25833f	0.6465339
224	0x3f29b313	0.6628887
225	0x3f7ce77b	0.9879071
226	0xbf46f15e	-0.7771205
227	0xbdb8b691	-0.09019197
228	0x3f3ce3cb	0.73785084
229	0xbeb804e4	-0.3594123
230	0xbf8e615e	-1.1123464
231	0x3eb77b22	0.3583613
232	0x3c43cff6	0.011951437
233	0x3e3dfaba	0.18552676
234	0x3f01f4b5	0.5076402
235	0xbee51f75	-0.44750562
236	0x3eb2293e	0.3479709
237	0x3ddbceb1	0.10732783
238	0xbf01b209	-0.50662285
239	0xbf16ddd7	-0.5893225
240	0x3e9153c2	0.28384215
241	0x3f8a08b0	1.0783901
242	0xbea8321d	-0.32850733
243	0x3ed9ebab	0.42562613
244	0x3e739bcb	0.23789899
245	0xbf5ff42d	-0.8748196
246	0xbe746123	-0.2386518
247	0xbe1c07ca	-0.15237346
248	0xbf086c95	-0.53290683
249	0x3db207c4	0.086928874
250	0x3decf39e	0.11569904
251	0xbc73366f	-0.014844521
252	0xbec085b4	-0.37602007
253	0x3f0f757d	0.5603865
254	0x3f143a89	0.5790182
255	0x3e664566	0.22487411

features.norm0.weight f4 [32]
0	0x3f7c08e2	0.98451054
1	0x3f7dc2d1	0.9912539
2	0x3f7c5f54	0.9858296
3	0x3f7a9c4f	0.9789476
4	0x3f7fa48e	0.99860466
5	0x3f800597	1.0001706
6	0x3f800435	1.0001284
7	0x3f7f54b7	0.9973864
8	0x3f7e53ee	0.99346817
9	0x3f7f10e1	0.9963513
10	0x3f7efebd	0.9960745
11	0x3f7d8403	0.9902956
12	0x3f803084	1.0014806
13	0x3f800b15	1.0003382
14	0x3f7f6194	0.9975827
15	0x3f7fbb38	0.9989505
16	0x3f7f08e2	0.9962293
17	0x3f7c56c6	0.98569906
18	0x3f7e7e7d	0.99411756
19	0x3f7fdfa8	0.9995065
20	0x3f7ce25a	0.98782885
21	0x3f7effa5	0.9960883
22	0x3f7e926d	0.9944218
23	0x3f802605	1.0011603
24	0x3f802faf	1.0014552
25	0x3f7ea876	0.994758
26	0x3f7d78b9	0.99012333
27	0x3f800d09	1.0003978
28	0x3f7fcdfc	0.9992368
29	0x3f7f04fe	0.9961699
30	0x3f7e7415	0.9939588
31	0x3f7ef6a7	0.9959511

features.norm0.bias f4 [32]
0	0x3e3e758a	0.18599525
1	0x3e0f14c8	0.13972771
2	0x3e363f37	0.17797552
3	0x3e55372c	0.20821828
4	0xbd68f2c8	-0.05687216
5	0xbc827394	-0.015924253
6	0xbc611574	-0.013738025
7	0x3daa810b	0.08325394
8	0x3df182a3	0.11792495
9	0x3dbdc76c	0.09266552
10	0x3dc637ee	0.096786365
11	0x3e118348	0.14210236
12	0xba9c348d	-0.0011917517
13	0x3b5224d1	0.0032065401
14	0x3da0072d	0.07813869
15	0x3d8e079c	0.06935045
16	0x3dc72227	0.09723311
17	0x3e3460ed	0.17615099
18	0x3debf22b	0.11520799
19	0x3d6e2f1f	0.058150407
20	0x3e26f88c	0.1630575
21	0x3dc96c94	0.09835163
22	0x3de40841	0.11134387
23	0x3d1724c1	0.036900286
24	0x3c222e26	0.009898698
25	0x3ddda2ab	0.10822042
26	0x3e13b63b	0.14424984
27	0xb9d7eaeb	-0.00041183023
28	0x3d4b74fc	0.049672112
29	0x3dcd0470	0.10010612
30	0x3dfbc40b	0.122932516
31	0x3dc0c00a	0.094116285

features.norm0.running_mean f4 [32]
0	0x3f65c235	0.8974946
1	0x3e69f58d	0.22847576
2	0xbf1d18e8	-0.6136613
3	0xbdf1e124	-0.1181052
4	0x3cf001d9	0.029297756
5	0x3e4d7cd7	0.20067154
6	0xba04d97e	-0.0005067809
7	0x3e89653e	0.26835054
8	0xbde03965	-0.10948447
9	0xbf49c219	-0.78811795
10	0xbf95f305	-1.1714789
11	0x3d8a245f	0.067452185
12	0x3f64cfe0	0.8937969
13	0xbe8b4b4b	-0.2720588
14	0xbf6f30a6	-0.93433607
15	0x3f22ff6c	0.6367099
16	0xbecd4fb1	-0.40099862
17	0xbcc3acfd	-0.023886198
18	0xbe3048e5	-0.17215307
19	0xbf1c634b	-0.6108901
20	0x3f9f1a79	1.2429954
21	0x3e8a264f	0.26982352
22	0xbd1c59e6	-0.03817167
23	0x3fc585d2	1.5431464
24	0x3f3a8c73	0.7287056
25	0xbd4e9dff	-0.050443646
26	0x3e8aebe7	0.27133104
27	0xbf14f04c	-0.58179164
28	0x3e84619b	0.25855717
29	0xbfcac63e	-1.5841749
30	0xbe1a57fc	-0.15072626
31	0xbb2070ec	-0.002448137

features.norm0.running_var f4 [32]
0	0x3daa752b	0.08323129
1	0x3c607b36	0.013701251
2	0x3d0aff0a	0.03393463
3	0x3c6c1dfd	0.014411447
4	0x3c486936	0.0122321155
5	0x3c74d98b	0.014944444
6	0x3b7c1860	0.0038466677
7	0x3c5c8776	0.013460031
8	0x3c3c67ab	0.011499326
9	0x3d7830d4	0.06059344
10	0x3e0c4010	0.13696313
11	0x3c217530	0.0098546
12	0x3da25dc5	0.07928041
13	0x3c923030	0.017845243
14	0x3dcd7d7f	0.10033702
15	0x3d32312f	0.043503936
16	0x3ca26670	0.019824237
17	0x3cc3cc80	0.023901224
18	0x3ba22152	0.0049478197
19	0x3d2bbc67	0.04192772
20	0x3e17ffef	0.14843725
21	0x3c9681ea	0.018372495
22	0x3c7f7eca	0.015594194
23	0x3e65a288	0.22425282
24	0x3d6cb968	0.057794005
25	0x3d00497a	0.031320073
26	0x3c939a3d	0.018017882
27	0x3d27779f	0.040885564
28	0x3c1a9573	0.0094350455
29	0x3e73596c	0.2376458
30	0x3c25955f	0.010106414
31	0x3c8bbafb	0.017056933

features.denseblock1.denselayer1.norm1.weight f4 [32]
0	0x3f77024b	0.96487874
1	0x3f7e19db	0.992582
2	0x3f65a551	0.8970538
3	0x3f7fae95	0.99875766
4	0x3f7e1b41	0.99260336
5	0x3f7ce161	0.987814
6	0x3f766175	0.9624246
7	0x3f75079d	0.9571474
8	0x3f83a3c0	1.0284348
9	0x3f806f2e	1.0033929
10	0x3f743253	0.9538929
11	0x3f80daa6	1.0066726
12	0x3f7c7dd6	0.9862951
13	0x3f85d0b3	1.0454315
14	0x3f7c7149	0.9861036
15	0x3f7ce19f	0.9878177
16	0x3f7f672e	0.99766815
17	0x3f8ba1a9	1.090871
18	0x3f7fb3de	0.9988383
19	0x3f7d1540	0.9886055
20	0x3f70a703	0.9400484
21	0x3f744a39	0.95425755
22	0x3f883c89	1.0643474
23	0x3f760a6d	0.9610966
24	0x3f8011eb	1.0005468
25	0x3f89456a	1.0724308
26	0x3f84e5fc	1.0382686
27	0x3f805e9a	1.002887
28	0x3f7d26d0	0.9888735
29	0x3f7b0554	0.98055005
30	0x3f8157a9	1.0104877
31	0x3f842e27	1.0326585

features.denseblock1.denselayer1.norm1.bias f4 [32]
0	0x3df12d88	0.117762625
1	0x3d65dd83	0.056119453
2	0x3d978934	0.07399216
3	0x3e05a871	0.13052537
4	0xbc92b677	-0.017909272
5	0xbcb61046	-0.022224557
6	0xbc9e82dc	-0.019349508
7	0x3cd610fc	0.026131146
8	0x3e08271d	0.1329617
9	0x3deba84a	0.11506708
10	0x3cefd60b	0.029276868
11	0x3d931c09	0.07183082
12	0xbda0a280	-0.078434944
13	0x3d6753ca	0.05647639
14	0xbd5038d6	-0.050835453
15	0x3daaf6f5	0.083478846
16	0x3ceb8726	0.028750967
17	0x3e1bcade	0.15214106
18	0xbb001d47	-0.00195487
19	0xbbce4913	-0.006295332
20	0xbce59a6c	-0.028027736
21	0x3d8ad286	0.067784354
22	0x3e5e0bcb	0.21684186
23	0xbe07df5c	-0.13268799
24	0xbd4f93ff	-0.05067825
25	0x3e424754	0.18972522
26	0x3d280d36	0.041028224
27	0x3c86a42d	0.016435707
28	0xbbc68b50	-0.006059088
29	0x3d22e9dd	0.03977381
30	0xbc76b30e	-0.015057338
31	0x3ea67667	0.3251221

features.denseblock1.denselayer1.norm1.running_mean f4 [32]
0	0x3f0d483b	0.5518834
1	0x3eef0fc0	0.46691704
2	0x3f0ac2d1	0.54203516
3	0x3edffd7c	0.4374808
4	0x3ea669f0	0.325027
5	0x3ed194ce	0.4093384
6	0x3eafebab	0.34359488
7	0x3eeaba40	0.45845222
8	0x3eddc843	0.4331685
9	0x3f069708	0.52574205
10	0x3f037cd1	0.5136233
11	0x3eca8313	0.39553127
12	0x3ee1bac4	0.44087803
13	0x3ee11472	0.4396091
14	0x3f0409f8	0.5157771
15	0x3ef8ac36	0.48568887
16	0x3f09cd7e	0.5382918
17	0x3ecade26	0.3962261
18	0x3eec8764	0.46197045
19	0x3f04f9c9	0.5194364
20	0x3f0b498c	0.544091
21	0x3eedcb7e	0.46444315
22	0x3ec6323a	0.38710195
23	0x3eef1bde	0.46700948
24	0x3eedc21b	0.46437153
25	0x3ebfffbb	0.37499794
26	0x3f00a20b	0.5024726
27	0x3ef061b9	0.46949556
28	0x3ee9de86	0.45677584
29	0x3f0384db	0.51374596
30	0x3ed1f155	0.41004434
31	0x3ec480af	0.38379428

features.denseblock1.denselayer1.norm1.running_var f4 [32]
0	0x3ea64daf	0.32481143
1	0x3e9706b2	0.29497296
2	0x3f090f3f	0.5353889
3	0x3ea811af	0.32825992
4	0x3fd91173	1.695845
5	0x3f633a90	0.88761234
6	0x3fa558ef	1.2917765
7	0x3e9f5c31	0.31125024
8	0x3f946377	1.1592854
9	0x3f0acd10	0.5421915
10	0x3f151656	0.58237207
11	0x3edb5bf6	0.42843598
12	0x3e87164b	0.26384196
13	0x3f5054f4	0.8137963
14	0x3f1adff3	0.6049797
15	0x3e9ac9e1	0.30232146
16	0x3f2e02fb	0.679733
17	0x3e94113b	0.28919396
18	0x3ebb4f55	0.36583963
19	0x3f21cb8c	0.6320121
20	0x3eb672e0	0.35634518
21	0x3e972623	0.29521284
22	0x3e8baf63	0.27282247
23	0x3e925440	0.28579903
24	0x3eb48d99	0.3526428
25	0x3ed03ddc	0.40672195
26	0x3ebbe7bb	0.36700234
27	0x3f3118e1	0.6917859
28	0x3e966bc6	0.293791
29	0x3f08c24d	0.5342148
30	0x3e8be5c9	0.2732375
31	0x3f0e1c98	0.5551238

features.denseblock1.denselayer1.conv1.weight f4 [32, 32, 1, 1]
0	0xbe4676da	-0.19381276
1	0x3e8213c7	0.25405714
2	0xbe83fd05	-0.25778976
3	0x3dd626e5	0.10456637
4	0x3c4751cf	0.012165501
5	0xbe782811	-0.24234034
6	0xbe80cbab	-0.25155386
7	0xbe1afdb2	-0.1513584
8	0xbd209bb3	-0.039210986
9	0xbd46ab4f	-0.048503216
10	0x3eb33309	0.34999874
11	0xbe187fae	-0.14892456
12	0x3df38d29	0.118921585
13	0xbe83e144	-0.25757802
14	0x3e09683b	0.13418667
15	0xbe7cc897	-0.24685894
16	0x3d7488e6	0.05970087
17	0x3e1ede77	0.15514551
18	0xbd30dde0	-0.043180346
19	0xbe2f5c1a	-0.17124978
20	0xbc04e1ff	-0.008110522
21	0x3df360a7	0.11883669
22	0x3e7f2179	0.24915113
23	0x3dc4ed76	0.096156046
24	0xbe0d568f	-0.1380255
25	0xbe9537b7	-0.2914407
26	0x3cbaba30	0.02279386
27	0x3da2fdd9	0.07958574
28	0xbea124e1	-0.3147345
29	0x3e908d52	0.2823282
30	0xbd87f1bf	-0.06637906
31	0xbe64898f	-0.223181
32	0xbe7984fa	-0.24367133
33	0x3e0c2fbe	0.13690087
34	0x3da36483	0.079781555
35	0x3d15a736	0.036536418
36	0xbd82618e	-0.06366263
37	0xbbf524e3	-0.007481204
38	0xbd53763e	-0.051626436
39	0x3e0cca71	0.137491
40	0x3d98c775	0.074599184
41	0x3dd987eb	0.106216274
42	0xbe780064	-0.24218899
43	0x3e1a0b3f	0.15043353
44	0x3e534c44	0.20634562
45	0x3e5ce9af	0.21573518
46	0xbef2c2db	-0.47414288
47	0xbe0466f4	-0.12929899
48	0xbc26435d	-0.010147897
49	0xbe8fcef1	-0.2808757
50	0xbb5f38ac	-0.0034060879
51	0x3dec99dd	0.115527846
52	0xbe9d135e	-0.30678838
53	0xbe8db0a2	-0.27673823
54	0x3e62292b	0.22086017
55	0x3e11ac1a	0.14225808
56	0xbcc8ab43	-0.024495726
57	0xbe73dc76	-0.23814568
58	0xbe22a9b8	-0.15885055
59	0xbe023c4c	-0.12718314
60	0x3e944255	0.28956857
61	0x3f0edf12	0.5580913
62	0xbe8e5bc8	-0.278044
63	0xbe5cef64	-0.21575695
64	0x3b04fc6e	0.0020292061
65	0xbf0c3e79	-0.54782826
66	0x3eb29be0	0.34884548
67	0xbe0c2f45	-0.13689907
68	0xbe0cc81e	-0.13748214
69	0x3d96d9f3	0.07365789
70	0x3de37812	0.11106886
71	0x3d44814a	0.047974862
72	0xbebdae35	-0.37046972
73	0xbe5ac3ac	-0.21363705
74	0x3eab666c	0.3347658
75	0xbed280e3	-0.41113958
76	0x3e39d5b5	0.18147929
77	0x3e17cfd6	0.14825377
78	0xbe25b1fa	-0.16181174
79	0x3f02e6cd	0.51133424
80	0xbeb46f49	-0.35241154
81	0x3d7be95b	0.061501842
82	0x3e8a1422	0.26968485
83	0xbe939e2e	-0.2883162
84	0xbe47f680	-0.19527626
85	0x3e9601bf	0.29298207
86	0x3e15112e	0.14557335
87	0x3e38311b	0.17987482
88	0x3ea675dd	0.32511798
89	0xbe02541e	-0.127274
90	0xbc17b07f	-0.009258389
91	0xbaf0cbf7	-0.0018371333
92	0xbda11273	-0.07864847
93	0x3e1227d9	0.14273013
94	0xbe1376ab	-0.14400737
95	0xbe359557	-0.1773275
96	0x3de5f686	0.11228661
97	0x3d929a08	0.071582854
98	0x3ef5639e	0.47927564
99	0xbdd586df	-0.10426115
100	0x3e415c9b	0.18882982
101	0xbd6b192b	-0.05739705
102	0xbbab5c4d	-0.005229509
103	0xbede0a60	-0.4336729
104	0xbdf182c6	-0.11792521
105	0x3dc176e6	0.09446506
106	0xbe376afb	-0.17911904
107	0x3e63c53a	0.22243205
108	0xbecacb25	-0.39608112
109	0x3df820e9	0.12115652
110	0x3d8b9c09	0.06816871
111	0xbe3d8109	-0.18506254
112	0xbe3121af	-0.17298006
113	0xbdb5fb47	-0.08885818
114	0xbe2349b3	-0.15946083
115	0xbd89f690	-0.06736481
116	0xbeafe541	-0.34354594
117	0xbe4bc0d7	-0.19897781
118	0xbe9948ce	-0.29938358
119	0xbe4caaad	-0.19986983
120	0x3ea9dc98	0.33176112
121	0xbed0e56c	-0.40800035
122	0x3ea49310	0.3214345
123	0xbc1e5f53	-0.009666282
124	0x3c8666b1	0.016406389
125	0xbc858ad2	-0.016301546
126	0x3ed635cf	0.41837928
127	0x3f0f192d	0.5589779
128	0xbe932255	-0.2873713
129	0x3e464081	0.19360544
130	0xbc498ae4	-0.0123011805
131	0x3f096305	0.53666717
132	0xbe4981a9	-0.19678368
133	0xbd577d8d	-0.05260997
134	0x3e84b19b	0.25916752
135	0xbe5d8470	-0.21632552
136	0x3b6e9a3d	0.003640785
137	0xbc9b8d7f	-0.018988369
138	0xbe30bd37	-0.1725968
139	0x3eba5438	0.3639238
140	0xbe4e651b	-0.20155756
141	0xbf090d85	-0.53536254
142	0x3dae30bd	0.0850539
143	0x3db779b4	0.0895876
144	0x3eae0be2	0.3399344
145	0xbee0d019	-0.43908766
146	0x3eb6384f	0.35589835
147	0xbe8d0786	-0.27544802
148	0x3d82ca33	0.06386223
149	0x3d8c6c18	0.06856555
150	0xbeb99a77	-0.3625066
151	0xbd3cbced	-0.04607861
152	0x3e8e42bc	0.2778529
153	0xbbe10caa	-0.0068679648
154	0xbd3d09e3	-0.046152007
155	0x3e8a36ea	0.2699502
156	0x3d9ec743	0.0775285
157	0x3e6f9fba	0.23400775
158	0xbe56dcac	-0.20982617
159	0xbca51742	-0.020152692
160	0xbe0d66e8	-0.13808787
161	0x3bc0048a	0.005859916
162	0xbe5be5d8	-0.21474397
163	0xbe9489d7	-0.29011413
164	0x3df515a0	0.11967015
165	0x3ecf230d	0.4045643
166	0xbecd0685	-0.40044037
167	0x3b0eb6e6	0.0021776496
168	0x3d90aec0	0.07064581
169	0x3d8b9a85	0.06816582
170	0xbdc6a1f5	-0.096988596
171	0xbe7982da	-0.24366322
172	0x3e62cc8b	0.2214834
173	0xbd8a9b99	-0.06767959
174	0xbe0bf0e7	-0.13666116
175	0x3d478034	0.04870625
176	0x370e5e13	8.485763e-06
177	0x3e5b390e	0.21408483
178	0x3e0a22bc	0.13489813
179	0x3eee1f78	0.46508384
180	0xbee954d3	-0.45572528
181	0x3ee204fb	0.44144425
182	0x3d5ac0b9	0.05340645
183	0xbe0bd6af	-0.13656114
184	0xbeb732dc	-0.3578099
185	0xbf1bdee9	-0.6088701
186	0x3ea933e0	0.3304739
187	0xbe76b21a	-0.24091378
188	0xbe22ecbd	-0.15910621
189	0x3e6d2386	0.23158082
190	0xbddde6bd	-0.108350255
191	0xbe8f22ff	-0.27956387
192	0x3e7bcb43	0.24589257
193	0xbed8e351	-0.4236093
194	0xbceffd10	-0.029295474
195	0xbe911de8	-0.2834313
196	0x3dee7560	0.11643481
197	0x3df5d6f4	0.1200389
198	0x3e031644	0.12801462
199	0xbde68efd	-0.112577416
200	0xbcec719b	-0.028862765
201	0x3e2239d0	0.15842366
202	0xbdcdc460	-0.10047221
203	0x3ea8b26b	0.32948622
204	0xbed86957	-0.42267868
205	0xbef4fd0d	-0.47849312
206	0x3dfb51ee	0.12271486
207	0xbe716de8	-0.23577082
208	0x3e1c61a0	0.15271616
209	0xbdcbd4bf	-0.099526875
210	0xbd0607bd	-0.032722224
211	0x3e7955d5	0.24349149
212	0x3e7acf38	0.2449311
213	0x3e405872	0.18783739
214	0x3eeeefa2	0.466672
215	0xbe751c28	-0.23936522
216	0x3e0b146d	0.1358201
217	0xbd1d04d8	-0.038334697
218	0xbdaf6f2c	-0.08566126
219	0xbe6ca8cc	-0.23111266
220	0xbeb5adb6	-0.35484093
221	0x3de7d079	0.1131906
222	0xbeb60110	-0.35547686
223	0xbd24242a	-0.04007355
224	0x3e805c88	0.25070596
225	0x3f2777c3	0.65417117
226	0x3e5428d7	0.20718704
227	0xbe3eca90	-0.18631959
228	0xbf04cbef	-0.5187368
229	0xbe4a3abc	-0.19748968
230	0x3e45fcde	0.19334742
231	0x3e0d42b8	0.13794982
232	0x3e54e32c	0.20789784
233	0xbe44cb42	-0.19218162
234	0x3ea34ec3	0.31896028
235	0x3e97a549	0.2961829
236	0x3e8f6b02	0.28011328
237	0xbdbfe714	-0.093702465
238	0x3d9bfd32	0.076166525
239	0x3e6e6a11	0.23282649
240	0x3ea7af87	0.32751104
241	0x3eb9a153	0.36255893
242	0x3ec544c7	0.38529035
243	0xbeb3bca3	-0.35104856
244	0x3ed2af16	0.41149205
245	0xbe09268f	-0.13393615
246	0x3d84df9b	0.06487962
247	0x3e5fbf24	0.21850258
248	0x3ec9fa27	0.39448664
249	0xbea4e0ba	-0.32202703
250	0xbba6fd0a	-0.0050960826
251	0xbf2dc725	-0.67881995
252	0xbd096f64	-0.033553496
253	0x3eebf17b	0.46082672
254	0x3ea9b2be	0.33144182
255	0x3cbe11d8	0.023201868

features.denseblock1.denselayer1.norm2.weight f4 [32]
0	0x3f7ae4eb	0.9800555
1	0x3f80a803	1.0051273
2	0x3f7cdf6f	0.9877843
3	0x3f7a9075	0.97876674
4	0x3f74de9c	0.95652175
5	0x3f83d4bf	1.02993
6	0x3f860380	1.0469818
7	0x3f72e1fb	0.9487607
8	0x3f7b53d2	0.98174775
9	0x3f776296	0.96634805
10	0x3f864a93	1.0491508
11	0x3f818449	1.0118495
12	0x3f80702f	1.0034236
13	0x3f81a3fc	1.0128169
14	0x3f812e23	1.0092205
15	0x3f81d72e	1.0143793
16	0x3f811aef	1.0086344
17	0x3f72ad6a	0.9479586
18	0x3f7f6781	0.9976731
19	0x3f78ecf2	0.9723655
20	0x3f766c49	0.9625898
21	0x3f83f847	1.0310143
22	0x3f7dd1a2	0.99148
23	0x3f78d17e	0.9719466
24	0x3f86cd33	1.0531372
25	0x3f810cfd	1.0082089
26	0x3f83f78b	1.0309919
27	0x3f8626cb	1.0480589
28	0x3f72154f	0.94563764
29	0x3f803d4c	1.0018706
30	0x3f81ce10	1.014101
31	0x3f82b63e	1.0211866

features.denseblock1.denselayer1.norm2.bias f4 [32]
0	0xbcc56d51	-0.024099978
1	0xbd84e80c	-0.06489572
2	0xbd4db4e5	-0.050221343
3	0xbcf2b868	-0.029628947
4	0xbdd27793	-0.10276713
5	0xbb245f35	-0.0025081162
6	0x3d96303a	0.07333417
7	0xbdaeffc5	-0.08544878
8	0xbcafedbe	-0.021475669
9	0xbd3abfb2	-0.04559297
10	0x3bc46041	0.0059929197
11	0x3d063d1b	0.03277312
12	0x3d195ba4	0.03744091
13	0x3d0b8e76	0.03407141
14	0xbd57fbc9	-0.052730355
15	0x3cadff99	0.021240043
16	0x3be5fad5	0.007018427
17	0x3ca92544	0.020647652
18	0x3c1041b5	0.008804728
19	0xbd14a4bd	-0.03628992
20	0x3cb577cf	0.022151856
21	0xbd228eb9	-0.039686892
22	0xbc24f5d3	-0.010068375
23	0xbd60c3d0	-0.05487424
24	0x3c355a00	0.011068821
25	0x3d48fd10	0.049069464
26	0x3b7891d2	0.0037928713
27	0x3d86ed4a	0.06588228
28	0xbd941f7f	-0.0723257
29	0x3ca4b3a7	0.020105196
30	0xbd2124d3	-0.03934176
31	0xbcac64e9	-0.021044211

features.denseblock1.denselayer1.norm2.running_mean f4 [32]
0	0xbea4be3a	-0.3217638
1	0xbe71acb6	-0.2360104
2	0x3d02cf1a	0.03193579
3	0xbe3e8030	-0.18603587
4	0x3c25e066	0.010124302
5	0xbec08398	-0.37600398
6	0xbeaf97fb	-0.3429564
7	0x3fa4628e	1.2842577
8	0xbf3b5969	-0.73183304
9	0x3f58a2c9	0.8462339
10	0xbda101bd	-0.0786166
11	0xbe7bc264	-0.24585873
12	0x3ea0aa50	0.31379938
13	0xbea86f33	-0.32897338
14	0x3e634eb9	0.22197999
15	0xbf2a7ffa	-0.66601527
16	0xbec62f76	-0.38708085
17	0x3ef3d6be	0.47624773
18	0xbf112bf7	-0.5670771
19	0xbcf925af	-0.030413477
20	0xbdb537ad	-0.0884851
21	0x3e694b16	0.2278255
22	0xbe5e6677	-0.21718775
23	0xbd86bf29	-0.0657943
24	0x3e613a32	0.21994856
25	0x3c508da3	0.012729081
26	0xbe8c71d4	-0.27430594
27	0xbef406e3	-0.47661504
28	0x3e2856d4	0.16439372
29	0xbd578318	-0.052615255
30	0xbf585d91	-0.8451777
31	0xbe2c2545	-0.16811092

features.denseblock1.denselayer1.norm2.running_var f4 [32]
0	0x3ee2b5e8	0.44279408
1	0x3f2a4e13	0.6652538
2	0x3fa4996d	1.2859322
3	0x3f18bc89	0.5966268
4	0x3f11134e	0.5667008
5	0x3efc2eee	0.49254555
6	0x3f3bc837	0.7335238
7	0x40367247	2.850725
8	0x3ffbda8f	1.9676074
9	0x401161cd	2.2715943
10	0x3fefc7e2	1.8732874
11	0x3fbce403	1.4757084
12	0x3fe08e30	1.7543392
13	0x3faa0662	1.3283198
14	0x3f764f87	0.962151
15	0x3fe76073	1.8076309
16	0x3fb6dd8c	1.4286361
17	0x3f3c31a8	0.7351327
18	0x3fa83b1d	1.314304
19	0x3f84853e	1.0353162
20	0x3f127181	0.57204443
21	0x404ff232	3.2491574
22	0x3f59b4c9	0.8504148
23	0x3fcc00a2	1.5937693
24	0x3e9860f0	0.29761457
25	0x3fa80e1f	1.312931
26	0x3f393b9b	0.72356576
27	0x3f0e26b7	0.55527824
28	0x3fabdb0a	1.342622
29	0x3ef72842	0.48272902
30	0x406e1aaa	3.7203774
31	0x3fb6b594	1.4274163

features.denseblock1.denselayer1.conv2.weight f4 [8, 32, 3, 3]
0	0xbdd1df3a	-0.10247655
1	0x3da1b4bb	0.078958
2	0x3d27e73c	0.040992007
3	0xbd2d5bdc	-0.042323932
4	0x3b600efc	0.003418862
5	0xbdd6ed0f	-0.10494434
6	0xbd06c26e	-0.032900266
7	0xbd133c0e	-0.035945944
8	0x3db5da96	0.088795826
9	0xbd8cb3ca	-0.068702295
10	0xbe093683	-0.13399701
11	0xbd8ff7fe	-0.07029723
12	0xbcac090a	-0.021000404
13	0x3c6d30f2	0.0144770015
14	0xbd1dd882	-0.038536556
15	0xbe367cdc	-0.17821068
16	0xbd97b07b	-0.07406708
17	0xbca65513	-0.020304238
18	0x3cf6adfc	0.03011226
19	0x3c99e9ad	0.018788183
20	0xbcdccc88	-0.026952997
21	0xbb2dc1b1	-0.0026513154
22	0xbbc1d47b	-0.005915222
23	0xbd52be90	-0.051451266
24	0xbdbdcef7	-0.09267991
25	0x3dc2dcc1	0.09514762
26	0xbd53f576	-0.05174776
27	0xbafc8b52	-0.0019267595
28	0xbd8a9751	-0.067671426
29	0xbdb676b8	-0.089093626
30	0x3b2bdb71	0.0026223327
31	0x3c9208ed	0.017826522
32	0xbcbcba95	-0.023038188
33	0x3ce17463	0.027521318
34	0xbe31f0ed	-0.17377062
35	0x3cd33097	0.025780005
36	0x393f3226	0.00018233861
37	0x3de2df05	0.11077694
38	0xbca41150	-0.020027786
39	0x3dc57c4a	0.09642847
40	0x3d225f2c	0.039641544
41	0x3dc6370e	0.096784696
42	0xbd5ea5c4	-0.054357305
43	0x3d9e864a	0.07740457
44	0xbc8ac713	-0.01694063
45	0xbe9e736b	-0.30947432
46	0xbdf01909	-0.11723525
47	0x3bab280f	0.005223281
48	0x3df44d79	0.11928839
49	0xbe3a8840	-0.18216038
50	0x3c209518	0.009801172
51	0xbd0b1130	-0.03395194
52	0xbbdea281	-0.0067942743
53	0xbd599a80	-0.05312586
54	0x3cce87b5	0.025211195
55	0x3db798ed	0.08964715
56	0x3d6642ff	0.056216236
57	0xbc3c27e2	-0.011484118
58	0x3ddea6aa	0.108716324
59	0x3e087afe	0.13328168
60	0xbc4074dd	-0.011746612
61	0x3b8025b6	0.0039107455
62	0x3e22a37a	0.15882674
63	0x3d3716f1	0.044699613
64	0xbd2323d7	-0.0398291
65	0xbc037115	-0.008022566
66	0x3d81dca6	0.063409135
67	0x3d1efab9	0.038813327
68	0xbc4e12e1	-0.012577743
69	0x3d1421bc	0.036164984
70	0xbc8afc15	-0.016965905
71	0xbde48c73	-0.11159601
72	0x3c8005cc	0.015627764
73	0x3d88ba25	0.06676129
74	0x3de650cd	0.1124588
75	0xbe032d7e	-0.12810323
76	0x3ddd9551	0.108194955
77	0xbac26629	-0.0014831471
78	0x3be1416e	0.006874255
79	0xbcb22499	-0.021745967
80	0xbbde63f5	-0.006786818
81	0x3d756a15	0.05991562
82	0x3e209979	0.15683545
83	0xbdbdb891	-0.09263719
84	0xbd8cd98b	-0.068774305
85	0x3e088641	0.13332464
86	0xbd8d653c	-0.069040745
87	0xbc07ac38	-0.008280806
88	0xbd85d1ce	-0.06534158
89	0x3dce8112	0.10083212
90	0x3cb58b98	0.02216129
91	0x3c077b1a	0.008269096
92	0xbde4b433	-0.11167183
93	0x3d93f84b	0.072250925
94	0xbdb82272	-0.08990945
95	0xbdc72d6a	-0.09725459
96	0x3dc8313c	0.09775016
97	0xbd890a05	-0.06691364
98	0xbde44428	-0.11145812
99	0x3ce8a694	0.028399743
100	0xbe0415f0	-0.12898993
101	0xbd8a9e57	-0.06768482
102	0x3d525c22	0.051357396
103	0xbd0e57bc	-0.03475164
104	0xbb1c97d2	-0.0023894203
105	0xbd341e53	-0.043974232
106	0x3dbe1020	0.09280419
107	0xbd4a2e00	-0.049360275
108	0xbdd56016	-0.104187176
109	0xbd9b797a	-0.07591529
110	0xbe21b57d	-0.15791889
111	0xbdb31e86	-0.08746056
112	0xbc328f00	-0.010898352
113	0x3cdb51c5	0.02677239
114	0xbe86d50d	-0.2633442
115	0xbcd0e00f	-0.025497464
116	0xbd3c2d42	-0.0459416
117	0x3db0ed25	0.08638982
118	0x3d0bd5c8	0.034139425
119	0xbdeb6914	-0.114946514
120	0x3df38024	0.11889675
121	0xbd7f062c	-0.062261745
122	0xbded9a26	-0.11601667
123	0x3d9c1e95	0.076230206
124	0x3d5d7891	0.05407006
125	0x3cec89ad	0.028874243
126	0xbd2b7308	-0.04185775
127	0x3e4adbc5	0.19810398
128	0x3d5db22f	0.054125007
129	0x3d98a221	0.07452799
130	0xbdf80a0c	-0.12111291
131	0xbd5400e6	-0.05175867
132	0xbd881b56	-0.06645839
133	0x3cdf8f1d	0.027289921
134	0x3d0e61a7	0.034761097
135	0xbc764d72	-0.015033113
136	0xbd825cea	-0.06365378
137	0xbdad7774	-0.084700495
138	0x3b8f8dfa	0.0043809386
139	0xbd90bd7c	-0.07067391
140	0x3d007497	0.03136119
141	0xbba6bbe1	-0.005088315
142	0x3c2bd8a9	0.0104886675
143	0x3c4b7eb2	0.012420343
144	0x3c88f1c9	0.016716855
145	0x3d1fd0fd	0.039017666
146	0xbcd8b178	-0.026451811
147	0xbe1334d1	-0.14375617
148	0x3c04b613	0.0081000505
149	0xbd6c5b77	-0.057704415
150	0xbd969618	-0.07352847
151	0xbe15f95c	-0.14645904
152	0x394a86cd	0.00019314438
153	0xbdb5ad56	-0.08870952
154	0xbd340125	-0.043946404
155	0x3a6f787c	0.000913508
156	0xbc88c84d	-0.016697073
157	0x3dcc77ac	0.09983763
158	0x3e32df68	0.17468035
159	0xbddb5027	-0.10708647
160	0x3e0e49b9	0.1389531
161	0x3d8951be	0.06705044
162	0x3e666a7f	0.22501563
163	0xbdd8d93b	-0.105883084
164	0xbd826153	-0.06366219
165	0x38a32830	7.779931e-05
166	0xbbbbbd27	-0.005729336
167	0x3c342e9a	0.010997439
168	0x3e06b914	0.13156539
169	0x3cac879f	0.021060763
170	0xbdb4fafd	-0.08836935
171	0x3d092b81	0.033488754
172	0xbd8290d2	-0.063752785
173	0xbbc46cde	-0.0059944233
174	0xbd2bed47	-0.041974332
175	0x3dacc370	0.08435714
176	0xbd18daff	-0.037318226
177	0x3d06aee3	0.03288163
178	0xbdea28d9	-0.11433572
179	0x3c15ff88	0.009155162
180	0x3d660101	0.0561533
181	0xbdddba8a	-0.10826595
182	0xbdd3f006	-0.10348515
183	0xbd94d20d	-0.072666265
184	0x3e27eff3	0.16400127
185	0x3e068007	0.13134776
186	0xbb4b75cf	-0.0031045561
187	0x3d2368ee	0.03989499
188	0x3a9c6d03	0.0011934343
189	0xbcddce44	-0.027075894
190	0xbce86258	-0.028367206
191	0x3ae483e3	0.0017434325
192	0x3d3b26bf	0.045691248
193	0xbb44d4ce	-0.0030034068
194	0x3e1a144b	0.15046804
195	0xbd7b3f39	-0.06133959
196	0xbdabfeb4	-0.0839819
197	0x3b373f4b	0.002796131
198	0xbe49d746	-0.19711027
199	0xbd3c3139	-0.04594538
200	0xbdbaea58	-0.09126729
201	0xbe0c69bd	-0.13712211
202	0x3dc111d7	0.09427231
203	0x3d39b2fc	0.04533671
204	0x3daa1353	0.08304467
205	0xbd0c147d	-0.034199227
206	0x3d564cd5	0.052319366
207	0x3e411100	0.18854141
208	0x3d890d41	0.06691981
209	0xbdf76607	-0.12080007
210	0x3ca2758a	0.019831438
211	0xbd6bcc9f	-0.05756819
212	0xbda86d56	-0.08223979
213	0xbda2caa7	-0.07948809
214	0x3bf1c243	0.007377894
215	0xbca9c057	-0.020721598
216	0xbe277b45	-0.16355617
217	0xbdfbe121	-0.12298799
218	0x3e044092	0.12915257
219	0x3d01bb5d	0.031672824
220	0x3ce0aaab	0.02742513
221	0x3c578fa9	0.01315681
222	0xbe1c2106	-0.15246972
223	0xbc5d7f72	-0.013519155
224	0x3d9445ab	0.072398506
225	0xbe0bde3c	-0.13658994
226	0x3e0648f0	0.13113761
227	0x3cedbe60	0.029021442
228	0xbe0008b2	-0.12503317
229	0xbd9fde4c	-0.07806072
230	0xbc224333	-0.009903717
231	0xbd5daab2	-0.054117866
232	0x3e815b07	0.2526476
233	0x3e19d647	0.15023147
234	0x3e4caf93	0.19988851
235	0x3d93034c	0.07178363
236	0xbe110a3c	-0.1416406
237	0x3d691bda	0.056911327
238	0x3ba939fd	0.0051643834
239	0xbe00b67e	-0.12569615
240	0x3cb04cd7	0.021521015
241	0x3c034ec8	0.008014388
242	0xbdcf8320	-0.10132432
243	0xbd292db4	-0.04130335
244	0xbe3ee0a8	-0.18640387
245	0xbd2062e5	-0.039156813
246	0xbe2b9864	-0.16757351
247	0xbdc33b53	-0.095327996
248	0x3cafee6e	0.021475997
249	0xbd377e57	-0.04479822
250	0x3d29df26	0.041472577
251	0x3d2b0f60	0.04176271
252	0x3d1b0656	0.03784784
253	0xbd702e8e	-0.058638148
254	0x3df9280f	0.12165844
255	0x3d6704c0	0.056401014

features.denseblock1.denselayer2.norm1.weight f4 [40]
0	0x3f77cbbf	0.96795267
1	0x3f7c697b	0.9859845
2	0x3f7b0f10	0.9806986
3	0x3f8069df	1.0032309
4	0x3f84673b	1.0344003
5	0x3f81efb2	1.0151274
6	0x3f7f0954	0.9962361
7	0x3f80dddd	1.0067707
8	0x3f7855d7	0.9700598
9	0x3f80599f	1.002735
10	0x3f77880f	0.96691984
11	0x3f826494	1.0186944
12	0x3f7aea9c	0.98014235
13	0x3f80f5e6	1.0075042
14	0x3f76ee1b	0.9645707
15	0x3f80dc16	1.0067165
16	0x3f7fc6f9	0.99912983
17	0x3f7845c7	0.9698147
18	0x3f7d7aab	0.990153
19	0x3f7f456d	0.9971531
20	0x3f76d60b	0.96420354
21	0x3f7c20ab	0.9848735
22	0x3f7ccc03	0.987488
23	0x3f6f7df4	0.93551564
24	0x3f814a60	1.0100822
25	0x3f8fd5bc	1.1237102
26	0x3f7fb4e0	0.9988537
27	0x3f7d37a0	0.98913
28	0x3f7fb563	0.9988615
29	0x3f6c1404	0.9221804
30	0x3f82cc2e	1.0218561
31	0x3f8172a1	1.0113107
32	0x3f88da2c	1.0691581
33	0x3f84ed14	1.038485
34	0x3f81c5a1	1.0138437
35	0x3f7df7b5	0.99206096
36	0x3f7be8d3	0.98402137
37	0x3f824328	1.0176744
38	0x3f82491d	1.0178562
39	0x3f82ed0f	1.0228595

features.denseblock1.denselayer2.norm1.bias f4 [40]
0	0x3c04ac41	0.008097709
1	0x3cf7efcc	0.030265711
2	0xbcdb57ec	-0.026775323
3	0x3db82927	0.08992224
4	0xbbfbe8f4	-0.0076876823
5	0xbc22c633	-0.00993495
6	0x3c80174b	0.015636107
7	0xbbb34ae9	-0.0054715765
8	0x3d8402a8	0.06445819
9	0x3d1bad59	0.038007114
10	0x3cda77c0	0.02666843
11	0x3d1aa684	0.037756458
12	0x3cf73732	0.030177686
13	0xbb1fb71d	-0.0024370619
14	0xbd58c40e	-0.052921347
15	0xbd01deb1	-0.031706516
16	0xbcaa9cf2	-0.02082679
17	0x3de0cb03	0.109762214
18	0x3ca34c70	0.01993391
19	0x3c7677eb	0.015043239
20	0xbc008e17	-0.007846377
21	0xbc439299	-0.011936807
22	0x3d37ce05	0.04487421
23	0xbc2776ff	-0.010221242
24	0x3b89ae61	0.004201696
25	0x3d8eb7b1	0.0696863
26	0x3da2271b	0.07917615
27	0x3bdc71cd	0.0067274333
28	0xbc7a8421	-0.015290291
29	0xbd5b18ac	-0.053490326
30	0x3d5ebce2	0.05437935
31	0x3d32bce1	0.04363716
32	0x3d9f4425	0.077766694
33	0x3d9eeec3	0.07760384
34	0x3c37dec8	0.011222549
35	0xbd4cb8f8	-0.049981087
36	0xbc7f77b1	-0.0155925015
37	0x3de6e93b	0.11274954
38	0x3c6075f7	0.0137
39	0x3d63d534	0.05562325

features.denseblock1.denselayer2.norm1.running_mean f4 [40]
0	0x3f0d483b	0.5518834
1	0x3eef0fc0	0.46691704
2	0x3f0ac2d1	0.54203516
3	0x3edffd7c	0.4374808
4	0x3ea669f0	0.325027
5	0x3ed194ce	0.4093384
6	0x3eafebab	0.34359488
7	0x3eeaba40	0.45845222
8	0x3eddc843	0.4331685
9	0x3f069708	0.52574205
10	0x3f037cd1	0.5136233
11	0x3eca8313	0.39553127
12	0x3ee1bac4	0.44087803
13	0x3ee11472	0.4396091
14	0x3f0409f8	0.5157771
15	0x3ef8ac36	0.48568887
16	0x3f09cd7e	0.5382918
17	0x3ecade26	0.3962261
18	0x3eec8764	0.46197045
19	0x3f04f9c9	0.5194364
20	0x3f0b498c	0.544091
21	0x3eedcb7e	0.46444315
22	0x3ec6323a	0.38710195
23	0x3eef1bde	0.46700948
24	0x3eedc21b	0.46437153
25	0x3ebfffbb	0.37499794
26	0x3f00a20b	0.5024726
27	0x3ef061b9	0.46949556
28	0x3ee9de86	0.45677584
29	0x3f0384db	0.51374596
30	0x3ed1f155	0.41004434
31	0x3ec480af	0.38379428
32	0xbee679a7	-0.45014688
33	0xbe388ca8	-0.18022406
34	0xbd1d5b5d	-0.03841721
35	0x3f0bb42c	0.54571795
36	0x3eebd2da	0.46059304
37	0x3f185012	0.5949718
38	0xbdb3daa2	-0.08781935
39	0xbe8dcf09	-0.27697018

features.denseblock1.denselayer2.norm1.running_var f4 [40]
0	0x3ea64daf	0.32481143
1	0x3e9706b2	0.29497296
2	0x3f090f3f	0.5353889
3	0x3ea811af	0.32825992
4	0x3fd91173	1.695845
5	0x3f633a90	0.88761234
6	0x3fa558ef	1.2917765
7	0x3e9f5c31	0.31125024
8	0x3f946377	1.1592854
9	0x3f0acd10	0.5421915
10	0x3f151656	0.58237207
11	0x3edb5bf6	0.42843598
12	0x3e87164b	0.26384196
13	0x3f5054f4	0.8137963
14	0x3f1adff3	0.6049797
15	0x3e9ac9e1	0.30232146
16	0x3f2e02fb	0.679733
17	0x3e94113b	0.28919396
18	0x3ebb4f55	0.36583963
19	0x3f21cb8c	0.6320121
20	0x3eb672e0	0.35634518
21	0x3e972623	0.29521284
22	0x3e8baf63	0.27282247
23	0x3e925440	0.28579903
24	0x3eb48d99	0.3526428
25	0x3ed03ddc	0.40672195
26	0x3ebbe7bb	0.36700234
27	0x3f3118e1	0.6917859
28	0x3e966bc6	0.293791
29	0x3f08c24d	0.5342148
30	0x3e8be5c9	0.2732375
31	0x3f0e1c98	0.5551238
32	0x3f92ffb2	1.1484282
33	0x3fbae93d	1.4602429
34	0x3f88040c	1.0626235
35	0x3f941c4b	1.1571134
36	0x3f61040d	0.87896806
37	0x3fb6f7be	1.4294355
38	0x3efa88e5	0.48932567
39	0x3f996d10	1.1986408

features.denseblock1.denselayer2.conv1.weight f4 [32, 40, 1, 1]
0	0xbe55046d	-0.2080247
1	0x3d6b84ec	0.05749981
2	0x3f1bada6	0.6081184
3	0xbea137d4	-0.31487906
4	0xbee6e165	-0.45093837
5	0xbe99088c	-0.29889333
6	0x3dc717c2	0.09721328
7	0xbcfb95f2	-0.030711148
8	0xbc8f7d14	-0.017515697
9	0x3e43f1f8	0.19135273
10	0x3e47f833	0.19528274
11	0xbec1802b	-0.37793097
12	0x3d5a46cc	0.053290173
13	0x3e7af5a1	0.24507762
14	0x3f261ddf	0.6488933
15	0xbc81df41	-0.015853526
16	0xbcf8d788	-0.03037621
17	0x3e88025b	0.26564297
18	0x3e446a7b	0.19181244
19	0x3efefd0c	0.49802434
20	0xbdcb481b	-0.099258624
21	0xbe83fe39	-0.25779894
22	0xbe1bcff2	-0.15216044
23	0x3c85742d	0.016290748
24	0xbe5b75b2	-0.21431616
25	0xbe532f2f	-0.20623468
26	0xbe2ee85e	-0.17080829
27	0x3e9f0bac	0.31063592
28	0x3e4dad08	0.20085537
29	0xbdf539e3	-0.11973932
30	0xbd6a6928	-0.05722919
31	0xbe9c72ac	-0.30556238
32	0x3c8795be	0.016550895
33	0xbe7c916b	-0.24664848
34	0xbe6882ab	-0.22706096
35	0xbdfd3f96	-0.12365644
36	0xbd87d2bf	-0.066319935
37	0x3e519313	0.2046626
38	0xbe43edeb	-0.19133727
39	0x3e9a4fa1	0.30138877
40	0xbe85dbf4	-0.26144373
41	0xbe0eccf5	-0.13945372
42	0xbeaf098a	-0.34186965
43	0x3e96fb63	0.29488668
44	0x3daf375d	0.085554816
45	0xbde9b631	-0.114117034
46	0xbe232252	-0.15931061
47	0x3cc9b81d	0.024623925
48	0xbd91c8e7	-0.07118397
49	0x3df814f6	0.12113373
50	0x3e7572e5	0.2396961
51	0xbe84d34b	-0.25942454
52	0xbd7ecbb3	-0.06220598
53	0xbe4325e2	-0.1905742
54	0x3e094602	0.13405612
55	0x3d721d66	0.059110068
56	0xbe0ae6e3	-0.13564639
57	0xbf11330a	-0.56718504
58	0xbd8f7aa7	-0.07005816
59	0xbd0e6946	-0.034768365
60	0x3900f48d	0.00012298134
61	0xbcf3c7b1	-0.029758306
62	0xbe21454e	-0.15749094
63	0xbe04f299	-0.12983169
64	0x3ec7dfae	0.39037842
65	0xbd555ccd	-0.052090455
66	0xbee1d0e0	-0.4410467
67	0x3e84efd4	0.25964224
68	0x3e0b82a9	0.13624062
69	0xbf2dfe24	-0.6796591
70	0xbe0ac9af	-0.13553499
71	0x3e4f285a	0.20230237
72	0x3d3ce102	0.04611302
73	0xbe4bf81f	-0.1991887
74	0xbe4abcca	-0.1979858
75	0x3d8859a9	0.06657726
76	0x3e423d46	0.18968686
77	0xbf2e9e6b	-0.68210477
78	0x3e64333f	0.22285174
79	0x3b48f2a9	0.0030662215
80	0x3ec0ecfb	0.37680802
81	0xbce1f5e4	-0.02758307
82	0xbe10fbbb	-0.14158528
83	0x3ea030bf	0.3128719
84	0x3ef74c8c	0.48300588
85	0x3e525bd2	0.20542839
86	0xbe50dfe1	-0.20397903
87	0x3b0bb18b	0.002131554
88	0x3d0374b4	0.03209372
89	0xbe14e7f7	-0.14541613
90	0xbe059f4d	-0.1304905
91	0xbe17c28a	-0.14820305
92	0xbdfa13e5	-0.12210826
93	0x3e710c3b	0.23539822
94	0xbe0f8a7f	-0.14017676
95	0xbe47de7d	-0.19518466
96	0x3efb254a	0.49051887
97	0x3d0e5470	0.034748495
98	0x3e9e0ec1	0.3087063
99	0x3e64ac74	0.2233141
100	0xbebca253	-0.36842594
101	0xbe015d8c	-0.12633342
102	0x3dad2b15	0.08455483
103	0x3ea13213	0.31483516
104	0x3e703181	0.23456384
105	0x3eaa4629	0.33256653
106	0x3db09e37	0.08623927
107	0x3e3b9e7d	0.18322177
108	0x3c60e8bc	0.013727363
109	0xbee38d37	-0.44443676
110	0x3c9ce14d	0.0191504
111	0x3d90d937	0.070726804
112	0xbe5a02b8	-0.212901
113	0xbda2af6e	-0.07943617
114	0xbe6297ff	-0.22128294
115	0xbba2fc92	-0.0049739564
116	0x3ec28431	0.3799148
117	0xbf00aafc	-0.502609
118	0x3ee20b3d	0.441492
119	0x3e405567	0.18782578
120	0xbe37318e	-0.17889997
121	0xbeb5f4af	-0.3553824
122	0xbe3d49c4	-0.1848517
123	0xbe2be21d	-0.16785474
124	0xbe2721cb	-0.16321485
125	0x3e01378e	0.12618849
126	0xbdf28902	-0.118425384
127	0x3e59e4cc	0.21278685
128	0xbeda59d5	-0.4264666
129	0xbe4d7a1a	-0.2006611
130	0x3e3665d8	0.17812288
131	0xbe45d75b	-0.19320433
132	0xbe5f2421	-0.21791126
133	0xbe91ca22	-0.28474528
134	0x3e8e675c	0.27813232
135	0x3f03eeda	0.51536334
136	0xbda1bbd9	-0.07897157
137	0xbe93f72b	-0.28899512
138	0x3dbdfb71	0.09276474
139	0x3e0a25f9	0.13491048
140	0xbe01f2aa	-0.12690225
141	0x3dadf456	0.08493869
142	0xbee53f7e	-0.44775003
143	0xbebb3626	-0.3656475
144	0x3ed9cb56	0.42537946
145	0xbe9a35ad	-0.30119076
146	0xbe24371e	-0.1603665
147	0xbe5abac1	-0.21360303
148	0xbe9be6d7	-0.30449554
149	0x3e782a5c	0.24234909
150	0xbc7f781c	-0.015592601
151	0xbd663257	-0.05620035
152	0xbe91df41	-0.28490642
153	0xbee52cd1	-0.44760755
154	0xbda93dbf	-0.0826373
155	0x3eefb83d	0.4682025
156	0x3e78fce3	0.24315219
157	0x3c2388e8	0.009981371
158	0xbe1bbe07	-0.15209208
159	0x3e3a7d62	0.18211892
160	0xbdd97991	-0.1061889
161	0x3c9367ea	0.017993886
162	0xbd811d41	-0.06304408
163	0x3dff4580	0.12464428
164	0x3e66a055	0.225221
165	0x3d7c79ca	0.061639585
166	0x3d2ce255	0.042208035
167	0x3cf37866	0.029720496
168	0x3d9a267b	0.07526871
169	0xbd2e0a60	-0.042490363
170	0x3e451c82	0.19249156
171	0xbe4d9424	-0.20076042
172	0xbe8fe284	-0.28102505
173	0x3dfb64f4	0.12275115
174	0x3cb8746b	0.02251645
175	0x3ca21b02	0.019788269
176	0xbe4c6aa9	-0.19962563
177	0xbeb965cd	-0.3621048
178	0x3dec31db	0.11532947
179	0xbd39f275	-0.04539724
180	0xbe3cd01e	-0.18438765
181	0xbecd1c2a	-0.4006055
182	0xbe0eb6e0	-0.13936949
183	0x3e644f3f	0.22295855
184	0xbe8fe880	-0.2810707
185	0xbd84a857	-0.06477421
186	0xbcfb9c82	-0.030714277
187	0x3e9e8fe6	0.3096916
188	0xbec1b304	-0.3783189
189	0x3ee0f384	0.43935788
190	0xbe272bbd	-0.16325279
191	0xbe471ec6	-0.19445333
192	0x3e491e1a	0.19640389
193	0xbed10ce9	-0.40830162
194	0x3f27e340	0.6558113
195	0xbd9b4850	-0.07582152
196	0xbe9545f2	-0.29154927
197	0xbcf8e973	-0.030384755
198	0x3d81d913	0.06340232
199	0x3de26670	0.11054695
200	0xbe4d297b	-0.20035355
201	0x3c4e2e8b	0.012584339
202	0x3cafedce	0.021475699
203	0x3d2b14c7	0.04176786
204	0xbc0dfd17	-0.008666298
205	0xbe7b4e1f	-0.2454152
206	0x3e408f98	0.18804777
207	0x3eb9a88a	0.36261398
208	0x3e6ad6de	0.22933528
209	0xbde87a9b	-0.1135151
210	0x3e9a5107	0.30139944
211	0xbca54b12	-0.020177398
212	0xbe848e5e	-0.25889868
213	0x3bb5ec88	0.0055518784
214	0xbd62ca52	-0.05536873
215	0xbeaa2c50	-0.33236933
216	0x3d16fc83	0.036861908
217	0x3ec11653	0.37712345
218	0xbe5b4a2a	-0.2141501
219	0x3d0379a3	0.032098424
220	0xbd5b0c0b	-0.053478282
221	0xbda0e07e	-0.078553185
222	0x3ed36707	0.4128954
223	0xbe13cb6f	-0.14433073
224	0x3e7fe90f	0.24991249
225	0x3e3baf5f	0.18328618
226	0x3c85d3a9	0.016336279
227	0x3e1d4063	0.15356593
228	0xbe089aa2	-0.13340238
229	0x3d8c186c	0.068405956
230	0xbd084710	-0.033270895
231	0xbc5bd569	-0.01341758
232	0x3e3b8bc0	0.18315029
233	0xbea3e2e1	-0.32009032
234	0xbc247d86	-0.010039693
235	0x3c70a044	0.014686648
236	0x3e188756	0.14895377
237	0xbe92f920	-0.28705692
238	0xbe4d8421	-0.20069934
239	0xbe01af92	-0.12664631
240	0xbdf24c35	-0.118309416
241	0x3f18aa30	0.59634686
242	0x3ec11534	0.3771149
243	0xbe046348	-0.12928498
244	0x3df1e6e9	0.11811621
245	0x3ed46c7c	0.41489017
246	0xbc572766	-0.013131952
247	0x3e75a1be	0.23987481
248	0x3cb26278	0.02177547
249	0xbed9deac	-0.42552698
250	0x3e60d43f	0.21955965
251	0xbde0567f	-0.10953998
252	0xbbc161f3	-0.005901569
253	0xbdfddd8a	-0.12395771
254	0xbccc31e7	-0.024926139
255	0xbe21d7b9	-0.15804948

features.denseblock1.denselayer2.norm2.weight f4 [32]
0	0x3f6b4485	0.9190143
1	0x3f81d779	1.0143882
2	0x3f7d9296	0.990518
3	0x3f8238b3	1.0173553
4	0x3f8049b3	1.0022491
5	0x3f787628	0.9705529
6	0x3f7fc6b6	0.99912584
7	0x3f7b1b76	0.9808878
8	0x3f7a766f	0.97836965
9	0x3f8d6fe0	1.1049767
10	0x3f76cfcd	0.9641083
11	0x3f7a4fe9	0.97778183
12	0x3f82ea9b	1.0227846
13	0x3f80b9c9	1.0056697
14	0x3f8837f6	1.0642078
15	0x3f82fd31	1.0233518
16	0x3f81428a	1.0098431
17	0x3f74c7e9	0.9561754
18	0x3f823d94	1.0175042
19	0x3f7abf76	0.97948396
20	0x3f82fc78	1.0233297
21	0x3f825f56	1.0185344
22	0x3f7fc520	0.99910164
23	0x3f7a41f0	0.9775686
24	0x3f804293	1.0020317
25	0x3f6e25b3	0.93026274
26	0x3f7c446c	0.98541903
27	0x3f74a9df	0.955717
28	0x3f7f52d3	0.99735755
29	0x3f84f50d	1.0387284
30	0x3f85531a	1.0415986
31	0x3f8149d1	1.0100652

features.denseblock1.denselayer2.norm2.bias f4 [32]
0	0xbc909c39	-0.017652618
1	0x3cb9b443	0.022668963
2	0xbd1c957c	-0.038228497
3	0x3d135bce	0.035976224
4	0x3d2f9189	0.042863403
5	0x3c3593a4	0.011082564
6	0xbc91aa27	-0.01778133
7	0x3d24f0ab	0.04026858
8	0xbc26189b	-0.010137702
9	0x3d3feeca	0.046858586
10	0xbd509b6c	-0.05092947
11	0xbbfc91bd	-0.007707803
12	0x3e092ef7	0.13396822
13	0x3c2e012c	0.010620397
14	0x3d40b8fa	0.047051407
15	0x3ced97de	0.02900308
16	0x3d63a876	0.05558058
17	0xbda0ea4e	-0.0785719
18	0x3beb46fa	0.007180092
19	0xbc56a108	-0.013099916
20	0x3d02e964	0.03196086
21	0x3c752166	0.014961576
22	0xbd162531	-0.036656562
23	0xbcb35c99	-0.02189474
24	0xbbcce6f5	-0.006253118
25	0xbd1a2514	-0.037633017
26	0xbcabee5b	-0.02098768
27	0xbb8d6e0a	-0.004316096
28	0x3d004126	0.03131213
29	0x3d56d6c0	0.052450895
30	0x3d726d91	0.059186522
31	0x3cd040e9	0.025421577

features.denseblock1.denselayer2.norm2.running_mean f4 [32]
0	0x3e415c29	0.18882813
1	0xbf71403b	-0.9423863
2	0x3f04e302	0.51908886
3	0xbf56a4d5	-0.83845264
4	0xbea2bb0c	-0.3178333
5	0xbd82a042	-0.06378223
6	0xbe2fbe99	-0.17162551
7	0x3d59e81d	0.053199876
8	0xbf01b138	-0.5066104
9	0x3dea958e	0.114543065
10	0x3e9272f3	0.28603324
11	0xbe0634ab	-0.13106029
12	0xbeaec545	-0.3413488
13	0xbd856703	-0.065137886
14	0xbd432138	-0.0476391
15	0x3d5dc2b3	0.054140758
16	0x3e9c880e	0.3057255
17	0x3edbafea	0.4290765
18	0xbef317c9	-0.47479084
19	0xbf4ff943	-0.8123972
20	0xbebb4941	-0.36579326
21	0x3ca5eb80	0.020253897
22	0x3d2d823e	0.042360537
23	0x3e9d47e4	0.3071891
24	0xbf7898c6	-0.97108114
25	0x3f2ec619	0.68271023
26	0x3dadfacb	0.084951006
27	0x3ead69d1	0.33869794
28	0x3e9c0f27	0.3048031
29	0xbe135682	-0.14388469
30	0xbe8a2cb1	-0.26987222
31	0x3e7307e1	0.23733474

features.denseblock1.denselayer2.norm2.running_var f4 [32]
0	0x4074a63f	3.8226469
1	0x3fba68d2	1.4563239
2	0x3ff8d40d	1.9439713
3	0x401357d4	2.3022356
4	0x3ff22bd0	1.891962
5	0x3f852aa8	1.0403643
6	0x3fe1dd74	1.7645707
7	0x3f9cf96c	1.2263618
8	0x3fd6c9f4	1.6780381
9	0x3f50e308	0.8159642
10	0x3ed97e8c	0.4247936
11	0x3fc75790	1.5573597
12	0x3f8e1d1b	1.1102632
13	0x3f71a2fa	0.9438931
14	0x3f5ce560	0.862875
15	0x3f33dbfa	0.7025753
16	0x3f4d894f	0.8028764
17	0x40463e0f	3.0975378
18	0x3f1bdd84	0.6088488
19	0x3fb52c9c	1.4154239
20	0x3f837277	1.0269307
21	0x3fab9613	1.3405174
22	0x3f49a683	0.787697
23	0x3e95f868	0.2929108
24	0x3fd2b250	1.6460667
25	0x3fe95d6a	1.8231633
26	0x3f6b7eae	0.9199017
27	0x3fc216ad	1.516317
28	0x3f70f9d7	0.94131225
29	0x3eebc563	0.46049032
30	0x3fedd1af	1.8579615
31	0x3f92b5ea	1.1461766
