saved_models/Inception_Epoch30_Batch100_80_20.pth (torch, 756576 bytes, 68 tensors)

conv1.weight f4 [32, 1, 3, 3]
0	0x3ce14730	0.027499765
1	0xbe12a340	-0.14320087
2	0x3e7a2b62	0.24430612
3	0xbe4f3b33	-0.20237426
4	0xbe84049b	-0.25784764
5	0x3dc2c334	0.09509888
6	0x3d8f31d4	0.06991926
7	0x3e6c43da	0.23072758
8	0xbe3a9833	-0.18222122
9	0xbd6a489c	-0.057198152
10	0x3e5c4a44	0.21512705
11	0x3ec0694c	0.37580335
12	0xbeb579d0	-0.35444498
13	0xbea664d5	-0.32498804
14	0x3e021d3a	0.12706462
15	0xbe327d2b	-0.1743056
16	0x3ea09c0f	0.31369063
17	0xbe8226b1	-0.25420144
18	0xbe6f7012	-0.23382595
19	0xbe6da4d0	-0.23207402
20	0xbdaa5d6d	-0.08318601
21	0xbe268b22	-0.16264012
22	0x3e0d1cfe	0.13780591
23	0xbe25a95b	-0.16177885
24	0xbe8bf9f3	-0.27339134
25	0xbda3e6b6	-0.08002989
26	0x3ea6e813	0.32598934
27	0xbed2ed18	-0.41196513
28	0xbeeb5f66	-0.4597122
29	0xbdca7f1f	-0.09887528
30	0x3dd73352	0.105078354
31	0x3e4b8c59	0.19877757
32	0x3d2926ef	0.041296896
33	0x3edf1c5c	0.43576324
34	0xbdca6f62	-0.09884526
35	0x3eaa8d8e	0.33311123
36	0xbea05d62	-0.31321245
37	0xbe654750	-0.22390485
38	0x39e421e9	0.00043512814
39	0x3ead8deb	0.33897337
40	0x3ea3efaf	0.32018802
41	0xb9a3e0b6	-0.00031257205
42	0xbdddbc59	-0.1082694
43	0xbdd29cad	-0.1028379
44	0x3df941fa	0.12170787
45	0xbe6a31c0	-0.2287054
46	0x3e3e420e	0.18579885
47	0x3df7971b	0.12089368
48	0x3e874ba6	0.26424903
49	0xbc2a98dd	-0.010412422
50	0x3da65af3	0.08122816
51	0x3e87555a	0.26432306
52	0xbebe4d57	-0.3716838
53	0x3d490b04	0.04908277
54	0x3dc447f6	0.09584038
55	0xbe6563d8	-0.22401369
56	0xbe32d1a0	-0.17462778
57	0x3c700a5e	0.014650909
58	0xbd129a54	-0.03579171
59	0xbda3d1ab	-0.07998975
60	0xbe8e2b26	-0.27767295
61	0x3eb55e30	0.35423422
62	0x3d5842d8	0.052798122
63	0x3e86121f	0.261857
64	0x3e3b186a	0.18271032
65	0x3d04a0d2	0.032379933
66	0xbe8c237b	-0.2737082
67	0xbd312321	-0.043246392
68	0x3e6f6458	0.23378122
69	0xbecaacf3	-0.39585075
70	0x3e4c5e04	0.19957739
71	0x3e1d1b65	0.15342481
72	0x3e2edba9	0.17075981
73	0x3e47f5df	0.19527386
74	0xbec08162	-0.3759871
75	0xbd5c08af	-0.05371922
76	0xbb8e3a43	-0.0043404414
77	0x3e3b46de	0.18288752
78	0xbccab8fc	-0.02474641
79	0xbe181b16	-0.14854082
80	0x3e931b64	0.28731835
81	0x3e1bb6ea	0.15206495
82	0xbe4f4b3e	-0.20243546
83	0xbdb95d29	-0.09050972
84	0xbe9784a6	-0.2959339
85	0xbe3568be	-0.17715737
86	0xbd3171ad	-0.0433213
87	0x3d336ba6	0.043803833
88	0x3d074413	0.033023905
89	0xbe0f48d2	-0.13992622
90	0x3cc9de87	0.024642242
91	0x3e444053	0.19165163
92	0xbd7e9414	-0.062152937
93	0x3e5f1153	0.21783952
94	0x3e18e7ae	0.14932129
95	0xbe14c5c5	-0.14528568
96	0xbe38f072	-0.18060473
97	0x3dbcf25a	0.092259124
98	0xbe42d59b	-0.19026797
99	0xbe657cb3	-0.2241085
100	0xbe848978	-0.2588613
101	0xbe1d0e53	-0.15337496
102	0xbe94a7e8	-0.29034352
103	0x3e48e1fa	0.19617453
104	0x3e0c5cbe	0.13707253
105	0x3e90bf11	0.28270772
106	0xbe0e467e	-0.13894078
107	0x3d86b034	0.06576577
108	0xbed8ed2b	-0.42368445
109	0x3e3524bd	0.17689796
110	0x3ecfae94	0.4056288
111	0xbe460430	-0.19337535
112	0x3e26c3ab	0.16285579
113	0xbe6e0e82	-0.23247722
114	0x3d43e3aa	0.04782454
115	0xbd62054e	-0.05518084
116	0x3e2515f2	0.16121653
117	0xbd9372d4	-0.07199636
118	0x3cc7bb40	0.02438128
119	0xbdf9a5fc	-0.12189862
120	0xbe4830a0	-0.19549799
121	0xbe4622e3	-0.19349246
122	0xbd945ed4	-0.072446495
123	0xbe97b917	-0.296334
124	0x3dc1c3c4	0.094611675
125	0x3d07f5b8	0.03319332
126	0xbe0a2cd6	-0.13493666
127	0xbd93461f	-0.07191109
128	0xbed92c50	-0.4241662
129	0xbcaded1c	-0.021231227
130	0xbddcdc4a	-0.10784204
131	0xbabc47c3	-0.0014364648
132	0x3e6efd9b	0.2333893
133	0xbd830e86	-0.063992545
134	0x3e540ed2	0.20708779
135	0x3e4cfeba	0.20019045
136	0xbe2dfe93	-0.16991644
137	0x3e424996	0.18973383
138	0xbe5c1e70	-0.21495986
139	0x3d296a28	0.041361004
140	0xbe87c72f	-0.26519153
141	0xbe1aec20	-0.15129137
142	0xbea858ab	-0.32880148
143	0x3e86b4f7	0.2630994
144	0x3dbac37f	0.09119319
145	0x3e87cc8e	0.2652325
146	0x3dc4030a	0.09570892
147	0xbe03e950	-0.1288197
148	0xbe4cec19	-0.20011939
149	0x3e659fb2	0.224242
150	0xbb9eba33	-0.004843974
151	0xbcacd995	-0.021099845
152	0xbdbf2ba3	-0.09334495
153	0x3ea4c7c2	0.32183653
154	0xbe13b2bf	-0.14423655
155	0xbd2b2903	-0.04178716
156	0x3e83883a	0.2568987
157	0x3dad2786	0.08454804
158	0x3e2caada	0.1686205
159	0x3e54ef4f	0.20794414
160	0xbe76be61	-0.24096061
161	0xbcdc4f11	-0.02689317
162	0xbe1adcf4	-0.1512335
163	0x3e3802d4	0.17969829
164	0xbe1ed5b8	-0.15511215
165	0x3d6b6846	0.05747249
166	0xbea0c291	-0.31398442
167	0xbe68c0b9	-0.22729768
168	0xbe932946	-0.28742427
169	0xbe8b50ab	-0.27209982
170	0x3c48771e	0.012235431
171	0x3ea8e21b	0.32985005
172	0xbe22b354	-0.15888721
173	0x3e088b74	0.13334447
174	0xbea223b3	-0.3166786
175	0xbdbae8d8	-0.09126443
176	0x3ea6c152	0.32569367
177	0xbc5bc752	-0.013414221
178	0x3db8747f	0.09006595
179	0xbd37dcfa	-0.044888474
180	0x3e5ae95a	0.21378079
181	0x3e4df2b0	0.20112109
182	0xbdc70628	-0.09717971
183	0x3e05c4c0	0.13063335
184	0x3dfb1a9b	0.12260934
185	0xbc7403c6	-0.014893478
186	0x3c1b736a	0.009487966
187	0xbe77eee2	-0.2421222
188	0xbed6d717	-0.41960976
189	0xbde8e4ff	-0.113718025
190	0xbe4104e0	-0.18849516
191	0x3cb47d21	0.022032322
192	0x3e068283	0.13135724
193	0x3aa2a87d	0.0012409833
194	0xbea96f3f	-0.33092687
195	0x3ec1596b	0.37763533
196	0x3e6121c4	0.21985537
197	0x3c774a9c	0.015093472
198	0xbea9dfcd	-0.3317856
199	0xbda878c8	-0.08226162
200	0xbe3b7f7e	-0.18310353
201	0x3e8adf27	0.27123377
202	0xbe2c8c7b	-0.16850464
203	0xbe81c117	-0.25342628
204	0x3e51c39d	0.20484777
205	0xbe3eb244	-0.1862269
206	0x3dc259e8	0.094898045
207	0xbe881c40	-0.26584053
208	0xbe36cede	-0.17852351
209	0x3e90e1c9	0.2829726
210	0x3e217bfa	0.1576995
211	0xbe8cce17	-0.27500984
212	0x3e6b0722	0.2295194
213	0x3df460b0	0.11932504
214	0xbe492ad0	-0.19645238
215	0x3e43db52	0.19126633
216	0x3e83e8f4	0.25763667
217	0x3e5d536a	0.21613851
218	0x3e1d8cdb	0.15385763
219	0xbe2c848d	-0.16847439
220	0xbe147118	-0.14496267
221	0xbe5c7507	-0.21529017
222	0x3edff688	0.43742776
223	0x3e7c9cc4	0.24669176
224	0xbecc3ac3	-0.39888582
225	0xbd041d60	-0.032254577
226	0x3c90402a	0.01760872
227	0x3e417e94	0.18895942
228	0xbeb66e4f	-0.35631034
229	0xbe90505a	-0.28186303
230	0x3e506d65	0.2035423
231	0xbc0e88f0	-0.008699641
232	0xbe95ff25	-0.29296222
233	0x3ebb80f9	0.36621836
234	0x3e5ada96	0.21372446
235	0xbe8f50ee	-0.27991432
236	0x3e0f27ce	0.13980028
237	0xbe27bb28	-0.16379988
238	0x3e507c82	0.20359996
239	0xbe5b9360	-0.21442938
240	0xbddc799c	-0.10765383
241	0xbe89842f	-0.2685866
242	0xbb668f80	-0.0035180748
243	0x3e87c63f	0.26518437
244	0xbe4a2ecd	-0.19744416
245	0xbe734e8a	-0.23760429
246	0x3e63562f	0.22200845
247	0xbdb684df	-0.08912062
248	0xbe576493	-0.2103446
249	0xbe20d639	-0.1570672
250	0x3e87b0e1	0.26502135
251	0x3ebc04d4	0.36722434
252	0x3deedfa4	0.1166375
253	0xbe707bbe	-0.23484704
254	0x3e1e5e3a	0.15465632
255	0xbe623386	-0.22089967

conv1.bias f4 [32]
0	0xbea7bdea	-0.3276208
1	0x3d675e24	0.056486264
2	0x3eb1af00	0.34703827
3	0x3ccfcc4b	0.02536597
4	0xbd2da4df	-0.04239356
5	0xbdb9a82c	-0.09065279
6	0x3e83e721	0.25762275
7	0xbe17f127	-0.14838086
8	0xbd84175b	-0.06449767
9	0x3d175e7b	0.036955338
10	0xbd016dde	-0.03159892
11	0xbe7d9cbe	-0.24766824
12	0x3df46300	0.11932945
13	0xbd4be368	-0.04977742
14	0x3e543224	0.20722252
15	0xbd9e0d70	-0.07717407
16	0x3cbc5ec8	0.022994414
17	0xbe24cca5	-0.1609369
18	0x3e9bb8f7	0.30414554
19	0xbd56d738	-0.052451342
20	0x3e2089ab	0.15677516
21	0x3cda0e95	0.026618281
22	0x3d4f3208	0.050584823
23	0xbe703160	-0.23456335
24	0xbd7183ab	-0.05896346
25	0x3e02b2f2	0.12763575
26	0xbd44fb38	-0.048091143
27	0x3b5c263c	0.0033592125
28	0xbd83058c	-0.06397542
29	0xbe183372	-0.14863375
30	0xbe6b89e3	-0.23001818
31	0x3d66db88	0.056361705

conv2.weight f4 [32, 32, 3, 3]
0	0xbd70b865	-0.058769602
1	0x3c91ccde	0.017797884
2	0xbce2051e	-0.02759033
3	0xbb948c18	-0.004533302
4	0x3d271547	0.040791776
5	0xbd10379a	-0.035209276
6	0x3c158b14	0.009127397
7	0xbd442986	-0.047891162
8	0xbc070d7c	-0.008242961
9	0x3d2d8b38	0.042369097
10	0xbd445717	-0.047934618
11	0x3cc69dc5	0.024245152
12	0xbae5a877	-0.001752152
13	0xbcc10b56	-0.023564976
14	0x3a835e45	0.0010022601
15	0x3c8f6f2d	0.017509067
16	0xbd6c3d26	-0.057675503
17	0x3d1610b8	0.036637038
18	0xbc964906	-0.018345367
19	0x3d467878	0.04845473
20	0x3ceeb74b	0.029140135
21	0xbbefd487	-0.0073190364
22	0xbc9e2558	-0.019304916
23	0x3d30b5e2	0.043142207
24	0x3d622329	0.055209313
25	0x3b619c9c	0.0034425622
26	0x3c29a74e	0.01035483
27	0x3cd40e30	0.025885671
28	0x3d3fd0be	0.04682993
29	0xbd2e9259	-0.042620037
30	0xbc87451a	-0.016512442
31	0x3d5fbaea	0.054621615
32	0x3d6528d7	0.05594715
33	0xbd48677a	-0.048926808
34	0xbc9fb2a3	-0.01949436
35	0xbcdf8375	-0.027284363
36	0xbb827998	-0.0039817803
37	0x3c9872fe	0.01860952
38	0xbc692664	-0.014230344
39	0x3c4b84bc	0.012421783
40	0xbce0e0c2	-0.027450923
41	0xbcec952e	-0.028879728
42	0xbd16239c	-0.036655053
43	0x3cab135a	0.020883251
44	0xbcd12ee8	-0.025535062
45	0x3cc84c93	0.024450576
46	0x3c6145e2	0.0137495715
47	0x3c9eb20f	0.019372014
48	0xbc4c8af1	-0.012484298
49	0xbd591195	-0.052995283
50	0xbc9a4a4b	-0.018834254
51	0x3d56db9a	0.052455522
52	0x3cec2279	0.028825032
53	0xbc522c39	-0.012827926
54	0xbd027318	-0.031848043
55	0xbd28c70a	-0.041205443
56	0x3bf46bac	0.0074591246
57	0x3d248598	0.040166467
58	0x3c3b204f	0.011421277
59	0xbb91c1bb	-0.0044481433
60	0x3d1c034f	0.038089093
61	0x3ced7498	0.02898626
62	0x3d3e2a84	0.046427265
63	0x3d085870	0.033287466
64	0x3d6ad9df	0.057336684
65	0x3d2e4ddd	0.042554725
66	0xbd4604c1	-0.048344377
67	0xbc83bbb6	-0.016080718
68	0xbbcc56e7	-0.0062359455
69	0xbb10b376	-0.0022079623
70	0x3d524be8	0.05134192
71	0xbd1fd742	-0.039023645
72	0x3c2b19ba	0.010443145
73	0x3d086a5d	0.03330456
74	0xbd51712a	-0.051133312
75	0xbcb3b318	-0.021935984
76	0x3acc4ca2	0.0015586803
77	0x3c5456a0	0.012960106
78	0xbd2da717	-0.042395677
79	0x3d62561c	0.0552579
80	0x3d634ed0	0.055495083
81	0x3d5f8c1a	0.05457697
82	0xbd1c754f	-0.03819781
83	0xbc9f2fd1	-0.01943198
84	0xbcfeaa8b	-0.03108718
85	0xbcca2666	-0.024676513
86	0x3d08c654	0.033392265
87	0x3d254086	0.040344737
88	0x3c2e0e1d	0.010623482
89	0xbcec0df5	-0.028815249
90	0x3d504a79	0.050852273
91	0x3c28e963	0.01030955
92	0xbcd53742	-0.026027326
93	0x3d6b5f5d	0.057463992
94	0x3c3ad205	0.011402612
95	0xbb897b5a	-0.004195613
96	0x3d306686	0.043066524
97	0xbd20aa03	-0.039224636
98	0x3a315f52	0.0006766218
99	0x3d39dd27	0.045376923
100	0xbd53082e	-0.051521473
101	0xbd2a2af4	-0.04154487
102	0x3d6934fd	0.0569353
103	0xbbeb8500	-0.0071874857
104	0x3cd8a7fe	0.026447292
105	0x3d580b33	0.052745055
106	0x3d6e0d6d	0.058118273
107	0xbd6ce74c	-0.05783777
108	0x3d504b22	0.050852902
109	0xbd19d8ec	-0.03756039
110	0xbc2cab1f	-0.010538845
111	0xb9f8d910	-0.0004746397
112	0x3d56d52c	0.05244939
113	0xbd75b8df	-0.05999076
114	0xbd54568a	-0.051840343
115	0xbc9ebc83	-0.019376999
116	0xbd44db44	-0.04806067
117	0x3d0ac2e5	0.033877272
118	0xbcfe86ab	-0.031070074
119	0xbd4b0112	-0.049561568
120	0xbcd3694a	-0.025807042
121	0xbd2eb0fa	-0.042649247
122	0xbd399bfe	-0.04531478
123	0x3d412feb	0.04716484
124	0xbc347570	-0.011014327
125	0xbd0dbe1e	-0.034605138
126	0xbd46f615	-0.048574526
127	0x3d56a7bb	0.052406054
128	0x3d0036ea	0.03130237
129	0x3c8a72a8	0.016900375
130	0x3d65f1ed	0.05613892
131	0xbcc09a4d	-0.023511076
132	0x3cd05543	0.025431281
133	0xbd4d51f8	-0.050127
134	0xbd713027	-0.058883812
135	0xbcf81714	-0.030284442
136	0x3b4cf7f0	0.0031275712
137	0x3d23a205	0.039949436
138	0xbbc7a090	-0.0060921386
139	0xbd521d1d	-0.051297296
140	0xbba952d0	-0.0051673427
141	0x3ca9cf42	0.020728711
142	0x3c913afa	0.017728318
143	0x3b0477b0	0.002021294
144	0xbc92cbaf	-0.01791939
145	0xbb890686	-0.004181686
146	0xbce0e4db	-0.027452877
147	0x3c9d98fa	0.019237984
148	0x3d1ef9f4	0.038812593
149	0x3c80b5ce	0.015711691
150	0xbd0b1f5b	-0.03396545
151	0x3c5e5483	0.013569954
152	0xbb6de7d3	-0.0036301508
153	0xbac03326	-0.0014663681
154	0x3bf97cbd	0.007613747
155	0x3b6d165f	0.0036176664
156	0x3cc32a95	0.023824016
157	0xbd4b4b6c	-0.049632475
158	0xbc97850c	-0.018496059
159	0xba158f83	-0.0005705284
160	0xbd5f5c96	-0.054531656
161	0x3cf88fbc	0.030341975
162	0x3cec8555	0.028872171
163	0xbd771dc3	-0.060331117
164	0x3cdcdb14	0.026959933
165	0xbc9a1211	-0.018807443
166	0x3c3b2ca8	0.011424221
167	0xbc99094b	-0.018681189
168	0x3c98fa74	0.018674113
169	0xbd51d726	-0.051230572
170	0x3c46b65f	0.012128442
171	0x3d594596	0.053044878
172	0x3b8ca1a3	0.0042917295
173	0xbcb1f5c1	-0.02172363
174	0x3ced81f0	0.028992623
175	0x3b67ee0a	0.0035389685
176	0x3d0e18dd	0.03469168
177	0xbd155974	-0.036462262
178	0x3d1c0f45	0.0381005
179	0xbd4d8104	-0.050171867
180	0x3c252529	0.01007966
181	0xbc1a5aad	-0.009421033
182	0xbcbca5ea	-0.023028333
183	0x3d232703	0.039832126
184	0x3d6c162f	0.057638343
185	0xbd1b547f	-0.03792238
186	0xbd434981	-0.04767752
187	0xbc87ed25	-0.016592572
188	0x3d1c1150	0.038102448
189	0x3cb602fb	0.022218218
190	0xbce6db90	-0.028180867
191	0xbc76502d	-0.015033764
192	0x3d37585c	0.044762
193	0xbd0b2a40	-0.03397584
194	0x3c42b6a0	0.0118843615
195	0xbce62e2c	-0.028098188
196	0xbd00975b	-0.031394344
197	0xbd6ff8b2	-0.058586784
198	0x3b92ba73	0.004477793
199	0x3d207c5f	0.03918111
200	0xbb203049	-0.0024442843
201	0x3ad84b0b	0.0016501857
202	0x3d2b8220	0.041872144
203	0xbbeeea53	-0.007291117
204	0x3d34f70e	0.044180922
205	0xbcefa97d	-0.029255623
206	0x3c12b4a8	0.008954205
207	0xbd0f6593	-0.035008978
208	0xbcb624fe	-0.022234436
209	0x3cc4e7be	0.024036285
210	0xbb7a5ec0	-0.0038203448
211	0x3cc06e7a	0.02349018
212	0x3d6ffdfb	0.058591824
213	0x3d2b5721	0.04183114
214	0x3d4801b9	0.048829768
215	0x3d459003	0.048233043
216	0x3c9c7545	0.019098887
217	0xbd1421d8	-0.03616509
218	0x3cc9d85d	0.024639303
219	0xbd1f3180	-0.038865566
220	0xbc3d3c5b	-0.011550034
221	0xbd0df078	-0.034653157
222	0xbcbdd983	-0.023175007
223	0xbcdf46c0	-0.027255416
224	0x3d2a0042	0.041504152
225	0xbd35c1a1	-0.044374112
226	0x3cf5be40	0.029997945
227	0x3c0dcfec	0.0086555295
228	0xbcd28d35	-0.025702098
229	0x3d4e36ab	0.050345104
230	0xbce39c93	-0.027784621
231	0xbc8d44a9	-0.017244654
232	0xbcee5cf6	-0.029097062
233	0xbb96723c	-0.0045912545
234	0xbd1963bf	-0.03744864
235	0xbc8a3608	-0.016871467
236	0xbd03ce76	-0.03217932
237	0x3d47c0e7	0.04876795
238	0xbd5fd1d2	-0.05464346
239	0x3d0969f9	0.03354833
240	0xbd1d357e	-0.038381092
241	0x3c1ba8fc	0.009500738
242	0x3cf309ce	0.029667761
243	0x3c202ff7	0.009777061
244	0x3d6acda0	0.057325006
245	0xbcac6728	-0.021045282
246	0xbcd91829	-0.026500778
247	0xbd51923d	-0.051164854
248	0x3d4bc375	0.04974695
249	0x3cbc3519	0.022974538
250	0xbcdb041a	-0.026735354
251	0x3d589bf6	0.05288311
252	0x3d3d667d	0.04624032
253	0x3cd7b662	0.026332084
254	0x3d167fbd	0.036742914
255	0x3d099709	0.033591304

conv2.bias f4 [32]
0	0xbcfae2d8	-0.030625746
1	0xbcd8d990	-0.02647093
2	0xbd943c55	-0.0723807
3	0xbb558472	-0.0032580164
4	0x3c93df0d	0.018050695
5	0x3c9d8584	0.019228704
6	0x3dafc4e7	0.08582478
7	0x3cc4a4b2	0.024004314
8	0x3cd93487	0.026514305
9	0x3c5f0caf	0.013613864
10	0xbd20cda7	-0.039258625
11	0xbc9174aa	-0.017755825
12	0x3c72d378	0.014820926
13	0xbccd2b74	-0.025045134
14	0x3c14622b	0.009056608
15	0xbd06603e	-0.032806627
16	0xbbe0c2b7	-0.0068591493
17	0xbc6dc032	-0.014511155
18	0x3bf8c5a3	0.0075919195
19	0xbcbf9aaa	-0.02338918
20	0xba8f8a0e	-0.0010951178
21	0x3ce43ca5	0.027860949
22	0x3d40ecb6	0.047100745
23	0xbcd2b0e8	-0.025719121
24	0x3db49ae3	0.08818605
25	0x3d218455	0.039432842
26	0x3d8af7a6	0.067855164
27	0x3cd80acb	0.026372334
28	0x3d6da6dd	0.05802046
29	0x3c2ea13e	0.01065856
30	0x3cbb75e5	0.022883365
31	0x3d18154e	0.037129693

conv3.weight f4 [64, 32, 3, 3]
0	0xbd32b4e2	-0.043629535
1	0x3d7093b5	0.058734614
2	0x3d27bcb1	0.040951435
3	0xbca43894	-0.02004651
4	0xbc8cb43e	-0.01717579
5	0xbc944536	-0.018099409
6	0x3c985516	0.01859526
7	0xbaf1cf60	-0.0018448643
8	0x3d59d4b5	0.05318137
9	0xbd358132	-0.044312663
10	0xba96e480	-0.001151219
11	0x3c0c913c	0.008579548
12	0x3d433a3f	0.04766297
13	0xbd693972	-0.05693955
14	0xbd1dc2a4	-0.038515702
15	0xbd5e027d	-0.05420159
16	0x3d5022db	0.05081449
17	0xbd1bb3b8	-0.03801319
18	0x3cc707fe	0.024295803
19	0x3cf57b2a	0.029965956
20	0xbc3b49bc	-0.011431154
21	0xbd10b6bf	-0.03533053
22	0xbce78155	-0.028259913
23	0x3d2b2fab	0.041793507
24	0xbd578818	-0.052620023
25	0x3d262cad	0.04056995
26	0x3d0cff97	0.034423437
27	0xbcb92086	-0.022598516
28	0x3caf1d9e	0.021376427
29	0xbd4f9235	-0.050676543
30	0xbc5cae28	-0.013469256
31	0x3c56c304	0.013108019
32	0x3ca0e8ee	0.01964232
33	0xbd3c23fa	-0.045932747
34	0x3d3a858f	0.045537528
35	0x3d249af5	0.04018684
36	0xbd6440c3	-0.055725824
37	0xbd0887d5	-0.033332665
38	0xbd672d73	-0.056439828
39	0xbd17069a	-0.03687153
40	0xbc81803e	-0.015808221
41	0x3d34ae7f	0.044111725
42	0xbd02ac56	-0.031902634
43	0xbc9474fc	-0.018122189
44	0xba97b280	-0.0011573583
45	0xbcda22ac	-0.026627861
46	0xbd4b130f	-0.049578723
47	0xbd0210df	-0.03175437
48	0x3d0e0d5f	0.03468072
49	0x3b89b2a8	0.0042022057
50	0xbd41f1d9	-0.047349785
51	0xbcc82d0c	-0.024435543
52	0xbd4853a4	-0.04890789
53	0x3ce1a1ee	0.027543034
54	0x3c4eba5c	0.012617674
55	0xbd2333fc	-0.039844498
56	0x3d35e47b	0.04440735
57	0xbd22d9ed	-0.03975861
58	0xbce71913	-0.028210199
59	0x3c7189bc	0.014742311
60	0xbd4baf09	-0.049727473
61	0xbd41ccab	-0.047314327
62	0xbd316516	-0.043309294
63	0xbd2ea59a	-0.0426384
64	0xbd3ed3a3	-0.04658855
65	0xbcdf9cec	-0.027296506
66	0xbcd6c604	-0.026217468
67	0x3b1784b0	0.002311986
68	0xbd66b994	-0.056329325
69	0xbd4e028b	-0.050295394
70	0x3c9dbcaa	0.019255001
71	0x3d41bfa5	0.047301907
72	0x3bf0e038	0.0073509477
73	0xbafe4740	-0.0019399896
74	0xbd1af6f4	-0.03783317
75	0x3c008714	0.007844705
76	0xbcb95ddc	-0.022627763
77	0x3b9c5028	0.0047702976
78	0xbc6c6024	-0.014427219
79	0xbd2e761c	-0.042593107
80	0xbd5c1197	-0.053727712
81	0x3d19f949	0.037591252
82	0xbb440fa0	-0.002991654
83	0x3d5a8a65	0.05335464
84	0x3c4fb43c	0.012677249
85	0x3b7df750	0.0038752146
86	0x3d2d71df	0.042344924
87	0xbcae95ca	-0.02131166
88	0x3cc3c3aa	0.02389701
89	0x3d284a8b	0.041086715
90	0x3d273bb9	0.04082844
91	0xbb05cca0	-0.0020416155
92	0x3d27baa5	0.040949482
93	0x3d6bfb3b	0.05761264
94	0xbd3962f0	-0.04526037
95	0xbd150820	-0.0363847
96	0xbc198140	-0.0093691945
97	0x3d215d73	0.03939576
98	0xbd39bdcd	-0.045347024
99	0x3cde7dee	0.027159657
100	0x3bf81e48	0.007571969
101	0xbc832b1e	-0.01601177
102	0x3d0c7305	0.03428938
103	0xbc6087f0	-0.013704285
104	0xbc29894c	-0.0103476755
105	0xbd287c58	-0.04113421
106	0x3d4c429d	0.049868215
107	0x3cfd7d56	0.030943554
108	0x3d402d5d	0.04691826
109	0x3c40ae7c	0.01176035
110	0xbd42d5d1	-0.047567192
111	0x3d18fb93	0.037349295
112	0xbccdd272	-0.025124762
113	0xbc87ac60	-0.016561687
114	0xbd2a8c64	-0.041637793
115	0x3d4081fd	0.046998966
116	0xbd0ba036	-0.034088336
117	0x3c89bd62	0.016813938
118	0xbc4840e4	-0.012222502
119	0x3c8c413e	0.017120954
120	0xbd43db2c	-0.04781644
121	0xbce1e548	-0.02757515
122	0x3ad67620	0.0016362108
123	0x3d59d1e7	0.053178694
124	0xbcdf350c	-0.027246974
125	0x3d242909	0.040078197
126	0x3c0e43fc	0.008683201
127	0x3be8cc28	0.0071044154
128	0x3cda0a02	0.0266161
129	0x3c99fcfa	0.018797386
130	0xbd120f10	-0.035658896
131	0x3c765d3c	0.015036877
132	0xbd19b682	-0.03752757
133	0xbc3b503c	-0.011432704
134	0xbd2b1243	-0.041765463
135	0x3c76f3ac	0.015072744
136	0x3d4e387d	0.05034684
137	0xbb508a90	-0.003182087
138	0xbd4da0b4	-0.050202087
139	0x3d121955	0.03566869
140	0xbc9b5dee	-0.018965688
141	0x3bbf9138	0.005846169
142	0x3c2f6e84	0.010707501
143	0xbb2caae0	-0.0026346967
144	0x3cad1a76	0.021130782
145	0x3c5b10c4	0.013370696
146	0xbca82d4e	-0.020529415
147	0xbd4f3eb9	-0.050596926
148	0xbd5b2b3b	-0.053508025
149	0x3c88c326	0.016694617
150	0x3c0ff6ec	0.008786898
151	0x3d47a219	0.048738573
152	0xbcd91ef4	-0.026504017
153	0xbcf21fef	-0.029556243
154	0xbb615c00	-0.0034387112
155	0x3ba43a68	0.0050118454
156	0x3ca7547e	0.020426031
157	0x3add9a00	0.0016906857
158	0x3d058411	0.03259665
159	0xbd0273b6	-0.03184863
160	0x3cfe3e62	0.031035606
161	0xbbf56b90	-0.007489629
162	0x3b98e678	0.004666146
163	0xbb56dfc0	-0.0032787174
164	0xbca06f08	-0.019584194
165	0x3d45d801	0.0483017
166	0xbd10f1b6	-0.035386764
167	0xbc838262	-0.016053382
168	0xbd23fdb4	-0.040036872
169	0x3c2d393c	0.010572728
170	0x3c50ba8c	0.012739789
171	0x3c9fdee2	0.019515458
172	0x3ce7f35a	0.028314281
173	0x3bee49e8	0.007271994
174	0xbccc7fe0	-0.02496332
175	0xbc3a0098	-0.011352681
176	0x3c3acb44	0.011401001
177	0x3c741fcc	0.014900159
178	0x3d123b57	0.035701122
179	0x3bbd3448	0.0057740547
180	0x3ccf256e	0.025286403
181	0x3ceddbb2	0.029035423
182	0xbc472bac	-0.012156408
183	0xbc9e5264	-0.019326396
184	0xbd49f51a	-0.049306013
185	0x3ab7d9c0	0.0014026687
186	0x3bc5ac08	0.0060324706
187	0x3d5e675d	0.054297794
188	0xbc018a0c	-0.007906448
189	0x3c9666ee	0.018359628
190	0xbd43a778	-0.047767133
191	0xbd491e1a	-0.049100973
192	0xbc9b2190	-0.018936902
193	0x3ce50136	0.027954679
194	0x3c19b56c	0.009381633
195	0x3d11aadb	0.03556333
196	0x3ce611b6	0.028084617
197	0xbcff7b63	-0.031186765
198	0xbc923ac4	-0.017850287
199	0xbd23993e	-0.039941065
200	0x3d54a727	0.05191722
201	0xbce8fd54	-0.028441109
202	0x3d5d3c3d	0.054012526
203	0x3c9a702a	0.018852312
204	0xbd0c1411	-0.034198824
205	0xbcd78b66	-0.026311588
206	0xba8b6e40	-0.0010637715
207	0x3d63db85	0.055629272
208	0x3cd2ddb6	0.025740486
209	0xbcde1d42	-0.02711356
210	0x3bdc74c8	0.0067277886
211	0x3c79f04c	0.015255045
212	0x3cb82cb6	0.022482257
213	0xbd70ddf5	-0.058805425
214	0xbbd49720	-0.006487742
215	0xbcc20482	-0.02368379
216	0xbd292150	-0.041291535
217	0x3c841ae6	0.016126107
218	0xbce051ec	-0.027382813
219	0xbd0c7c94	-0.034298494
220	0xbcee4da3	-0.029089754
221	0x3b759d50	0.0037477799
222	0x3d0646f9	0.03278253
223	0xbbd96960	-0.006634876
224	0xbd677792	-0.056510516
225	0xbd43ca23	-0.047800194
226	0x3cee6f42	0.029105786
227	0x3d51f1e3	0.05125607
228	0xbd235040	-0.039871454
229	0xbd138319	-0.036013696
230	0xbc8ebc74	-0.017423846
231	0xbcd252f4	-0.02567432
232	0xbcd95c04	-0.026533134
233	0x3d08eebb	0.033430796
234	0x3d5b063d	0.053472746
235	0x3d13aead	0.036055256
236	0xbd6122e4	-0.054964915
237	0xbd610a39	-0.05494139
238	0xbcace840	-0.02110684
239	0xbbbc9840	-0.0057554543
240	0x3bdb2288	0.006687466
241	0xbc522f1c	-0.012828615
242	0xbd02e3e8	-0.03195563
243	0x3d0b45a3	0.034001958
244	0xbc1b58c8	-0.009481616
245	0xbcc8383e	-0.02444088
246	0xbc952d40	-0.018210053
247	0x3be0f5b8	0.0068652295
248	0xbd0a8d7e	-0.033826344
249	0xbcfe2a11	-0.031025918
250	0xbc2f3fa8	-0.010696329
251	0xba574700	-0.0008212179
252	0x3b885358	0.004160326
253	0xbcbd33c2	-0.02309597
254	0x3d561e33	0.052274894
255	0x3cc1e73e	0.023669835

conv3.bias f4 [64]
0	0xbd1da998	-0.038491815
1	0x3d6aae5f	0.0572952
2	0x3c963d9e	0.018339928
3	0xbca2ac56	-0.019857567
4	0x3da7d1e9	0.08194334
5	0x3ca23aab	0.019803366
6	0xbc57703a	-0.0131493155
7	0xbd5dc291	-0.05414063
8	0xbcfa673c	-0.030566804
9	0xbd686b29	-0.05674282
10	0x3d6803e8	0.05664435
11	0x3c8cc557	0.017183943
12	0x3d2bbfca	0.04193095
13	0xbd94d203	-0.07266619
14	0xbca564f2	-0.020189736
15	0x3d3c0e9d	0.045912374
16	0x3e1cdb26	0.15317973
17	0xbbc76ebd	-0.006086199
18	0x3ddde10d	0.10833941
19	0xbc3c541a	-0.011494661
20	0x3d29d450	0.041462243
21	0xbd350553	-0.04419453
22	0xbd6732a7	-0.05644479
23	0xbd4698f4	-0.04848571
24	0xbcbbf226	-0.022942614
25	0xbc9294b4	-0.017893173
26	0x3d20f8df	0.039299842
27	0x3d0c6b1a	0.034281828
28	0x3d80da97	0.06291693
29	0x3be973a1	0.0071243797
30	0x3cc5cd39	0.02414571
31	0xbd73f81c	-0.059562787
32	0x3ca1134b	0.01966252
33	0x3d6815f8	0.056661576
34	0xbcd6faeb	-0.026242694
35	0x3c39b14c	0.011333775
36	0x3ce5fa05	0.02807332
37	0xbd6aa905	-0.057290096
38	0xbd84144b	-0.06449183
39	0x3bff698b	0.007794564
40	0x3d521d67	0.05129757
41	0x3d1d312c	0.038376972
42	0xbd6b8cb2	-0.057507224
43	0x3cae8c5e	0.021307167
44	0x3d266468	0.0406231
45	0xbc2e853f	-0.0106518855
46	0x3dd9a7cb	0.10627707
47	0x3d486190	0.048921168
48	0xbcf0b282	-0.029381994
49	0xbd1d9f06	-0.038481735
50	0xbcc7a9f3	-0.02437303
51	0x3de1d0a6	0.11026125
52	0xbc7f8bdd	-0.015597311
53	0x3e12cdd2	0.14336327
54	0x3d536a14	0.051614836
55	0xbd6a4250	-0.057192147
56	0x3cb25378	0.021768317
57	0xbd95e7b6	-0.07319586
58	0xbd081f64	-0.03323306
59	0xbd5eea87	-0.05442288
60	0x3e14590d	0.14487095
61	0xbc00a526	-0.007851874
62	0xbb0d5448	-0.0021565128
63	0x3c54293d	0.012949285

inception1.branch1.0.weight f4 [32, 64, 1, 1]
0	0xbce82460	-0.028337657
1	0x3d78def3	0.060759496
2	0xbdc8da7e	-0.09807299
3	0x3dbf9fff	0.09356689
4	0xbd4a8c6e	-0.04945033
5	0x3d074b7f	0.033030983
6	0x3d0b2a53	0.03397591
7	0x3dfa55e0	0.122234106
8	0xbbc58b68	-0.0060285814
9	0xbdd20f04	-0.1025677
10	0xbd093b39	-0.033503745
11	0xbbd5c071	-0.006523185
12	0xbdfc6284	-0.12323478
13	0xbdbd1304	-0.092321426
14	0x3dcc46c2	0.099744335
15	0xb9e01c99	-0.00042745916
16	0xbcd5d9ad	-0.026104772
17	0x3d3ff5b7	0.04686519
18	0xbc2cd14c	-0.010547947
19	0xbd92c3f3	-0.071662806
20	0x3d8fac90	0.070153356
21	0x3de0ba46	0.10973029
22	0x3d9fcb80	0.078024864
23	0xb97e40bc	-0.00024247443
24	0x3da03a8e	0.078236684
25	0xbd487854	-0.04894288
26	0xbe13fbfa	-0.1445159
27	0xbdb1d570	-0.08683288
28	0x3dc98248	0.09839302
29	0x3df4e30d	0.11957369
30	0xbb7ab96c	-0.0038257493
31	0xbddf94e7	-0.10917073
32	0xbde2114c	-0.11038455
33	0x3d913957	0.07091015
34	0x3dcbd2bd	0.099523045
35	0xbde616f8	-0.1123485
36	0xbdca14b1	-0.09867228
37	0x3d1226a4	0.03568138
38	0xbc71666f	-0.014733895
39	0x3c9e95e1	0.019358577
40	0xbda7a019	-0.08184833
41	0xbdbd88de	-0.09254621
42	0xbc2497e7	-0.010045982
43	0x3da09848	0.07841545
44	0x3d513a4d	0.05108099
45	0xbcfa4515	-0.030550519
46	0xbcb688c5	-0.022282014
47	0xbd03bceb	-0.032162588
48	0x3de4cf4f	0.111723535
49	0xbd4a2c1c	-0.049358472
50	0xbdc4fd15	-0.09618584
51	0xbd719851	-0.05898315
52	0x3d81e3c2	0.063422695
53	0xbdadbf5e	-0.08483766
54	0xbd74a579	-0.05972812
55	0x3decfede	0.115720496
56	0x3db70656	0.08936755
57	0xbdb45eae	-0.08807121
58	0x3d84149d	0.06449244
59	0x3dcccf77	0.10000508
60	0x3dbaed02	0.09127237
61	0x3d834e35	0.06411401
62	0x3d17145c	0.03688465
63	0x3b34d60c	0.0027593402
64	0xbdd692ea	-0.104772404
65	0xbd4e55ab	-0.050374668
66	0x3cfc05da	0.030764509
67	0x3d9f4059	0.07775945
68	0xbd4a523f	-0.049394842
69	0x3db5e4d2	0.08881535
70	0xbde30d4a	-0.11086519
71	0xbdb72b1b	-0.089437686
72	0x3bc8395d	0.006110354
73	0xbd547f6b	-0.051879328
74	0xbca1601f	-0.019699154
75	0xbe01f95b	-0.12692778
76	0xbdd1e7d0	-0.10249293
77	0x3df3775c	0.11888
78	0x3d5aaa03	0.053384792
79	0xbd75dfc0	-0.060027838
80	0x3dcfb7b6	0.10142462
81	0x3d8b291f	0.067949526
82	0xbd94af43	-0.07259991
83	0xbdc9ebf4	-0.098594576
84	0xbc75d26f	-0.015003785
85	0xbdf57d58	-0.11986798
86	0x3cc43d60	0.023955047
87	0x3dfb5295	0.12271611
88	0x3d48bcbc	0.049008116
89	0xbcfbb976	-0.030728083
90	0xbe1ad3e7	-0.15119897
91	0xbb9d4e15	-0.004800568
92	0x3d2c53df	0.042072173
93	0x3ca1b7ff	0.019741056
94	0xbde6fa39	-0.11278195
95	0xb6f0d4b9	-7.1773215e-06
96	0x3ddef066	0.10885696
97	0xbda6bcaa	-0.081414536
98	0xbda9a725	-0.082838334
99	0x3c867e75	0.016417721
100	0xbdcae5e4	-0.099071294
101	0x3dc88ce4	0.09792498
102	0xbdb42542	-0.08796169
103	0x3d9c9c22	0.076469675
104	0xbd45a20a	-0.048250236
105	0x3db4160e	0.08793269
106	0xbdbc54b1	-0.09195841
107	0x3d8cf71b	0.06883069
108	0x3d2fa2f7	0.042880025
109	0xbd6d104e	-0.057876877
110	0x3e3c9d40	0.18419361
111	0xbdd28263	-0.102787755
112	0x3d921877	0.071335725
113	0x3dfb4442	0.122688785
114	0xbd3a660e	-0.045507483
115	0xbd27d4f7	-0.040974583
116	0x3dea2594	0.11432949
117	0x3d0095f0	0.03139299
118	0xbd765f9a	-0.060149767
119	0xbde47f59	-0.11157102
120	0xbdbab90c	-0.09117326
121	0xbdacf338	-0.08444828
122	0xbd4c5f11	-0.04989535
123	0x3dece184	0.11566451
124	0xbd127c07	-0.035762813
125	0x3d9b76f5	0.07591049
126	0xbd84a95f	-0.064776175
127	0x3db9a912	0.09065451
128	0x3da159fa	0.0787849
129	0xbd27039d	-0.04077493
130	0xbd23db3c	-0.040004
131	0x3d012f9d	0.03153955
132	0x3d472954	0.048623398
133	0xbd92f0d4	-0.071748406
134	0x3d9466c8	0.072461665
135	0x3dbc586a	0.09196551
136	0x3dd27e25	0.102779664
137	0xbd3438c4	-0.04399945
138	0xbdb3e21d	-0.08783362
139	0x3be9a032	0.0071296925
140	0x3d83e025	0.064392366
141	0x3cc36b52	0.023854885
142	0xbdedd851	-0.11613525
143	0xbda0490a	-0.07826431
144	0xbd3dd0d3	-0.04634173
145	0x3dc20d2b	0.09475168
146	0xbd759111	-0.0599528
147	0x3c6eeb9e	0.014582543
148	0xbd688be9	-0.056774054
149	0x3de87a7a	0.113514856
150	0xbdfc998d	-0.12333975
151	0xbdcc7d0c	-0.09984788
152	0x3dc8b281	0.09799672
153	0x3d2b23ae	0.041782074
154	0xbe0ab1de	-0.13544413
155	0x3dbeada0	0.0931046
156	0x3daacca0	0.0833981
157	0xbda0b125	-0.07846288
158	0xbd89a6e7	-0.06721287
159	0xbbe85160	-0.007089779
160	0xbd45a7a1	-0.048255567
161	0x3dc76953	0.09736886
162	0x3c8a9c74	0.016920306
163	0x3d9431ad	0.072360374
164	0xbd209028	-0.039199978
165	0xbacc0f21	-0.0015568474
166	0xbdfb3051	-0.12265075
167	0xbd0382d3	-0.032107186
168	0xbd696aed	-0.056986738
169	0xbe1bbf7b	-0.15209763
170	0x3c8ac01c	0.016937308
171	0xbdd5f8a8	-0.10447818
172	0x3d150f9b	0.036391836
173	0x3dc24cc3	0.094872974
174	0xbdc5ca96	-0.09657781
175	0x3c85faeb	0.016354999
176	0x3df519be	0.119678006
177	0xbdef73f6	-0.1169204
178	0x3d0c16f0	0.034201562
179	0x3e1e9d46	0.15489683
180	0xbdb475fd	-0.08811567
181	0xbd857d7f	-0.06518077
182	0xbdf328ba	-0.11873002
183	0x3da39236	0.07986872
184	0xbbed7f6a	-0.007247855
185	0x3dfb0ad0	0.12257922
186	0x3ae2e058	0.0017309291
187	0xbd7d6d3f	-0.061871763
188	0x3d464734	0.04840775
189	0x3d4bd977	0.049767938
190	0x3deaba2b	0.1146129
191	0x3d1ef337	0.038806166
192	0x3cac7ac8	0.02105464
193	0x3d81e22c	0.06341967
194	0x3daa0a94	0.08302799
195	0xbc84f6a3	-0.016230887
196	0xbb8ecf4a	-0.004358207
197	0x3d9666ab	0.07343801
198	0x3d3d4593	0.04620893
199	0x3c8704f4	0.016481854
200	0x3df3c6e9	0.119031735
201	0xbbfb2eb6	-0.0076654805
202	0xbcab4e5d	-0.02091139
203	0xbd234763	-0.039863
204	0xbdfada40	-0.12248659
205	0x3cfd4649	0.030917304
206	0x3d075c05	0.03304674
207	0xbd99f6fb	-0.07517811
208	0x3de1ffdb	0.11035129
209	0x3c1ae749	0.009454557
210	0xbcbe3d2c	-0.023222528
211	0x3d974d58	0.07387799
212	0x3da1886e	0.0788735
213	0xbd9c02dc	-0.07617733
214	0xbd9be4ef	-0.07612025
215	0xbd56b139	-0.052415106
216	0xbd9f7fe9	-0.07788069
217	0xbd758dff	-0.05994987
218	0x3d489bc0	0.04897666
219	0xbc9515a9	-0.018198805
220	0xbe0ee9f9	-0.13956441
221	0x3dc32c1e	0.09529899
222	0x3d033364	0.03203143
223	0x3db1a599	0.08674163
224	0xbd1fd449	-0.03902081
225	0xbd898b0b	-0.067159735
226	0x3d596c85	0.053082008
227	0xbc96c13a	-0.018402684
228	0xbbeb1ac3	-0.007174821
229	0xbd5647b4	-0.052314475
230	0x3d200e19	0.039075945
231	0x3d89fff0	0.06738269
232	0xbda3179a	-0.07963486
233	0xbd3fa7c4	-0.046790853
234	0xbdc18d76	-0.0945081
235	0xbda9f864	-0.0829933
236	0x3d2447f6	0.04010769
237	0x3daacbf2	0.08339681
238	0x3d2d79de	0.04235255
239	0xbdf8a7f4	-0.121414095
240	0x3bb3d87d	0.005488454
241	0xbde9a09e	-0.114075884
242	0xbdab0074	-0.08349696
243	0xbd2d6c65	-0.0423397
244	0x3df27490	0.11838639
245	0xbd5382cf	-0.05163842
246	0xbd6b7193	-0.05748136
247	0x3dc2f045	0.09518484
248	0xbc3104b0	-0.01080434
249	0xbde88e61	-0.113552816
250	0x3d275929	0.040856514
251	0x3cd99ab0	0.026563019
252	0xbe00cd60	-0.12578344
253	0x3cdaf2d9	0.026727127
254	0x3d1035b6	0.035207473
255	0xbd06d48d	-0.032917548

inception1.branch1.0.bias f4 [32]
0	0xbd7b9b7c	-0.06142758
1	0x3df6f822	0.12059046
2	0xbdb7a0f7	-0.089662485
3	0x3da537ec	0.08067307
4	0x3cd27dbd	0.025694722
5	0xbd3d04d5	-0.046147186
6	0xbd83f0cc	-0.06442413
7	0x3b163c4f	0.002292413
8	0xbc43860e	-0.011933817
9	0xbda74e5c	-0.08169243
10	0xbb84844d	-0.004044092
11	0x3d927f16	0.07153146
12	0x3d97fdaf	0.07421433
13	0xbde75419	-0.11295337
14	0x3ce5bd67	0.028044416
15	0x3dec20a0	0.1152966
16	0xbc83466a	-0.016024787
17	0x3da27556	0.07932536
18	0x3da0c780	0.078505516
19	0x3df3d23f	0.11905336
20	0x3d11231e	0.03543388
21	0xbdbceb97	-0.09224623
22	0xbd455927	-0.048180725
23	0x3d42108c	0.04737906
24	0xbdabdba7	-0.08391505
25	0xbd2be3c4	-0.04196526
26	0xbdfd32e1	-0.1236322
27	0x3d6008e9	0.054695997
28	0xbdd4d2da	-0.10391779
29	0x3d344746	0.044013284
30	0xbd74a8f7	-0.05973145
31	0x3deceaba	0.11568208

inception1.branch1.1.weight f4 [32]
0	0x3f7d5cba	0.98969615
1	0x3f82067f	1.0158232
2	0x3f8110f1	1.0083295
3	0x3f8029f5	1.0012804
4	0x3f7d6616	0.98983896
5	0x3f7993ac	0.97490954
6	0x3f7d6386	0.98979986
7	0x3f7d4c07	0.98944134
8	0x3f844472	1.0333388
9	0x3f7a5785	0.97789794
10	0x3f7be010	0.9838877
11	0x3f80e393	1.006945
12	0x3f7d1403	0.9885866
13	0x3f82c1fb	1.0215448
14	0x3f844620	1.03339
15	0x3f77f4d7	0.9685797
16	0x3f825ba6	1.0184219
17	0x3f7be2f6	0.9839319
18	0x3f7798d9	0.967176
19	0x3f80fa68	1.0076418
20	0x3f798250	0.97464466
21	0x3f7ca0a5	0.98682624
22	0x3f7c6ccd	0.98603517
23	0x3f7931df	0.9734172
24	0x3f82e054	1.022471
25	0x3f763ca7	0.961863
26	0x3f7ceed0	0.988019
27	0x3f8a3037	1.0795964
28	0x3f8397c1	1.0280687
29	0x3f812690	1.0089893
30	0x3f80ff2f	1.0077876
31	0x3f8100f0	1.0078411

inception1.branch1.1.bias f4 [32]
0	0xbcb828df	-0.022480426
1	0xbc72c1bf	-0.0148167005
2	0xbc901518	-0.017588183
3	0xbc5c009f	-0.013427882
4	0x3c9b90c8	0.018989936
5	0x3befc3b4	0.007317031
6	0x3ce38e7c	0.027777903
7	0xbc879e49	-0.016554968
8	0xbd8b68ba	-0.068070844
9	0x3cebd7f3	0.028789496
10	0x3c60fe41	0.013732494
11	0xbd0c159d	-0.0342003
12	0xbb1e133a	-0.0024120347
13	0xbc17a690	-0.00925602
14	0x3cb8ac5b	0.022543123
15	0x3c1515a7	0.009099401
16	0xbcbaa2f5	-0.022782782
17	0xbc69d2b1	-0.014271424
18	0xbc06f88e	-0.008237971
19	0x3b998d48	0.0046860315
20	0x3bc11846	0.005892786
21	0xb85e1066	-5.2944197e-05
22	0xbc8fdc85	-0.017561207
23	0x3bfe7453	0.007765332
24	0x3dc928cb	0.09822234
25	0xbc592c69	-0.013255217
26	0xbbd953a4	-0.006632285
27	0xbce8940d	-0.028390909
28	0xbd9ed6f6	-0.07755844
29	0xbd0ced90	-0.034406245
30	0xbd6d2f89	-0.05790666
31	0xbaf97fd5	-0.0019035289

inception1.branch1.1.running_mean f4 [32]
0	0xbde7ee30	-0.113247275
1	0x3d8a9925	0.06767491
2	0xbe1a59c3	-0.15073304
3	0x3d678383	0.056521904
4	0x3defac38	0.1170277
5	0xbdb369b5	-0.087603964
6	0xbd7a8423	-0.06116117
7	0xbd0302a5	-0.031984944
8	0x3d050934	0.03247948
9	0x3b8cb52a	0.0042940574
10	0x3cecc9d1	0.028904827
11	0x3c8b6088	0.017013803
12	0x3d850c7e	0.06496523
13	0xbe307bc2	-0.1723471
14	0xbd20c1f7	-0.03924748
15	0x3e1d1d59	0.15343226
16	0xbdefd99c	-0.117114276
17	0x3de8de38	0.1137051
18	0x3d8a8b1e	0.06764816
19	0x3dcff1ff	0.10153579
20	0xbc3478ff	-0.011015176
21	0xbe095a7e	-0.13413426
22	0xbdc7a477	-0.09748166
23	0x3c856943	0.016285544
24	0x3cad1761	0.021129312
25	0xbd9d313f	-0.076754086
26	0xbe1a85f2	-0.15090159
27	0xbd5a3b78	-0.05327937
28	0xbe5f5275	-0.21808799
29	0xbd82f5ad	-0.06394515
30	0xbccd9f9f	-0.025100527
31	0x3d0cbc09	0.03435901

inception1.branch1.1.running_var f4 [32]
0	0x39ad6f6d	0.0003308015
1	0x38a45685	7.836245e-05
2	0x39b647fe	0.00034767383
3	0x39372d59	0.00017469133
4	0x3891eaeb	6.957896e-05
5	0x39233569	0.00015564788
6	0x388b4afa	6.642002e-05
7	0x38aac97d	8.143762e-05
8	0x386f274a	5.701863e-05
9	0x3925c8a4	0.0001581037
10	0x393734d0	0.00017471914
11	0x38b233c9	8.497347e-05
12	0x38d26058	0.00010031526
13	0x390356aa	0.00012525418
14	0x38fcda7a	0.00012056991
15	0x39aec52d	0.00033334774
16	0x39089222	0.0001302441
17	0x39556b71	0.00020353288
18	0x395d9902	0.00021133202
19	0x388bcf2a	6.666624e-05
20	0x3893ae97	7.042026e-05
21	0x39812855	0.00024634847
22	0x3934043d	0.00017167717
23	0x39ac2fa9	0.00032841906
24	0x38d32f4e	0.00010070075
25	0x3913b80a	0.00014087572
26	0x388c54b9	6.691501e-05
27	0x3903d491	0.0001257232
28	0x3943c701	0.00018670784
29	0x3981edc2	0.0002478194
30	0x389de344	7.528675e-05
31	0x3917e2e1	0.00014485001

inception1.branch1.3.weight f4 [64, 32, 1, 1]
0	0x3b918192	0.004440495
1	0xbdd372bc	-0.10324618
2	0xbd152cb9	-0.036419604
3	0x3d3a08b5	0.04541846
4	0x3e1158c9	0.14194025
5	0xbdd232e7	-0.10263615
6	0xbd2a3846	-0.041557573
7	0x3e09d596	0.13460383
8	0xbdf495ce	-0.119426355
9	0xbd0d2e6b	-0.034468096
10	0xbd06670a	-0.03281311
11	0x3e2aface	0.16697237
12	0x3e27b978	0.16379344
13	0xbdb2f47a	-0.087380365
14	0xbdae55ad	-0.08512435
15	0x3cf58c1e	0.02997404
16	0x3dcc23e8	0.09967786
17	0xbd81471a	-0.0631239
18	0x3df96e2b	0.12179216
19	0xbe0f3648	-0.1398555
20	0x3db05c64	0.08611372
21	0xbe102f81	-0.14080621
22	0x3e157301	0.14594652
23	0xbd4a506e	-0.04939311
24	0xbc374bbe	-0.011187492
25	0xbe13f7df	-0.14450024
26	0xbde5b6af	-0.11216485
27	0xbdb9e00b	-0.09075936
28	0xbdcb2fea	-0.09921248
29	0xbe39c963	-0.18143229
30	0xbd729540	-0.059224367
31	0x3daf4c28	0.085594475
32	0x3cdae488	0.0267203
33	0x3dac190c	0.08403215
34	0xbde251d6	-0.11050765
35	0x3dae6ddc	0.08517048
36	0xbce8b626	-0.028407168
37	0xbda8a41e	-0.08234428
38	0x3e0a842b	0.1352698
39	0xbd2c3a4e	-0.04204779
40	0x3de2bedd	0.110715605
41	0x3d7b11e1	0.061296348
42	0xbe06e23c	-0.13172239
43	0x3e2055aa	0.15657678
44	0x3dfb6a48	0.12276131
45	0x3d4bdd09	0.049771342
46	0x3db5184b	0.08842524
47	0xbbb96c29	-0.0056586456
48	0x3e3101fb	0.17285912
49	0x3e0f84ab	0.14015453
50	0xbe14ec22	-0.14543203
51	0xbd87fd5c	-0.06640121
52	0x3da65217	0.08121126
53	0x3d107933	0.035271835
54	0x3dd95845	0.10612539
55	0xbe36bac8	-0.17844689
56	0xbe068a51	-0.13138701
57	0xbdd65eea	-0.10467322
58	0xbe1f960b	-0.1558458
59	0xbe3d2ca8	-0.18474066
60	0x3dd585e2	0.10425927
61	0x3db5388f	0.08848678
62	0xbe362504	-0.17787558
63	0x3dcc5826	0.099777505
64	0xbddda4be	-0.10822438
65	0x3db62490	0.088936925
66	0xbcc288d6	-0.02374689
67	0x3e264ea5	0.16240938
68	0x3cfe460f	0.031039266
69	0xbe16da54	-0.14731723
70	0x3da8d739	0.082441755
71	0xbdc56f0b	-0.096403204
72	0xbdc06c2e	-0.09395634
73	0x3dff9339	0.12479252
74	0x3e3f86a0	0.18703699
75	0xbdda829a	-0.106694415
76	0xbe09b8f2	-0.13449457
77	0xbd87f955	-0.06639353
78	0xbe472760	-0.19448614
79	0xbdc7ae03	-0.09749987
80	0xbd3e45a9	-0.04645315
81	0x3db86828	0.09004241
82	0xbe11ec0a	-0.14250198
83	0x3d826b7e	0.06368159
84	0xbdc42c95	-0.09578816
85	0x3d2833fa	0.041065194
86	0xbdf02f70	-0.11727798
87	0x3e16e473	0.14735584
88	0xbd333d13	-0.043759417
89	0x3db7ba7e	0.089711174
90	0x3da5455f	0.08069872
91	0x3bbc9e46	0.0057561724
92	0x3d8bc664	0.068249494
93	0xbe3d88e8	-0.18509257
94	0xbd18882b	-0.037239235
95	0x3c8566ca	0.016284365
96	0xbe297c53	-0.16551332
97	0xbe19bb78	-0.1501292
98	0xbe30fe2c	-0.17284459
99	0x3d9b3765	0.07578925
100	0x3dc2bf3e	0.09509133
101	0xbd59338e	-0.053027682
102	0x3dc78be6	0.097434804
103	0xbca5da82	-0.020245794
104	0xbd855a2c	-0.065113395
105	0x3e0a0cab	0.13481395
106	0x3e197708	0.14986813
107	0x3decd6a9	0.11564381
108	0xbb1ab4d5	-0.002360632
109	0x3d946ab2	0.07246913
110	0xbe548cd0	-0.2075684
111	0xbda18af6	-0.07887833
112	0xbdaac4ca	-0.08338316
113	0x3dc347b6	0.09535162
114	0xbd724891	-0.059151236
115	0x3e1d62f7	0.15369783
116	0x3d46e0c0	0.048554182
117	0x3df841b1	0.12121905
118	0x3bf1b0a6	0.0073757945
119	0x3cdccd01	0.026953222
120	0xbd05b72c	-0.03264539
121	0xbdd6c00e	-0.1048585
122	0xbcd666f3	-0.026172137
123	0xbdc4aa1a	-0.09602757
124	0x3daf1d4e	0.08550511
125	0xbdc07061	-0.093964346
126	0x3e0f2dac	0.13982266
127	0xbd269fee	-0.040679865
128	0x3cbb6568	0.022875503
129	0xbe027f55	-0.12743886
130	0x3e08dabd	0.13364692
131	0x3d87be51	0.06628097
132	0xbd992e56	-0.07479541
133	0x3e19eefb	0.1503257
134	0xbd4b0021	-0.04956067
135	0x3dcff9f2	0.10155095
136	0x3c82bfa0	0.015960515
137	0x3af9d10f	0.0019059497
138	0xbe1bc313	-0.15211134
139	0x3d0a7f77	0.033812966
140	0xbc15e6a2	-0.009149225
141	0xbe2f631a	-0.17127648
142	0x3ca0b128	0.019615725
143	0x3d97867d	0.073986985
144	0xbdc6d090	-0.09707749
145	0xbdf8428a	-0.12122066
146	0xbddb9e25	-0.10723523
147	0xbd1b3896	-0.03789576
148	0x3dd163f5	0.102241434
149	0x3d505e13	0.050870966
150	0xbe0be563	-0.13661723
151	0xbb8905ac	-0.0041815843
152	0x3dbca018	0.09210223
153	0x3daf70ef	0.08566462
154	0x3dbef544	0.093241245
155	0x3e79603d	0.24353118
156	0x3d67f327	0.056628373
157	0xbb6cbad6	-0.0036122105
158	0xbe3d810d	-0.1850626
159	0xbd77463f	-0.060369726
160	0xbd368887	-0.044563796
161	0x3db29ca4	0.08721283
162	0x3e02319e	0.1271424
163	0xbdf9450a	-0.12171371
164	0xbd8aa6f2	-0.067701235
165	0x3e3b2e07	0.18279277
166	0x3e322bd9	0.17399539
167	0x3b2c68a2	0.0026307483
168	0xbd9a1afd	-0.07524679
169	0xbcd99c20	-0.026563704
170	0x3da7aa0a	0.08186729
171	0x3e010848	0.12600815
172	0xbd805ec4	-0.06268075
173	0xbe204823	-0.15652518
174	0x3e20556c	0.15657586
175	0xbe2ab289	-0.16669668
176	0xbdb9cec3	-0.0907264
177	0x3d89d00d	0.06729136
178	0xbd3986b1	-0.045294467
179	0x3dff9827	0.12480193
180	0x3df3cebd	0.119046666
181	0xbddc9e73	-0.10772409
182	0x3de5a2a7	0.11212664
183	0xbd494698	-0.04913959
184	0x3dccdede	0.10003446
185	0x3ab6f6d9	0.0013959064
186	0x3e05b5d1	0.13057639
187	0xbdf0427e	-0.117314324
188	0x3e2e719e	0.17035529
189	0xbe221098	-0.15826643
190	0x3e3b29ea	0.18277708
191	0xbdbc1a00	-0.091846466
192	0xbe1ccab7	-0.15311705
193	0x3e247ed2	0.16064003
194	0x3e0b69c9	0.13614573
195	0x3df38637	0.11890834
196	0x3d9231cb	0.071384035
197	0x3e143c87	0.14476214
198	0xbd91c72f	-0.071180694
199	0x3d1e508a	0.038651027
200	0x3db2990d	0.08720598
201	0xbc958b2d	-0.01825484
202	0xbe0893a8	-0.13337576
203	0xbd103e9e	-0.035215966
204	0x3d226bd9	0.039653633
205	0x3de0354b	0.10947665
206	0x3c67d72a	0.01415042
207	0x3e03d61e	0.12874648
208	0xbe169f49	-0.147092
209	0x3aa4a93b	0.0012562642
210	0x3d888c87	0.066674285
211	0xbe199fa6	-0.15002307
212	0x3df882e0	0.121343374
213	0xbd990fa1	-0.07473684
214	0xbc88e27d	-0.01670956
215	0x3e368704	0.17824942
216	0xbda376d3	-0.07981648
217	0xbdfaed00	-0.122522354
218	0x3e2a1b6b	0.16612022
219	0xbdd6fdab	-0.10497602
220	0x3cbfb1f0	0.023400277
221	0x3d780d00	0.060559273
222	0xbd9c6c59	-0.07637853
223	0x3cd99c4b	0.026563784
224	0x3d82b4e4	0.063821584
225	0xbd7e1365	-0.062030215
226	0x3db4bb18	0.08824748
227	0x3dfe81d6	0.12427108
228	0x3de4c469	0.11170275
229	0x3c84c2ac	0.016206108
230	0x3e065d69	0.1312157
231	0x3d3625b5	0.044469554
232	0xbc69b49b	-0.014264251
233	0x3d49ff8f	0.049315985
234	0xbd1e2162	-0.038606055
235	0xbdd677b0	-0.10472047
236	0x3dc73dbc	0.09728572
237	0x3bf26799	0.0073976037
238	0x3e0e4918	0.1389507
239	0x3cf86d2e	0.030325498
240	0xbbc9b9dc	-0.0061561894
241	0xbdd3a988	-0.1033507
242	0x3e2c7202	0.16840366
243	0x3d90a2a0	0.07062268
244	0xbce810d7	-0.028328342
245	0xbcab4636	-0.020907503
246	0x3e112650	0.14174771
247	0xbde68174	-0.1125516
248	0xbdb38e33	-0.08767357
249	0x3b5f3bba	0.00340627
250	0x3e1220e4	0.1427036
251	0x3e5f1290	0.21784425
252	0x3ddf2c2d	0.10897098
253	0xbb33d5fc	-0.0027440777
254	0xba995079	-0.0011696956
255	0x3e28f12f	0.16498254

inception1.branch1.3.bias f4 [64]
0	0xbe2c1db8	-0.16808212
1	0xbe30aeb4	-0.17254144
2	0xbdddf785	-0.10838226
3	0x3e152dc7	0.14568244
4	0xbe2c02d8	-0.1679796
5	0xbdb56151	-0.08856452
6	0x3ccddfc0	0.025131106
7	0x3c1eb0a0	0.009685665
8	0x3ccab8e0	0.024746358
9	0x3d83b8aa	0.06431706
10	0x3cac1260	0.021004856
11	0xbd526200	-0.05136299
12	0xbbae0280	-0.0053103566
13	0x3da7ef06	0.08199887
14	0x3e20c84d	0.15701409
15	0xbe23144f	-0.15925716
16	0xbcd137f0	-0.025539368
17	0x3d88701a	0.06662007
18	0xbdd918d6	-0.1060044
19	0x3e2e9a51	0.17051055
20	0x3d151aec	0.036402628
21	0xbdb58791	-0.08863748
22	0x3d6c0924	0.057625905
23	0x3d2de61c	0.042455778
24	0x3dd20512	0.10254873
25	0xbc3297c0	-0.010900438
26	0xbcb21d40	-0.021742463
27	0x3d9cfe4a	0.07665689
28	0xbe14bce9	-0.14525189
29	0xbd154724	-0.036444798
30	0xbc7e1790	-0.015508547
31	0xbe043ba2	-0.12913373
32	0x3dceb7fa	0.100936845
33	0xbe1a9f56	-0.15099844
34	0xbdc14a51	-0.09438003
35	0xbcd380f8	-0.025818333
36	0x3e34edaf	0.17668794
37	0xbe347389	-0.17622198
38	0x3e26063f	0.1621332
39	0xbdf04d68	-0.11733514
40	0x3e30ce2b	0.17266147
41	0x3decbb2e	0.11559139
42	0x3e1253b3	0.14289741
43	0x3db0561a	0.086101726
44	0xbda8d51b	-0.08243772
45	0xbd93a295	-0.072087444
46	0xbe0682c6	-0.13135824
47	0xba7c0700	-0.000961408
48	0x3d065eb0	0.032805145
49	0x3e19062b	0.14943759
50	0xbdab6c7b	-0.083703004
51	0xbd903110	-0.07040608
52	0x3da4fc8a	0.080559805
53	0xbc240240	-0.010010302
54	0xbd81c57a	-0.06336494
55	0x3cd985b8	0.02655302
56	0xbd6595a2	-0.056050904
57	0xbb07a0c0	-0.002069518
58	0x3b0e2f00	0.0021695495
59	0x3e0b9573	0.13631229
60	0xbe00fd04	-0.12596518
61	0x3dca818a	0.09887989
62	0xbddec4a6	-0.108773515
63	0xbdb493c5	-0.08817247

inception1.branch1.4.weight f4 [64]
0	0x3f7a8780	0.97863007
1	0x3f7df28f	0.9919824
2	0x3f7e3f7f	0.9931564
3	0x3f7a953e	0.97883976
4	0x3f85032d	1.0391594
5	0x3f7cf715	0.9881452
6	0x3f7db9df	0.9911174
7	0x3f7d4427	0.9893212
8	0x3f7b60f0	0.9819479
9	0x3f829313	1.0201133
10	0x3f7a156a	0.97688925
11	0x3f821bfd	1.0164791
12	0x3f7e1a33	0.99258727
13	0x3f804bb2	1.00231
14	0x3f7c94f1	0.98664767
15	0x3f83cfec	1.0297828
16	0x3f7b8b20	0.9825916
17	0x3f7aea20	0.98013496
18	0x3f7bbeff	0.9833831
19	0x3f7a4d17	0.9777388
20	0x3f7f243f	0.9966468
21	0x3f8119df	1.008602
22	0x3f7a46f5	0.9776452
23	0x3f7c22d5	0.9849065
24	0x3f7bd50c	0.9837196
25	0x3f71acd5	0.94404346
26	0x3f7b513f	0.98170847
27	0x3f79ce9b	0.9758088
28	0x3f79e934	0.97621465
29	0x3f7f467d	0.9971693
30	0x3f7dd3f9	0.9915157
31	0x3f7b83f2	0.9824821
32	0x3f7e9c4c	0.9945724
33	0x3f780454	0.96881604
34	0x3f7b21c3	0.9809839
35	0x3f7dcc7e	0.99140155
36	0x3f7ab150	0.9792681
37	0x3f7f6754	0.9976704
38	0x3f806b02	1.0032656
39	0x3f7c8e40	0.98654556
40	0x3f7e0022	0.9921895
41	0x3f8700dc	1.0547137
42	0x3f7bd7d2	0.9837619
43	0x3f7d75fd	0.9900816
44	0x3f7b3ebd	0.98142606
45	0x3f79ccd0	0.97578144
46	0x3f7c3def	0.98532003
47	0x3f7eb1d8	0.9949012
48	0x3f7efc98	0.9960418
49	0x3f7b5695	0.9817899
50	0x3f7fd29d	0.99930745
51	0x3f7bb965	0.98329765
52	0x3f7a754e	0.9783524
53	0x3f7d1dbc	0.98873496
54	0x3f7ecad6	0.99528253
55	0x3f7cd866	0.987677
56	0x3f7baeed	0.9831379
57	0x3f7d11d1	0.9885531
58	0x3f7d6c99	0.9899383
59	0x3f80546b	1.0025762
60	0x3f7b609c	0.9819429
61	0x3f79de72	0.9760505
62	0x3f7df843	0.9920694
63	0x3f7d455b	0.98933953

inception1.branch1.4.bias f4 [64]
0	0xbbfa5f09	-0.0076407236
1	0xbc91e6d0	-0.017810255
2	0x3bcaec49	0.006192718
3	0x3c00b57c	0.007855769
4	0xbd82a345	-0.063787974
5	0xbbf1540b	-0.007364755
6	0xbbe9133b	-0.007112888
7	0xbb65385c	-0.003497622
8	0xbcbc47cb	-0.022983452
9	0xbd2f021c	-0.04272662
10	0xbbe14f57	-0.006875913
11	0x3c81565a	0.015788246
12	0xbc3a707b	-0.0113793565
13	0xbb4e5c8d	-0.003148827
14	0xb9c04aad	-0.00036676732
15	0xbd0254cd	-0.031819154
16	0xbc28ff1f	-0.010314732
17	0xbbd7062f	-0.0065620164
18	0xbc8088b2	-0.015690181
19	0xbc8de4d9	-0.017321037
20	0x3b8de866	0.0043306826
21	0xbc891838	-0.016735181
22	0xbc8c8a67	-0.01715584
23	0xbc88f822	-0.016719881
24	0xbc41a9ec	-0.011820298
25	0xbc4dfa2d	-0.012571854
26	0xbc777ad2	-0.015104966
27	0xb92588ae	-0.00015786543
28	0xbbbdba22	-0.005790011
29	0xbbd29f18	-0.006427657
30	0x3be5ae9d	0.007009341
31	0xbc1db2bb	-0.009625132
32	0xbbf891ab	-0.0075857244
33	0x3a565feb	0.0008177745
34	0x3939ca28	0.00017718284
35	0xbc5de0d0	-0.013542369
36	0xbc5e1b1f	-0.013556271
37	0xbc8150a6	-0.015785526
38	0x38a9d19f	8.097593e-05
39	0xbc490aad	-0.012270612
40	0x3bf295ac	0.007403096
41	0xbcec932f	-0.028878776
42	0xbc47561c	-0.012166526
43	0xbaf0f57f	-0.001838371
44	0xbc8c92c0	-0.01715982
45	0xbc577a53	-0.013151723
46	0xbc208d07	-0.009799249
47	0x3ba9513d	0.005167155
48	0xba3db99b	-0.0007237435
49	0x38b81913	8.778474e-05
50	0x3bc0977d	0.005877434
51	0xbc35f98f	-0.011106863
52	0xbc23f255	-0.010006507
53	0xbc341f23	-0.010993752
54	0xbc896953	-0.016773855
55	0xbb2f4196	-0.0026741973
56	0xbcae89cc	-0.021305941
57	0xbc54c2ce	-0.012985898
58	0xbb86d41f	-0.0041146423
59	0xbb815229	-0.003946562
60	0xba9513fc	-0.0011373754
61	0xbc4a0448	-0.012330122
62	0xbc663444	-0.014050547
63	0xb926508d	-0.00015861001

inception1.branch1.4.running_mean f4 [64]
0	0xbeaee71e	-0.34160703
1	0xbde7c324	-0.11316517
2	0xbe7c4bc1	-0.24638273
3	0x3e0a159d	0.13484807
4	0xbe148a07	-0.14505778
5	0x3dd8b037	0.10580485
6	0x3e3f7b4d	0.1869938
7	0x3efabf67	0.48974153
8	0x3d599abd	0.053126086
9	0x3e8a097c	0.2696036
10	0x3e4c96db	0.19979422
11	0xbe928561	-0.28617385
12	0x3d99cd72	0.07509889
13	0x3d02ff57	0.031981792
14	0x3e1891b9	0.14899339
15	0xbe4020b4	-0.18762475
16	0x3d93470c	0.071912855
17	0x3e15f48c	0.14644068
18	0x3d3086b0	0.043097198
19	0xbe987199	-0.29774168
20	0x3e3ef236	0.18647084
21	0x3d86b0cb	0.06576689
22	0x3e0fc1fc	0.14038843
23	0x3e400798	0.18752897
24	0xbc8e83be	-0.017396804
25	0xbe2e9bfa	-0.17051688
26	0xbc902b02	-0.017598633
27	0xbde3f8a5	-0.111314096
28	0xbe68a535	-0.22719271
29	0xbcda43af	-0.026643602
30	0x3d9f0e93	0.07766452
31	0x3ced4716	0.02896456
32	0x3e77d877	0.24203669
33	0x3e669d5d	0.22520967
34	0x3f00cec3	0.50315493
35	0x3c09523a	0.008381421
36	0x3e0843c7	0.13307105
37	0xbec9e1f6	-0.39430207
38	0xbda6d7ef	-0.08146655
39	0xbece9cd9	-0.4035404
40	0xbdae27fc	-0.0850372
41	0x3e18d42a	0.14924684
42	0x3f2d8789	0.67784935
43	0xbe30b8e5	-0.17258032
44	0xbea0708f	-0.31335875
45	0xbe9d75b2	-0.30753857
46	0xbebcae8d	-0.36851922
47	0x3e441ad3	0.19150858
48	0x3e52162d	0.20516272
49	0xbe04377f	-0.12911795
50	0xbcb70a01	-0.022343637
51	0x3ec6ffba	0.3886698
52	0x3d18c5d1	0.037298027
53	0xbde95a22	-0.113941446
54	0x3d8cbca9	0.068719216
55	0xbed346cf	-0.4126496
56	0xbc9234f1	-0.01784751
57	0xbe95cca6	-0.29257697
58	0xbe568f78	-0.20953166
59	0x3ec5ca5d	0.38630953
60	0xbe8f92fa	-0.28041822
61	0x3e885364	0.26626122
62	0xbea523b4	-0.32253802
63	0xbe168a7a	-0.14701262

inception1.branch1.4.running_var f4 [64]
0	0x3e04a02f	0.1295173
1	0x3d6de80a	0.058082618
2	0x3e1a82e2	0.1508899
3	0x3e573c02	0.21018985
4	0x3d2b9280	0.04188776
5	0x3e5dee8a	0.21673027
6	0x3e320172	0.17383364
7	0x3dd37a96	0.10326116
8	0x3de843e2	0.113410726
9	0x3da52f5b	0.08065673
10	0x3e41a97e	0.18912312
11	0x3db51550	0.08841956
12	0x3df13508	0.11777693
13	0x3d625495	0.055256445
14	0x3e2417a7	0.16024648
15	0x3d05b296	0.032641016
16	0x3e99d488	0.3004496
17	0x3d4ff067	0.050766375
18	0x3d837fe8	0.064208806
19	0x3ea0295e	0.3128156
20	0x3db044b9	0.08606858
21	0x3d8827e0	0.066482306
22	0x3e39a437	0.18129049
23	0x3df588fa	0.11989017
24	0x3de63173	0.112399004
25	0x3d9d0dd0	0.0766865
26	0x3dba1aa4	0.090871125
27	0x3df06f85	0.11740021
28	0x3e622ee2	0.22088197
29	0x3e43f5dc	0.19136757
30	0x3daf7c95	0.08568684
31	0x3e271d37	0.16319738
32	0x3dc1a4b1	0.094552405
33	0x3e14668e	0.14492247
34	0x3e064a9b	0.13114397
35	0x3dea3f5c	0.11437866
36	0x3eab6e63	0.33482656
37	0x3d9aeb9b	0.075644694
38	0x3da35273	0.0797471
39	0x3dac7c80	0.08422184
40	0x3d8bd8aa	0.06828435
41	0x3ce867ad	0.028369749
42	0x3e639c85	0.22227676
43	0x3ead66ea	0.3386758
44	0x3d4b4053	0.04962189
45	0x3dcead44	0.100916415
46	0x3d5610e9	0.05226222
47	0x3e8dbeab	0.2768453
48	0x3da2d408	0.07950598
49	0x3e03aaaf	0.1285808
50	0x3dc1412e	0.0943626
51	0x3e2f6624	0.17128807
52	0x3e1a805e	0.1508803
53	0x3e3765d3	0.17909937
54	0x3d6bd3ae	0.05757492
55	0x3e30ea53	0.17276888
56	0x3d167016	0.036727987
57	0x3e0ffc66	0.14061126
58	0x3e09a5bd	0.1344213
59	0x3d73df9a	0.059539415
60	0x3d923ce3	0.071405195
61	0x3e3fa613	0.18715696
62	0x3d32dc8e	0.04366737
63	0x3d89c7b0	0.067275405
