saved_models/model_DenseNet.pth (torch, 629961 bytes, 266 tensors)

features.conv0.weight f4 [32, 1, 3, 3]
0.45322764 0.5346581 0.46415028 -0.19589794 -0.6152619 -0.44225544 0.84489787 -1.0495559
-0.052957796 0.24518022 0.039741203 0.0804734 0.49624944 0.25307074 0.78787166 0.6616058
0.015291475 -0.2528337 -0.10164365 0.3251748 0.46242374 0.28741944 0.7865257 -0.30002922
-0.99882936 -0.16708562 -0.32429042 0.37001172 -0.040895995 0.5112292 -1.4654763 -0.78786415
-0.27907774 0.2363343 -0.8445676 0.5906769 -0.5332516 0.5719995 -0.25191244 0.21903613
0.22336844 0.16215684 -0.116651915 -0.50723326 -0.2198271 0.022327986 0.45300698 -0.3351374
0.054420266 0.47301638 -0.43065813 0.32127643 -0.058607817 -0.38063785 -0.57475924 0.16782425
0.72631025 0.7800053 -0.2772951 0.8107132 0.6300428 -0.3730843 0.70509183 0.22170474
-0.12918909 0.5562458 -0.16372567 -0.11716812 -0.034363315 -0.37154362 -0.38127452 0.78036183
0.33119085 0.23512651 0.32097575 -0.2907148 0.027382063 -0.7503534 0.94332695 0.23410445
0.17963938 -0.22110425 1.081073 0.24710247 -0.0019913448 -0.14971821 -0.16850494 -0.45505562
-0.04958009 -0.110590115 0.58355767 0.60681456 -0.025087092 -1.1486396 -0.31352785 -0.9465793
0.70750475 0.4816301 0.4603137 0.18185236 0.06090933 0.15755208 0.50167924 -0.009040014
0.43632966 -0.629343 -0.51367474 0.14681086 -0.86169946 0.012433291 1.1632432 -0.8652835
0.068998046 0.24363926 -1.2647301 0.17526099 1.4161571 -0.6216843 -0.8744504 -0.1483369
-0.92136824 -0.35307077 0.15749498 0.20863248 0.23438701 -0.14463371 -0.48445675 -0.4029274
0.14068252 -0.34295687 0.7802136 0.2848282 -0.17571239 1.0453234 0.09576817 -0.097489595
-0.081392795 -0.3020364 0.6029638 0.7290259 0.61628836 0.6705488 -0.36577377 0.3343758
0.62236685 -0.47519636 -0.25189382 -0.013740974 -0.20831117 0.30180737 0.30625322 -0.22390872
-0.3893173 0.60638946 0.0870831 -1.0303217 0.4097892 -0.058835678 -0.010147092 0.44443187
-0.44699875 0.031681612 0.04466118 0.46541178 0.6993695 -0.91316766 0.1770541 -0.3436647
-0.06171953 -0.06840682 0.31504756 -0.32762676 -0.026904864 0.39818075 -0.26072443 -0.22091462
-0.3227063 0.40100718 -0.21346916 -0.029782785 0.6703616 0.085942075 -0.23050265 -0.33807713
0.80921894 0.39217147 0.1961295 -1.3555406 -0.9728111 -0.4678843 -0.14059669 -0.576136
0.23921038 -0.19142362 0.16961057 0.39797342 0.094519086 0.39358363 -0.95952326 -0.0683657
-0.4708955 0.024725473 -0.4621835 -0.50067616 0.32008225 -0.9047256 -0.030023867 0.46892193
0.05293399 0.12496385 0.23045446 0.20745884 0.11645224 -0.037166476 0.0755753 -0.50926244
-0.75580645 -0.32483223 -0.28418395 -0.13425685 0.06597875 -0.3187518 -0.3004675 -0.31452492
-0.26298565 0.1384422 -0.35036737 0.13148819 -0.48548722 -0.32864594 -0.17969444 -0.46905327
-0.042347506 0.09903836 -0.16704164 -0.20095055 -0.12986352 0.13397796 0.19932416 0.5102816
0.24995843 0.26737514 0.28850344 0.16665138 0.37099266 0.53486806 0.47763753 0.04685607
-0.542675 0.29276937 -0.47073013 -0.351636 1.0880728 -0.10897195 -0.52655447 0.31308624
00000000: 740d e83e 5adf 083f 1ba5 ed3e 7899 48be
00000010: ce81 1dbf 4e6f e2be 3a4b 583f d957 86bf
00000020: 46ea 58bd 8610 7b3e acc7 223d 3dcf a43d
00000030: 6814 fe3e 7d92 813e f5b1 493f ff5e 293f
00000040: 1889 7a3c 6b73 81be 8c2a d0bd 507d a63e
00000050: cec2 ec3e a428 933e c059 493f 6e9d 99be
00000060: 48b3 7fbf 7e18 2bbe 6509 a6be 2d72 bd3e
00000070: 8f82 27bd ebdf 023f ba94 bbbf 77b1 49bf
00000080: 47e3 8ebe 9e01 723e 9535 58bf 9a36 173f
00000090: 2d83 08bf 8f6e 123f abfa 80be 024b 603e
000000a0: b2ba 643e 710c 263e 33e7 eebd 0ada 01bf
000000b0: 5b1a 61be 2ee9 b63c 88f0 e73e 2197 abbe
000000c0: c9e7 5e3d 342f f23e 397f dcbe 587e a43e
000000d0: c00e 70bd f7e2 c2be 6c23 13bf 1fda 2b3e
000000e0: 78ef 393f 6dae 473f a0f9 8dbe e68a 4f3f
000000f0: 7c4a 213f e804 bfbe e680 343f 9106 633e
00000100: 254a 04be 2066 0e3f b4a7 27be d7f5 efbd
00000110: 8cc0 0cbd f73a bebe 6a36 c3be cbc5 473f
00000120: d991 a93e 01c5 703e ef56 a43e 92d8 94be
00000130: 5950 e03c 2917 40bf e07d 713f 14b9 6f3e
00000140: 63f3 373e 2769 62be 9a60 8a3f 6e08 7d3e
00000150: 3981 02bb bb4f 19be 8f8c 2cbe 0dfd e8be
00000160: 7e14 4bbd 127d e2bd 0964 153f 3358 1b3f
00000170: 7283 cdbc 9f06 93bf b986 a0be 0553 72bf
00000180: 081f 353f 3898 f63e 3dae eb3e 8137 3a3e
00000190: 107c 793d 5555 213e 0d6e 003f 911c 14bc
000001a0: 9a66 df3e 9f1c 21bf 3080 03bf 9655 163e
000001b0: 5698 5cbf 01b5 4b3c 27e5 943f 3883 5dbf
000001c0: d94e 8d3d 927c 793e ade2 a1bf 9e77 333e
000001d0: a344 b53f b426 1fbf fbdb 5fbf a1e5 17be
000001e0: cade 6bbf b1c5 b4be 5d46 213e c1a3 553e
000001f0: 2603 703e dc1a 14be b70a f8be 804c cebe
00000200: 140f 103e 0b98 afbe 14bc 473f 00d5 913e
00000210: f3ed 33be 28cd 853f 1a22 c43d a0a8 c7bd
00000220: 44b1 a6bd 84a4 9abe d65b 1a3f 71a1 3a3f
00000230: 13c5 1d3f 16a9 2b3f b346 bbbe 4e33 ab3e
00000240: 6f53 1f3f f04c f3be 3af8 80be d221 61bc
00000250: 864f 55be 7f86 9a3e 39cd 9c3e 5448 65be
00000260: 9954 c7be 573c 1b3f a058 b23d 95e1 83bf
00000270: e4cf d13e aefd 70bd fd3f 26bc 938c e33e
00000280: 05dd e4be 94c4 013d a4ee 363d 744a ee3e
00000290: e109 333f 5bc5 69bf ac4d 353e d2f4 afbe
000002a0: 9ecd 7cbd e018 8cbd ea4d a13e b2be a7be
000002b0: 9767 dcbc 59de cb3e ac7d 85be 7137 62be
000002c0: c339 a5be d050 cd3e a997 5abe 07fb f3bc
000002d0: d19c 2b3f 6602 b03d e308 6cbe 7218 adbe
000002e0: f928 4f3f b3ca c83e 2cd6 483e 5b82 adbf
000002f0: 260a 79bf 888e efbe 94f8 0fbe a67d 13bf
00000300: 91f3 743e 8e04 44be 65ae 2d3e 2cc3 cb3e
00000310: 3993 c13d cb83 c93e 51a3 75bf 5103 8cbd
00000320: 3719 f1be 138d ca3c 51a3 ecbe 502c 00bf
00000330: d2e1 a33e 199c 67bf 9df4 f5bc 8916 f03e
00000340: 50d1 583d 0ced ff3d 41fc 6b3e 1770 543e
00000350: 837e ee3d e03b 18bd 39c7 9a3d 065f 02bf
00000360: 887c 41bf 6950 a6be 8f80 91be a17a 09be
00000370: de1f 873d 7033 a3be e0d6 99be 6909 a1be
00000380: 0ea6 86be cbc3 0d3e 5a63 b3be d7a4 063e
00000390: c891 f8be 4844 a8be d201 38be c027 f0be
000003a0: 9474 2dbd a0d4 ca3d f70c 2bbe fbc5 4dbe
000003b0: f1fa 04be 8531 093e a21b 4c3e d1a1 023f
000003c0: 1af5 7f3e 65e5 883e b9b6 933e a9a6 2a3e
000003d0: c0f2 bd3e 1ded 083f e88c f43e 27ec 3f3d
000003e0: c0ec 0abf dee5 953e 8a03 f1be a209 b4be
000003f0: f845 8b3f b02c dfbd 46cc 06bf d74c a03e

features.norm0.weight f4 [32]
1.0020609 1.0004668 0.99321336 0.99554646 1.000121 1.0003067 1.0011456 0.9920059
0.9999571 0.9998429 1.0003004 0.9990762 0.9879878 0.99853534 1.0002828 1.00041
0.9964826 0.99684227 0.9998344 1.0001405 1.0005006 0.9989552 1.0002185 0.9976426
0.99969244 0.97978437 0.99621165 0.9946416 1.000465 0.9994002 0.99612385 0.99777746
00000000: 8843 803f 4c0f 803f 3b43 7e3f 22dc 7e3f
00000010: f703 803f 0d0a 803f 8a25 803f 19f4 7d3f
00000020: 30fd 7f3f b4f5 7f3f d809 803f 75c3 7f3f
00000030: c5ec 7c3f 03a0 7f3f 4409 803f 6f0d 803f
00000040: 7c19 7f3f 0e31 7f3f 26f5 7f3f 9b04 803f
00000050: 6710 803f 87bb 7f3f 2907 803f 8165 7f3f
00000060: d8eb 7f3f 26d3 7a3f ba07 7f3f d5a0 7e3f
00000070: 3d0f 803f b1d8 7f3f f901 7f3f 586e 7f3f

features.norm0.bias f4 [32]
0.0639275 -0.0086931195 0.11885166 0.10025276 0.025968473 -0.01770111 0.001725068 0.13522014
0.04817217 0.047810424 -0.032300796 0.04954778 0.15770358 0.06516212 -0.018906211 -0.011550988
0.111514874 0.08362097 0.031023731 0.050468434 0.0052190498 0.060631733 0.02840995 0.08037716
0.039196134 0.20701659 0.10324334 0.11110556 0.014353924 0.061116442 0.09800983 0.073804095
00000000: 6cec 823d 966d 0ebc 8068 f33d 5251 cd3d
00000010: d6bb d43c eb01 91bc ad1b e23a 2677 0a3e
00000020: 2e50 453d ddd4 433d d74d 04bd 9df2 4a3d
00000030: 0c7d 213e b873 853d 33e1 9abc 5b40 3dbc
00000040: e961 e43d 7941 ab3d 7b25 fe3c fdb7 4e3d
00000050: 9004 ab3b fb58 783d fcbb e83c c89c a43d
00000060: 208c 203d 28fc 533e 3f71 d33d 508b e33d
00000070: b92c 6b3c 3c55 7a3d 61b9 c83d 9a26 973d

features.norm0.running_mean f4 [32]
-0.056344904 1.4389255 -0.02310644 -1.0756009 -0.28255764 0.078400746 1.5971093 0.20181875
0.74830633 0.13479316 0.22038345 0.21843533 0.05378837 -1.5248077 0.583228 1.3068831
-0.20869426 0.020753682 0.19245882 -0.37847084 -0.44944918 -0.029902562 -1.8881149 0.45614326
-1.6198463 -0.9223815 0.7164083 0.30092156 0.4257152 0.83475786 -0.5982475 -0.20333254
00000000: eac9 66bd b62e b83f b849 bdbc 4aad 89bf
00000010: 65ab 90be 9290 a03d 146e cc3f 93a9 4e3e
00000020: 0191 3f3f 3807 0a3e 33ac 613e 83ad 5f3e
00000030: 3251 5c3d e62c c3bf 6e4e 153f f247 a73f
00000040: f3b3 55be a003 aa3c ed13 453e eec6 c1be
00000050: 341e e6be 38f6 f4bc c0ad f1bf 9c8b e93e
00000060: 2057 cfbf 3221 6cbf 8966 373f 6412 9a3e
00000070: 58f7 d93e b1b2 553f c026 19bf 6836 50be

features.norm0.running_var f4 [32]
0.017193742 0.18660422 0.015317688 0.11312946 0.011072709 0.009664729 0.24516301 0.015100463
0.063885376 0.0113831945 0.02238453 0.011651682 0.10021714 0.21722712 0.044518583 0.15615779
0.009374117 0.01858746 0.01717484 0.012552705 0.044640284 0.010637286 0.31751412 0.023427892
0.24067552 0.07695041 0.050505936 0.020116739 0.020467578 0.08237978 0.040219724 0.03269077
00000000: e4d9 8c3c 2d15 3f3e 0af7 7a3c 6bb0 e73d
00000010: 4f6a 353c d058 1e3c 030c 7b3e ef67 773c
00000020: 56d6 823d 9480 3a3c c35f b73c b2e6 3e3c
00000030: a53e cd3d c970 5e3e 1e59 363d d4e7 1f3e
00000040: e595 193c bb44 983c 40b2 8c3c dca9 4d3c
00000050: bbd8 363d 0348 2e3c 3691 a23e daeb bf3c
00000060: a573 763e 2d98 9d3d 50df 4e3d dccb a43c
00000070: 9fab a73c bbb6 a83d 70bd 243d c2e6 053d

features.denseblock1.denselayer1.norm1.weight f4 [32]
1.1098846 0.94768757 1.0229471 0.9522149 0.97049576 0.98577756 0.964604 0.9259692
1.0047879 1.0454494 0.98050004 0.99560064 1.0884585 0.9729882 1.0733973 1.0147471
1.0321387 1.0355371 0.9489795 0.9515508 0.97301525 1.1181973 0.948951 0.9765258
0.9528973 0.9695634 0.9711586 1.0052224 0.9533087 0.964737 0.9247594 1.0412712
00000000: b310 8e3f a79b 723f eeef 823f 5bc4 733f
00000010: 6972 783f eb5b 7c3f 4af0 763f 510c 6d3f
00000020: e49c 803f 49d1 853f 0d02 7b3f afdf 7e3f
00000030: 9c52 8b3f c115 793f 1565 893f 3ce3 813f
00000040: 1f1d 843f 7b8c 843f 52f0 723f d598 733f
00000050: 8717 793f 1721 8f3f 74ee 723f 98fd 793f
00000060: 14f1 733f 4f35 783f da9d 783f 21ab 803f
00000070: 0a0c 743f 01f9 763f 08bd 6c3f 6048 853f

features.denseblock1.denselayer1.norm1.bias f4 [32]
0.3578877 -0.032305766 0.26381654 -0.01266366 -0.004786952 -0.038933147 -0.025043882 -0.08310634
-0.08126838 0.07402685 -0.04816975 0.005491 0.22463967 0.069317594 0.0003446622 -0.024334444
0.10901145 -0.011537816 0.040609192 0.04805554 0.0051929103 0.19674087 -0.0755856 0.006518547
-0.033749305 0.106082305 -0.0010193347 0.19440843 0.02602771 -0.032645553 -0.026232053 0.09330347
00000000: 0e3d b73e 0d53 04bd f612 873e 3d7b 4fbc
00000010: dddb 9cbb 5d78 1fbd d428 cdbc a833 aabd
00000020: 0970 a6bd 649b 973d a54d 45bd d9ed b33b
00000030: f107 663e 62f6 8d3d c7b3 b439 0759 c7bc
00000040: 6541 df3d 1c09 3dbc d355 263d e3d5 443d
00000050: 4a29 aa3b 7076 493e a0cc 9abd 8999 d53b
00000060: b63c 0abd ae41 d93d 329b 85ba 0113 473e
00000070: 1038 d53c 58b7 05bd 9ae4 d6bc e415 bf3d

features.denseblock1.denselayer1.norm1.running_mean f4 [32]
0.30931622 0.43620166 0.397427 0.5020681 0.5087999 0.32700846 0.4413038 0.44545624
0.46703428 0.3820553 0.304485 0.42727536 0.4289152 0.50356543 0.4576446 0.44005653
0.47335967 0.37026098 0.39169425 0.47511777 0.45773175 0.3177335 0.4796773 0.49862105
0.49644437 0.55670255 0.5152411 0.48282024 0.46175042 0.4637666 0.5263456 0.44283256
00000000: b25e 9e3e d355 df3e 8d7b cb3e 8987 003f
00000010: b640 023f a76d a73e 92f2 e13e d712 e43e
00000020: 1e1f ef3e c19c c33e 75e5 9b3e d6c3 da3e
00000030: c69a db3e aae9 003f 6550 ea3e 174f e13e
00000040: 335c f23e d992 bd3e 268c c83e a342 f33e
00000050: d15b ea3e f7ad a23e 4398 f53e 424b ff3e
00000060: f52d fe3e 0f84 0e3f d7e6 033f 3734 f73e
00000070: 8d6a ec3e d172 ed3e 96be 063f f3ba e23e

features.denseblock1.denselayer1.norm1.running_var f4 [32]
0.12243275 0.26489928 1.5020027 0.5109152 0.82510453 1.3861694 0.26004177 0.21081465
0.26430288 0.6328255 0.20410621 0.77907443 0.8689401 0.54393005 0.47015536 0.2689387
0.4218583 0.6501719 0.525761 0.5012873 0.99842733 1.1663547 0.49208114 0.3576942
0.5053205 0.5704768 0.3210873 0.3563102 0.3865002 0.2471739 0.6118503 1.1784432
00000000: 06be fa3d e1a0 873e a041 c03f 57cb 023f
00000010: 0d3a 533f 006e b13f 3224 853e ccdf 573e
00000020: b552 873e da00 223f 3801 513e 6c71 473f
00000030: dc72 5e3f 003f 0b3f 34b8 f03e 55b2 893e
00000040: d0fd d73e aa71 263f 4698 063f 5d54 003f
00000050: ef98 7f3f 1c4b 953f 0ff2 fb3e b223 b73e
00000060: af5c 013f c40a 123f 8e65 a43e 4a6e b63e
00000070: 5be3 c53e 281b 7d3e 39a2 1c3f 3ad7 963f

features.denseblock1.denselayer1.conv1.weight f4 [32, 32, 1, 1]
-0.12543651 0.36962375 -0.51805216 0.042618047 -0.60026115 -0.33799368 0.20793344 0.11111217
0.14468944 -0.26958448 0.045224264 0.13567133 0.026161024 -0.33920705 -0.17028421 0.21878481
0.082249455 0.15508285 0.19669954 0.33530736 -0.016154362 -0.3717486 -0.26482022 -0.31350228
-0.36437997 0.2504724 0.08347837 -0.022839667 0.36108634 0.18190394 -0.39485255 -0.15484156
0.30866316 0.20565064 -0.04899673 0.40950346 -0.20016983 -0.14352722 0.036569137 -0.12371841
-0.08469477 0.40141997 0.02016376 0.20805112 0.1680416 -0.2202667 0.45428964 0.27171797
0.017213339 -0.039317273 -0.52299905 0.1670143 -0.096937805 0.15601794 0.034022655 0.09341731
-0.055862203 0.0036643252 0.13514021 -0.011596962 0.16308579 -0.2965942 -0.021575635 0.013504537
-0.2180085 0.15882409 -0.15125072 -0.18831049 0.23545879 -0.22796398 -0.080311276 0.54229367
0.03141571 0.24698938 -0.2496127 -0.11546602 -0.078340456 -0.07599591 0.0065037883 -0.004103728
0.1744011 -0.1797843 0.12024751 -0.21534872 -0.59351623 -0.40687913 -0.1578082 0.15299632
0.16538312 0.1828218 -0.09132799 0.19299507 -0.057097718 -0.22272246 0.13302119 -0.40013912
-0.28642714 -0.25559813 -0.15703866 0.0696353 0.42108986 -0.26405486 0.00053177966 0.050271653
0.091668166 0.027831009 -0.23876537 0.27327138 -0.25724772 0.33133614 -0.09158958 0.14710589
0.10542085 -0.029529309 0.14306073 0.21565382 0.07926551 -0.081363335 0.29848495 -0.013946175
-0.105576865 -0.23758516 -0.00091188605 0.14258735 0.37020054 0.011723531 -0.15006465 -0.35934561
-0.3327075 -0.096464336 -0.26938865 0.15255788 -0.52554154 0.017988153 -0.08529877 0.086488426
-0.2689681 -0.06648154 -0.27654657 -0.008701728 -0.07585867 0.3224197 -0.018337483 0.63028866
-0.0004796469 0.09748779 -0.38255227 0.20497733 0.0020274739 -0.10443939 -0.09062475 0.015027682
-0.14517315 0.098001875 -0.5005181 0.21429642 -0.06566591 -0.17155965 0.23990197 0.47323492
-0.015209428 0.049304012 -0.07690214 0.22202386 0.036844615 -0.030449927 0.029175626 0.55438167
-0.13537362 0.05847513 0.10704814 -0.4371183 0.18064375 -0.19565094 0.12374469 0.19075972
0.0055572423 -0.3511533 0.38438258 0.038473062 0.02776065 -0.08323055 -0.0089598475 -0.11275148
0.3762803 -0.3027492 0.09803567 0.37199605 -0.12919584 0.46904644 -0.12594339 -0.060563605
-0.2203496 0.061601806 0.5528065 -0.21409212 0.13696219 0.011033238 0.02772187 -0.040448423
-0.29009032 0.060305625 -0.24126579 0.09258655 0.13569576 0.18821873 -0.0094863465 0.05427769
-0.24660647 0.28340644 -0.10203056 0.0048299767 -0.43154484 -0.023878284 0.18610542 -0.32380626
-0.08153214 -0.40554443 -0.27306914 0.12801261 -0.00086809305 -0.20346673 0.2689312 -0.2892691
0.13168144 0.14292227 -0.5290603 -0.13986234 -0.29061896 0.07380793 -0.04542884 0.050348222
0.074918225 -0.31929278 -0.25741413 -0.036792282 0.22349638 -0.109999344 -0.02519944 0.08839245
0.2591174 -0.3474096 0.02375874 0.06534077 -0.023934098 0.006204569 -0.030023701 0.034137703
0.08673704 0.1373602 -0.084179714 -0.22877026 -0.23461996 -0.12131478 -0.12034912 0.039226588
00000000: 6e72 00be 533f bd3e 119f 04bf 4390 2e3d
00000010: b7aa 19bf 820d adbe 81ec 543e c78e e33d
00000020: 7829 143e fa06 8abe 143d 393d 6ded 0a3e
00000030: a54f d63c 8cac adbe fc5e 2ebe 2009 603e
00000040: 6772 a83d 0ace 1e3e 9b6b 493e 68ad ab3e
00000050: 2756 84bc d555 bebe 8496 87be 5f83 a0be
00000060: 0390 babe eb3d 803e b5f6 aa3d 411a bbbc
00000070: 4fe0 b83e 0745 3a3e 1d2a cabe c98e 1ebe
00000080: 1909 9e3e 1596 523e ccb0 48bd 70aa d13e
00000090: 52f9 4cbe cdf8 12be 85c9 153d 1460 fdbd
000000a0: 7474 adbd eb86 cd3e 782e a53c 5a0b 553e
000000b0: 1913 2c3e 988d 61be a798 e83e 9e1e 8b3e
000000c0: fd02 8d3c 260b 21bd 44e3 05bf cc05 2b3e
000000d0: 5487 c6bd 2bc3 1f3e 575b 0b3d 9351 bf3d
000000e0: c4cf 64bd 2d25 703b 3262 0a3e 2f01 3ebc
000000f0: f6ff 263e 32db 97be 63bf b0bc 2242 5d3c
00000100: 9f3d 5fbe c8a2 223e 78e1 1abe 77d4 40be
00000110: 1c1c 713e 646f 69be 3d7a a4bd c2d3 0a3f
00000120: c2ad 003d c9ea 7c3e 799a 7fbe 7379 ecbd
00000130: f670 a0bd bea3 9bbd bb1d d53b 9178 86bb
00000140: 3496 323e 6019 38be 5444 f63d 6084 5cbe
00000150: aef0 17bf 7652 d0be 7998 21be 11ab 1c3e
00000160: 315a 293e a335 3b3e 2b0a bbbd 80a0 453e
00000170: 4cdf 69bd 5b11 64be b536 083e 09df ccbe
00000180: 94a6 92be c2dd 82be bece 20be f49c 8e3d
00000190: 1799 d73e 3332 87be 2167 0b3a a6e9 4d3d
000001a0: 85bc bb3d dbfd e33c e97e 74be 3aea 8b3e
000001b0: f9b5 83be e4a4 a93e 5193 bbbd eda2 163e
000001c0: e3e6 d73d 73e7 f1bc 837e 123e 5bd4 5c3e
000001d0: f555 a23d d2a1 a6bd 05d3 983e 7f7e 64bc
000001e0: af38 d8bd 8649 73be a30b 6fba 6b02 123e
000001f0: ed8a bd3e 0e14 403c 8caa 19be 26fc b7be
00000200: a358 aabe 188f c5bd 4fed 89be 2238 1c3e
00000210: e489 06bf e45b 933c 1fb1 aebd d820 b13d
00000220: 30b6 89be 7927 88bd 8397 8dbe b191 0ebc
00000230: ca5b 9bbd 3214 a53e 7d38 96bc 995a 213f
00000240: 1e79 fbb9 aea7 c73d e4dd c3be 94e5 513e
00000250: 5edf 043b 52e4 d5bd 7899 b9bd ab36 763c
00000260: 45a8 14be 35b5 c83d f421 00bf 8570 5b3e
00000270: d97b 86bd 55ad 2fbe dda8 753e d94b f23e
00000280: f730 79bc 01f3 493d df7e 9dbd 395a 633e
00000290: 61ea 163d 2072 f9bc b901 ef3c f5eb 0d3f
000002a0: 629f 0abe 9e83 6f3d 0e3c db3d f8cd dfbe
000002b0: adfa 383e b858 48be db6d fd3d 8456 433e
000002c0: 8719 b63b 5eca b3be cbcd c43e ee95 1d3d
000002d0: 4d6a e33c c774 aabd 53cc 12bc 3fea e6bd
000002e0: d0a7 c03e f101 9bbe edc6 c83d 4476 be3e
000002f0: ea4b 04be db26 f03e 4ef7 00be 8b11 78bd
00000300: 53a3 61be 2d52 7c3d ba84 0d3f f73a 5bbe
00000310: d13f 0c3e c1c4 343c fa18 e33c 3fad 25bd
00000320: b886 94be 0803 773d 610e 77be 049e bd3d
00000330: d4f3 0a3e 69bc 403e 9f6c 1bbc 4852 5e3d
00000340: 6886 7cbe a61a 913e 66f5 d0bd c844 9e3b
00000350: 72f3 dcbe 649c c3bc 6b92 3e3e efc9 a5be
00000360: 53fa a6bd 85a3 cfbe b8cf 8bbe bd15 033e
00000370: bd90 63ba 9559 50be 5ab1 893e 141b 94be
00000380: 80d7 063e 375a 123e 7f70 07bf 1338 0fbe
00000390: 02cc 94be 9d28 973d 9713 3abd f039 4e3d
000003a0: ba6e 993d 587a a3be c9cb 83be 81b3 16bd
000003b0: 3cdc 643e 5647 e1bd 0e6f cebc 1a07 b53d
000003c0: 09ab 843e acdf b1be b0a1 c23c 62d1 853d
000003d0: 7111 c4bc b24f cb3b 44f4 f5bc fad3 0b3d
000003e0: 30a3 b13d 27a8 0c3e 6a66 acbd c042 6abe
000003f0: 3740 70be e273 f8bd 9979 f6bd 0fac 203d

features.denseblock1.denselayer1.norm2.weight f4 [32]
1.0230591 0.98229945 1.0286772 0.9914075 1.0506293 0.9720238 0.9449011 1.0110552
1.0092283 1.078364 1.0375116 0.96609193 0.97526497 1.0454667 1.0082915 0.98355424
1.0233474 0.99979305 0.9600587 0.9976956 0.943612 1.0287894 1.0106287 0.9417471
0.9468764 1.0593612 1.013505 0.94537234 0.9925872 0.9743774 0.98453075 1.0492892
00000000: 9af3 823f fa77 7b3f b2ab 833f e2cc 7d3f
00000010: 057b 863f 8dd6 783f 0ae5 713f 426a 813f
00000020: 652e 813f d507 8a3f 2ecd 843f cd51 773f
00000030: f7aa 793f dad1 853f b20f 813f 36ca 7b3f
00000040: 0cfd 823f 70f2 7f3f 68c6 753f fb68 7f3f
00000050: 8e90 713f 5faf 833f 485c 813f 5716 713f
00000060: 7e66 723f 2699 873f 88ba 813f ec03 723f
00000070: 321a 7e3f cc70 793f 350a 7c3f 1c4f 863f

features.denseblock1.denselayer1.norm2.bias f4 [32]
0.032191504 -0.09411371 -0.019162996 -0.029289396 0.02096872 -0.045943853 -0.04518132 0.0059725544
0.014407832 0.092626505 -0.037576973 -0.0005288173 -0.021980293 0.03258291 0.00082687096 -0.012165409
-0.02239331 -0.012506644 -0.06306688 -0.00046813296 0.016087292 0.023053091 -0.025212025 -0.09663241
-0.05456672 0.07550737 0.0106091285 0.0007028103 0.03912128 -0.010357908 -0.027794711 0.0020858617
00000000: 3ddb 033d b0be c0bd b7fb 9cbc 51f0 efbc
00000010: 98c6 ab3c 9f2f 3cbd 0c10 39bd 6bb5 c33b
00000020: d40e 6c3c f7b2 bd3d 50ea 19bd 54a0 0aba
00000030: 0410 b4bc a875 053d 5fc2 583a 6c51 47bc
00000040: 2d72 b7bc abe8 4cbc 3529 81bd be6f f5b9
00000050: 7fc9 833c d6d9 bc3c 7389 cebc 37e7 c5bd
00000060: 5a81 5fbd 9ca3 9a3d e9d1 2d3c cd3c 383a
00000070: a33d 203d 37b4 29bc bcb1 e3bc f4b2 083b

features.denseblock1.denselayer1.norm2.running_mean f4 [32]
-0.32440978 0.60437524 -0.34748477 0.11928402 -0.2851153 0.513144 -0.55767024 -0.4079454
-0.2691081 -0.3477653 0.38854334 -0.6814133 0.564952 0.068266466 0.36894387 -0.31415674
0.097818 0.27357683 0.14441855 -0.601758 0.060309432 0.016580958 -0.384966 1.1371546
1.2989299 0.02833093 -0.31335294 -0.8172949 -0.025023377 0.28057468 0.14113915 -0.26202884
00000000: 0a19 a6be 56b8 1a3f 86e9 b1be 2e4b f43d
00000010: a2fa 91be 685d 033f 7ac3 0ebf 38de d0be
00000020: 89c8 89be 4b0e b2be 27ef c63e 1a71 2ebf
00000030: b2a0 103f 4acf 8b3d 36e6 bc3e 27d9 a0be
00000040: ce54 c83d 4312 8c3e 75e2 133e d00c 1abf
00000050: 0607 773d cad4 873c 431a c5be 488e 913f
00000060: 5643 a63f 4416 e83c cc6f a0be 3d3a 51bf
00000070: d3fd ccbc 7ca7 8f3e c886 103e a528 86be

features.denseblock1.denselayer1.norm2.running_var f4 [32]
3.760607 0.5524182 0.8640537 0.5733265 0.92182755 1.3230445 0.3955261 1.333983
1.6196967 0.63705593 0.6089843 1.937271 0.9621224 0.68830305 0.6674103 1.6093524
0.49216074 3.1967509 0.69786257 1.935267 0.65050566 1.2824858 1.083984 3.5823636
2.8742647 0.68354225 0.9437703 1.3477896 0.7352145 0.79679316 2.3706157 1.3985511
00000000: c9ad 7040 476b 0d3f a032 5d3f 87c5 123f
00000010: e4fc 6b3f 8659 a93f 6682 ca3e f4bf aa3f
00000020: 3952 cf3f 1916 233f 65e6 1b3f 7ff8 f73f
00000030: a74d 763f a134 303f 67db 2a3f 42ff cd3f
00000040: 7efc fb3e 9197 4c40 1fa7 323f d4b6 f73f
00000050: 8a87 263f 7f28 a43f fdbf 8a3f 7245 6540
00000060: f4f3 3740 a0fc 2e3f ee9a 713f 5f84 ac3f
00000070: 0437 3c3f a3fa 4b3f 2bb8 1740 b903 b33f

features.denseblock1.denselayer1.conv2.weight f4 [8, 32, 3, 3]
-0.11732544 -0.09633832 0.10295236 0.037593115 -0.018825835 -0.07450852 -0.024119725 0.0057657617
-0.040331505 0.02347438 -0.06076471 -0.06432964 -0.03785398 -0.1058247 -0.019740028 0.012697641
-0.039822638 -0.031412747 -0.014390744 0.08014021 0.11024992 -0.052291248 -0.044491082 -0.07931535
-0.01987206 -0.18418813 -0.061872475 -0.066859126 -0.08720188 0.089717545 0.10998339 -0.029096259
-0.12922752 0.035107236 -0.08380014 0.07504017 -0.14288905 -0.12173601 -0.17035492 -0.037334725
0.13931696 0.086936064 0.07927817 -0.079293095 -0.11081394 0.20775536 0.03329821 0.034037318
-0.02958371 -0.07455697 -0.08834576 0.088328846 -0.12946329 0.061513193 -0.21377939 0.036571007
0.13835537 -0.08226222 -0.037535027 0.13722594 -0.026498664 0.032792762 -0.055108137 0.1377907
-0.06685145 0.05893537 0.039833426 0.019292414 -0.03907163 0.15784119 -0.0043569067 0.009394577
0.035733253 0.04850447 0.09936807 0.0069144643 0.009543054 -0.022251863 -0.13228875 0.1660107
0.10847756 -0.062299617 0.04407851 -0.099623546 0.04052275 -0.004148398 0.102157936 -0.062529825
-0.06287017 0.066101536 0.01695088 0.12701023 0.09672209 -0.062689945 0.062705226 -0.13572751
0.07122488 -0.14430614 -0.094710775 0.13676691 0.10275234 -0.061911803 -0.026050346 -0.058900315
-0.00043119473 -0.07416041 0.09604447 -0.070538014 0.09403457 0.142293 -0.02205366 -0.103427455
0.009625926 -0.03871109 -0.1386492 -0.087733135 0.00084350427 0.024747917 -0.013985168 -0.08636627
0.06861144 0.012708352 0.06391465 -0.023903076 0.067428835 -0.07447578 0.16511974 0.03839521
0.03276076 0.00913168 0.021128751 -0.16034122 -0.10387888 0.18714893 0.070150875 -0.14013296
-0.014671631 0.091436766 0.012920374 0.07451774 -0.029745141 0.08407579 -0.059510157 -0.013539338
0.07536079 -0.06982939 -0.20175557 0.0015698062 0.043276057 0.0040336894 0.11613411 0.040836215
0.12848514 -0.0065630293 -0.08665152 -0.015913311 0.14558278 0.089556 0.033302646 0.06591644
0.0045933826 0.04889295 0.0060595227 0.027078584 -0.03382626 0.09877257 0.13281061 -0.09422705
0.04113874 0.0061011976 -0.040729616 0.0984875 0.10071816 0.029950507 -0.053627003 0.10089252
0.12701023 -0.12043073 -0.1336742 -0.057003777 0.113555856 0.21961081 -0.053322397 -0.04785814
0.05548823 -0.09885154 0.021384478 0.10036355 -0.011492734 0.022261895 -0.0822802 -0.12728961
0.11883769 0.05482331 -0.15295129 -0.22907606 -0.16659 0.015803948 0.007139907 -0.023088086
-0.14567804 0.0155574 -0.0722671 -0.059820913 0.08830292 -0.018890798 0.014922075 -0.018623441
-0.14681421 -0.15733193 0.13984494 0.06721837 0.07380439 -0.11005308 -0.19393839 -0.057381462
0.103412084 0.115431175 -0.29981977 0.030315477 -0.084625274 0.025762577 0.12974718 0.0444019
-0.05397413 0.23849653 0.024498364 -0.013948401 0.07630756 0.043728754 -0.1423586 0.0128185265
-0.106368 -0.12873352 -0.101536416 0.019619985 -0.044209264 -0.03885816 0.09104447 0.13860627
-0.11538932 0.0864744 0.007283558 -0.009264071 -0.0026786404 -0.016321344 -0.033435144 -0.08250388
0.074004576 -0.03278136 -0.029210187 -0.027204877 0.20337574 0.0431937 0.026994998 -0.0646448
00000000: 5248 f0bd 064d c5bd b0d8 d23d 3dfb 193d
00000010: a338 9abc ec97 98bd bb96 c5bc b7ee bc3b
00000020: a632 25bd 584d c03c 6be4 78bd 42bf 83bd
00000030: c60c 1bbd 9fba d8bd d7b5 a1bc c409 503c
00000040: 101d 23bd a7aa 00bd 28c7 6bbc 8d20 a43d
00000050: b6ca e13d 592f 56bd 483c 36bd 1670 a2bd
00000060: bbca a2bc d09b 3cbe fe6d 7dbd 70ed 88bd
00000070: e696 b2bd d5bd b73d f93e e13d 475b eebc
00000080: 3854 04be 9bcc 0f3d 689f abbd a9ae 993d
00000090: 8251 12be bb50 f9bd 8571 2ebe 4cec 18bd
000000a0: 1ba9 0e3e 890b b23d 985c a23d 6b64 a2bd
000000b0: 6bf2 e2bd d2bd 543e b463 083d b76a 0b3d
000000c0: 8959 f2bc 53b1 98bd 9fee b4bd c1e5 b43d
000000d0: 0692 04be 42f5 7b3d fce8 5abe 7bcb 153d
000000e0: 08ad 0d3e 1879 a8bd 54be 19bd f584 0c3e
000000f0: ba13 d9bc b451 063d 12b9 61bd 0119 0d3e
00000100: 6ae9 88bd 3766 713d 6028 233d 200b 9e3c
00000110: 9309 20bd 1fa1 213e 62c4 8ebb b6eb 193c
00000120: 085d 123d a0ac 463d 7d81 cb3d bb92 e23b
00000130: 785a 1c3c 8a49 b6bc b476 07be b5fe 293e
00000140: 7c29 de3d e22d 7fbd ab8b 343d 6e07 ccbd
00000150: 2ffb 253d 49ef 87bb 2e38 d13d a30f 80bd
00000160: 13c2 80bd 3e60 873d 92dc 8a3c f80e 023e
00000170: 3b16 c63d 9663 80bd 996b 803d 27fc 0abe
00000180: 5ade 913d fdc4 13be b9f7 c1bd a00c 0c3e
00000190: d26f d23d 3b97 7dbd 8967 d5bc 7541 71bd
000001a0: fa11 e2b9 6ae1 97bd f7b2 c43d 3c76 90bd
000001b0: 3295 c03d 42b5 113e e1a9 b4bc c6d1 d3bd
000001c0: 0fb6 1d3c 858f 1ebd 0efa 0dbe 6ead b3bd
000001d0: 9d1e 5d3a 25bc ca3c 0c22 65bc cde0 b0bd
000001e0: 2884 8c3d b136 503c afe5 823d 62d0 c3bc
000001f0: 2118 8a3d c286 98bd 2615 293e 4c44 1d3d
00000200: 2630 063d 0b9d 153c 3416 ad3c 7d30 24be
00000210: 73be d4bd f8a3 3f3e 43ab 8f3d 047f 0fbe
00000220: 4861 70bc 3343 bb3d faaf 533c c29c 983d
00000230: 15ac f3bc ee2f ac3d ecc0 73bd 19d4 5dbc
00000240: c256 9a3d b602 8fbd 0399 4ebe f5c1 cd3a
00000250: 3c42 313d 0a2d 843b b8d7 ed3d e043 273d
00000260: 9c91 033e ae0e d7bb 5a76 b1bd a25c 82bc
00000270: a713 153e 2369 b73d 5b68 083d 33ff 863d
00000280: 1684 963b f943 483d f68e c63b e8d3 dd3c
00000290: 688d 0abd 4649 ca3d 81ff 073e 1dfa c0bd
000002a0: 1881 283d 8eec c73b 19d4 26bd d0b3 c93d
000002b0: 5345 ce3d c45a f53c fda7 5bbd bda0 ce3d
000002c0: f80e 023e 63a4 f6bd e4e1 08be cb7c 69bd
000002d0: f98f e83d a8e1 603e 9668 5abd e606 44bd
000002e0: a047 633d ad72 cabd 802e af3c 688b cd3d
000002f0: 054c 3cbc 945e b63c 8682 a8bd 3558 02be
00000300: 2d61 f33d 688e 603d 439f 1cbe ea92 6abe
00000310: 9296 2abe 4877 813c e2f5 e93b 3a23 bdbc
00000320: a02c 15be 77e4 7e3c c600 94bd c606 75bd
00000330: 29d8 b43d e0c0 9abc b87b 743c 3090 98bc
00000340: 7756 16be 9f1b 21be 8333 0f3e c9a9 893d
00000350: c226 973d 8263 e1bd c997 46be d308 6bbd
00000360: b7c9 d33d 2e67 ec3d fa81 99be 2a58 f83c
00000370: 0450 adbd 0a0c d33c 72dc 043e c4de 353d
00000380: fa13 5dbd 6f38 743e cbb0 c83c d687 64bc
00000390: 2347 9c3d ec1c 333d 74c6 11be cc04 523c
000003a0: 77d7 d9bd b8d2 03be 53f2 cfbd 17ba a03c
000003b0: c614 35bd bc29 1fbd 8675 ba3d cdee 0d3e
000003c0: 3c51 ecbd 7d19 b13d eaaa ee3b 54c8 17bc
000003d0: 218c 2fbb 57b4 85bc 4af3 08bd cbf7 a8bd
000003e0: b68f 973d bf45 06bd 344a efbc c3dc debc
000003f0: bb41 503e e1eb 303d 9d24 dd3c 7e64 84bd

features.denseblock1.denselayer2.norm1.weight f4 [40]
0.9978674 0.94809943 1.0281949 0.97456473 0.9683987 1.0124595 1.0153686 1.0115818
0.9927175 0.9881909 0.9932133 0.9996964 1.0191334 1.0025809 0.99949676 0.96282166
1.0488328 1.0678539 1.017905 0.9802165 0.9962172 0.9954956 0.96852326 0.9721121
1.0007699 0.95993805 0.9813033 1.0135835 0.9908857 0.97144306 1.0137205 0.9729373
0.99983734 0.96681935 0.99079025 1.0253831 1.0348868 0.99981433 1.0153575 1.0391345
00000000: 3d74 7f3f a5b6 723f e49b 833f 137d 793f
00000010: fae8 773f 4698 813f 99f7 813f 837b 813f
00000020: bc22 7e3f 14fa 7c3f 3a43 7e3f 1aec 7f3f
00000030: f772 823f 9254 803f 05df 7f3f 7b7b 763f
00000040: 2740 863f 70af 883f b64a 823f 78ef 7a3f
00000050: 1708 7f3f cdd8 7e3f 24f1 773f 57dc 783f
00000060: 3a19 803f 80be 753f b136 7b3f 1bbd 813f
00000070: afaa 7d3f 7eb0 783f 98c1 813f 6b12 793f
00000080: 57f5 7f3f 7981 773f 6ea4 7d3f c13f 833f
00000090: 2c77 843f d5f3 7f3f 3cf7 813f 5c02 853f

features.denseblock1.denselayer2.norm1.bias f4 [40]
0.10435026 -0.06275808 0.054090407 0.06988129 -0.010843715 0.026201311 0.0210244 0.07114769
0.049588013 -0.024000837 0.043159194 0.0076339347 0.12450612 -0.0146259265 0.010595105 -0.049696125
0.14642641 0.22751544 -0.016487887 -0.03052318 -0.05041185 0.042851426 -0.029678548 -0.009492758
0.010386615 0.017296175 -0.008774953 0.02283886 -0.01714865 -0.025495812 0.077584796 -0.018081885
0.12585835 0.0136159845 9.874133e-05 -0.0032098712 0.042445198 0.030743316 -0.045667995 0.06576818
00000000: 97b5 d53d 4f87 80bd e78d 5d3d ec1d 8f3d
00000010: d6a9 31bc 22a4 d63c 5d3b ac3c e1b5 913d
00000020: cd1c 4b3d 679d c4bc b2c7 303d 1626 fa3b
00000030: 11fd fe3d 95a1 6fbc 1797 2d3c 2a8e 4bbd
00000040: cef0 153e cff9 683e 9b11 87bc bf0b fabc
00000050: a87c 4ebd fa84 2f3d 6d20 f3bc 8387 1bbc
00000060: 9f2c 2a3c b5b0 8d3c d2c4 0fbc 9018 bb3c
00000070: 537b 8cbc 98dc d0bc c7e4 9e3d 7620 94bc
00000080: 03e1 003e 9415 5f3c 5913 cf38 b45c 52bb
00000090: 04db 2d3d 68d9 fb3c 5d0e 3bbd 78b1 863d

features.denseblock1.denselayer2.norm1.running_mean f4 [40]
0.30931622 0.43620166 0.397427 0.5020681 0.5087999 0.32700846 0.4413038 0.44545624
0.46703428 0.3820553 0.304485 0.42727536 0.4289152 0.50356543 0.4576446 0.44005653
0.47335967 0.37026098 0.39169425 0.47511777 0.45773175 0.3177335 0.4796773 0.49862105
0.49644437 0.55670255 0.5152411 0.48282024 0.46175042 0.4637666 0.5263456 0.44283256
-0.30729857 0.3170732 0.30369464 -0.6982929 -0.83253396 -0.46389675 -0.06730552 0.8853548
00000000: b25e 9e3e d355 df3e 8d7b cb3e 8987 003f
00000010: b640 023f a76d a73e 92f2 e13e d712 e43e
00000020: 1e1f ef3e c19c c33e 75e5 9b3e d6c3 da3e
00000030: c69a db3e aae9 003f 6550 ea3e 174f e13e
00000040: 335c f23e d992 bd3e 268c c83e a342 f33e
00000050: d15b ea3e f7ad a23e 4398 f53e 424b ff3e
00000060: f52d fe3e 0f84 0e3f d7e6 033f 3734 f73e
00000070: 8d6a ec3e d172 ed3e 96be 063f f3ba e23e
00000080: 3d56 9dbe 6b57 a23e dd7d 9b3e 53c3 32bf
00000090: f220 55bf e083 edbe 7ad7 89bd 9da6 623f

features.denseblock1.denselayer2.norm1.running_var f4 [40]
0.12243275 0.26489928 1.5020027 0.5109152 0.82510453 1.3861694 0.26004177 0.21081465
0.26430288 0.6328255 0.20410621 0.77907443 0.8689401 0.54393005 0.47015536 0.2689387
0.4218583 0.6501719 0.525761 0.5012873 0.99842733 1.1663547 0.49208114 0.3576942
0.5053205 0.5704768 0.3210873 0.3563102 0.3865002 0.2471739 0.6118503 1.1784432
0.9128113 1.9058369 1.1255666 1.0148497 1.0857552 1.5350087 0.79362684 1.5681733
00000000: 06be fa3d e1a0 873e a041 c03f 57cb 023f
00000010: 0d3a 533f 006e b13f 3224 853e ccdf 573e
00000020: b552 873e da00 223f 3801 513e 6c71 473f
00000030: dc72 5e3f 003f 0b3f 34b8 f03e 55b2 893e
00000040: d0fd d73e aa71 263f 4698 063f 5d54 003f
00000050: ef98 7f3f 1c4b 953f 0ff2 fb3e b223 b73e
00000060: af5c 013f c40a 123f 8e65 a43e 4a6e b63e
00000070: 5be3 c53e 281b 7d3e 39a2 1c3f 3ad7 963f
00000080: 00ae 693f 77f2 f33f 9112 903f 98e6 813f
00000090: 07fa 8a3f 2a7b c43f 212b 4b3f e7b9 c83f

features.denseblock1.denselayer2.conv1.weight f4 [32, 40, 1, 1]
0.182761 -0.12829363 -0.35644355 0.009029675 0.28546852 -0.102038674 -0.010116799 -0.09942728
-0.23013899 0.036965985 0.23642181 -0.21155132 0.17609055 0.08441578 -0.0011161204 -0.061281126
0.083869554 -0.027666552 0.25465393 0.052097324 0.12602367 0.08877898 -0.033334646 0.17569931
-0.12814727 -0.15072204 -0.1793246 0.26395836 0.17406572 -0.15076227 -0.26400864 0.06614878
-0.2047295 -0.36793235 -0.05703849 -0.2537629 0.35512137 0.04388986 -0.09638251 -0.34727386
-0.33144343 -0.151981 0.18827423 -0.016753362 0.5011091 0.3837592 0.13530242 -0.063487865
0.16984227 -0.20994034 -0.007242665 0.14568833 -0.025571816 0.022837734 -0.39645034 -0.21889912
-0.21561432 -0.09874625 -0.020227054 0.061840788 -0.00024793966 -0.06028361 0.23126751 -0.26153946
-0.024010448 0.12662585 0.18972951 -0.11556531 -0.18279177 -0.26784182 0.24785091 -0.19746944
0.25565767 0.25830048 0.10077961 0.50753814 -0.048520137 0.1304745 0.5132897 -0.1461935
-0.13717929 -0.02454421 -0.26292035 0.17820208 -0.08450272 -0.0982429 -0.06322694 0.0067301407
0.028411176 0.17109291 -0.013030383 -0.28779057 -0.23239437 -0.15839179 0.116304375 -0.16663012
-0.040087335 -0.21610618 0.10325718 0.046966746 -0.29532638 0.0052305236 0.47513732 0.119133234
-0.0058892495 -0.099154994 -0.05742194 0.04887304 -0.11130259 -0.16685049 0.09206188 0.07953057
0.014826649 0.04627112 0.059913915 -0.17746682 -0.01506399 0.14601412 0.012265049 -0.097752355
-0.45294634 -0.48615372 -0.1633102 0.13143775 0.13679767 -0.23830733 0.21107368 -0.09781179
-0.25308746 0.13867582 -0.27140325 0.14161703 0.35843626 -0.03786783 -0.45891464 0.13929582
0.52268356 -0.0059522763 0.44061685 0.12117055 -0.0020131713 0.011805374 -0.15926453 -0.062031057
-0.01857599 0.12064692 0.14548096 -0.023845082 -0.040325403 -0.13548997 0.009297806 0.19838591
-0.119299665 -0.3291903 -0.059750937 0.1276696 0.03362184 0.25259757 0.0011703882 0.1082924
-0.21905653 -0.3866331 -0.4034985 -0.78818315 -0.5214011 0.21107745 0.47591472 0.2777417
0.39065337 0.20508522 -0.00835245 -0.11001445 -0.09428079 0.2845681 0.1655225 -0.054809038
-0.19132487 0.10813436 -0.035121996 0.21503043 0.31008136 -0.2479611 0.11615759 0.082133815
0.08864743 0.16360295 -0.098995104 -0.34626538 -0.11417029 0.22973843 -0.33842736 0.2369837
-0.54070395 -0.13675642 -0.5405078 -0.05377057 0.079752125 0.1734955 0.06792099 -0.23769842
-0.03681505 -0.0654073 -0.0859297 -0.011412212 0.1298854 -0.084683575 0.11993161 0.13890901
-0.33187255 -0.030370113 0.08001444 0.17120458 -0.088806994 -0.12248096 0.37832785 0.06883499
-0.09366015 -0.063265 0.19243069 0.111848146 -0.12024836 -0.03620661 0.13371697 -0.34727967
0.5488353 -0.048273597 0.043952882 -0.052925296 0.12782358 -0.08673133 -0.035964895 0.015079139
0.31633508 0.08637088 -0.060997736 0.017393718 0.2810783 -0.05817435 0.1799566 0.29811633
-0.13514687 0.33874947 -0.012942804 0.07855527 0.14657152 -0.036398135 0.116032235 -0.14231135
-0.1304231 0.14411125 -0.36345786 -0.41184524 0.23025845 0.09365652 0.42760816 -0.1274116
00000000: b325 3b3e 685f 03be c57f b6be 34f1 133c
00000010: ee28 923e a7f9 d0bd eec0 25bc 88a0 cbbd
00000020: 8ea9 6bbe a569 173d 8f18 723e e9a0 58be
00000030: 1551 343e 2ee2 ac3d c94a 92ba eb01 7bbd
00000040: cdc3 ab3d f7a4 e2bc 0062 823e 0164 553d
00000050: 590c 013e c1d1 b53d e989 08bd 85ea 333e
00000060: 0a39 03be e156 1abe dea0 37be 8d25 873e
00000070: 493e 323e 6d61 1abe 242c 87be 0379 873d
00000080: 9ca4 51be a161 bcbe 31a1 69bd 36ed 81be
00000090: 78d2 b53e dbc5 333d 3264 c5bd e1cd b1be
000000a0: f4b2 a9be e8a0 1bbe f6ca 403e 593e 89bc
000000b0: b048 003f 167c c43e b88c 0a3e ed05 82bd
000000c0: 22eb 2d3e 9afa 56be e153 edbb 522f 153e
000000d0: fc7b d1bc 3316 bb3c 8afb cabe 1727 60be
000000e0: 00ca 5cbe 793b cabd 35b3 a5bc c44c 7d3d
000000f0: e6fd 81b9 f2eb 76bd 64d1 6c3e 80e8 85be
00000100: 8fb1 c4bc 35aa 013e 7448 423e 81ad ecbd
00000110: c42d 3bbe 9022 89be a1cc 7d3e 6e35 4abe
00000120: 90e5 823e f63f 843e 8a65 ce3d 05ee 013f
00000130: 0dbd 46bd 1b9b 053e f466 033f c0b3 15be
00000140: ba78 0cbe f010 c9bc 7f9d 86be 9b7a 363e
00000150: c30f adbd 9333 c9bd 207d 81bd 8388 dc3b
00000160: 8ebe e83c fb32 2f3e 637d 55bc 4959 93be
00000170: caf8 6dbe 7531 22be fd30 ee3d 16a1 2abe
00000180: 9e32 24bd f04a 5dbe 8078 d33d 3460 403d
00000190: 0535 97be d064 ab3b 3345 f33e 20fc f33d
000001a0: 9bfa c0bb c611 cbbd 4533 6bbd 192f 483d
000001b0: 9df2 e3bd dbda 2abe f08a bc3d ece0 a23d
000001c0: 79eb 723c c986 3d3d 4b68 753d ddb9 35be
000001d0: f4ce 76bc ba84 153e 58f3 483c 6332 c8bd
000001e0: 95e8 e7be 24e9 f8be ca3a 27be 9e97 063e
000001f0: b014 0c3e d606 74be b323 583e 8c51 c8bd
00000200: ae94 81be 0901 0e3e 5ef5 8abe 0e04 113e
00000210: f584 b73e 4c1b 1bbd dcf6 eabe 90a3 0e3e
00000220: 97ce 053f 500b c3bb 8898 e13e 4428 f83d
00000230: 69ef 03bb 546b 413c 3e16 23be 4714 7ebd
00000240: ad2c 98bc bb15 f73d f6f8 143e c356 c3bc
00000250: 402c 25bd e2bd 0abe d355 183c ad25 4b3e
00000260: 6253 f4bd a28b a8be 66bd 74bd d2bb 023e
00000270: 0eb7 093d 7854 813e b667 993a 68c8 dd3d
00000280: 5b50 60be c6f4 c5be 5b97 cebe 5fc6 49bf
00000290: 8b7a 05bf b024 583e 18ab f33e 2934 8e3e
000002a0: b803 c83e dc01 523e b7d8 08bc 424f e1bd
000002b0: 4916 c1bd e9b2 913e bb7e 293e 717f 60bd
000002c0: abea 43be 8c75 dd3d 15dc 0fbd f030 5c3e
000002d0: fcc2 9e3e 84e9 7dbe 08e4 ed3d c635 a83d
000002e0: c98c b53d 8887 273e f2bd cabd b249 b1be
000002f0: 1dd2 e9bd 8d40 6b3e 5a46 adbe dbab 723e
00000300: 936b 0abf e009 0cbe b85e 0abf 873e 5cbd
00000310: 1555 a33d cea8 313e 291a 8b3d 3767 73be
00000320: 61cb 16bd 43f4 85bd e9fb afbd 49fa 3abc
00000330: ae00 053e 956e adbd b49e f53d 2a3e 0e3e
00000340: 33eb a9be beca f8bc 9cde a33d 4150 2f3e
00000350: 71e0 b5bd 4cd7 fabd 30b4 c13e 5cf9 8c3d
00000360: e5d0 bfbd 1591 81bd 8d0c 453e a410 e53d
00000370: c644 f6bd 624d 14bd 1aed 083e a4ce b1be
00000380: 7880 0c3f 89ba 45bd f007 343d 32c8 58bd
00000390: 2fe4 023e 32a0 b1bd ed4f 13bd 7e0e 773c
000003a0: acf6 a13e 37e3 b03d c3d8 79bd 457d 8e3c
000003b0: 7fe9 8f3e 3a48 6ebd 8b46 383e b4a2 983e
000003c0: f163 0abe 9270 ad3e 0e0e 54bc 96e1 a03d
000003d0: d816 163e 3616 15bd 4fa2 ed3d 11ba 11be
000003e0: a28d 05be e691 133e 2617 babe 61dd d2be
000003f0: dfc8 6b3e fdce bf3d 75ef da3e 3078 02be

features.denseblock1.denselayer2.norm2.weight f4 [32]
1.0781707 0.99145293 0.98886985 0.99108344 0.98543185 0.966474 0.9847972 0.987193
1.0104591 0.9848452 1.0025319 1.0261012 0.9625626 0.99149615 0.9916943 1.0052426
1.0249411 1.0042636 1.0204961 1.0262481 1.0368931 0.9874898 1.0220141 0.97432816
1.0123312 1.0400347 0.9679826 0.9606999 0.97711474 1.007509 0.983118 1.0025047
00000000: 7f01 8a3f dccf 7d3f 9326 7d3f a5b7 7d3f
00000010: 4345 7c3f d76a 773f ab1b 7c3f aeb8 7c3f
00000020: b956 813f d11e 7c3f f752 803f 4957 833f
00000030: 816a 763f b1d2 7d3f addf 7d3f caab 803f
00000040: 4531 833f b68b 803f 9e9f 823f 195c 833f
00000050: eab8 843f 22cc 7c3f 5cd1 823f 926d 793f
00000060: 1294 813f db1f 853f b5cd 773f 6ef0 753f
00000070: 3124 7a3f 0ef6 803f 9fad 7b3f 1352 803f

features.denseblock1.denselayer2.norm2.bias f4 [32]
0.031907193 -0.042015653 -0.014898989 -0.026900606 -0.024509653 -0.0453094 0.08497453 -0.0036328714
0.012335564 -0.029598646 0.010039273 0.058953363 -0.05955452 -0.0046517774 0.037179045 -0.024936048
0.07071886 0.013866343 0.023058161 0.04495684 0.02883241 0.010328512 -0.0043871757 1.500571e-05
0.026461016 -0.013436251 -0.032209516 -0.0022733405 -0.007856036 0.012848111 -0.018901005 0.003908806
00000000: 1eb1 023d 9b18 2cbd e41a 74bc a95e dcbc
00000010: 78c8 c8bc 5996 39bd 2007 ae3d 7815 6ebb
00000020: 1b1b 4a3c dc78 f2bc c37b 243c 1579 713d
00000030: 71ef 73bd f06d 98bb 0e49 183d af46 ccbc
00000040: 0dd5 903d a82f 633c 78e4 bc3c aa24 383d
00000050: f231 ec3c eb38 293c 4cc2 8fbb 09c1 7b37
00000060: c6c4 d83c b923 5cbc 20ee 03bd 53fc 14bb
00000070: 9ab6 00bc e280 523c 48d6 9abc 7115 803b

features.denseblock1.denselayer2.norm2.running_mean f4 [32]
-0.31365684 0.30417353 -0.30303496 -0.010048507 -0.49052465 0.57047176 -0.07970833 0.26486406
-0.28585568 -0.65772104 -0.55839884 0.3880738 0.91302055 0.6389593 -0.3766279 0.7546885
-0.40436125 -0.46968865 0.26944035 -0.016041977 -0.023946999 0.7989991 0.21294196 0.8422165
-0.77475965 -0.29850554 0.5680375 -0.0354294 0.14142236 0.43008485 -0.65782803 -0.124997504
00000000: a197 a0be a2bc 9b3e 6627 9bbe 7ea2 24bc
00000010: 0c26 fbbe 700a 123f 1f3e a3bd 439c 873e
00000020: ad5b 92be 6860 28bf 3af3 0ebf 9cb1 c63e
00000030: b7bb 693f d692 233f 5fd5 c0be 4433 413f
00000040: 7008 cfbe 087b f0be 16f4 893e 776a 83bc
00000050: 7f2c c4bc 348b 4c3f 750d 5a3e 809b 573f
00000060: a656 46bf b8d5 98be e86a 113f 6b1e 11bd
00000070: 06d1 103e 1534 dc3e 6b67 28bf b1fe ffbd

features.denseblock1.denselayer2.norm2.running_var f4 [32]
0.4733674 0.7522511 0.79845893 1.231933 1.727829 0.6474056 1.0134315 1.6215096
0.40326497 3.6817954 1.3204565 0.4417742 1.6365416 2.5080743 2.1123097 1.3273723
0.71579474 2.7541146 0.48660287 0.60109043 0.3960187 0.8122817 0.33101574 1.4644889
2.3272965 0.8108035 1.1395103 1.8094232 0.8421079 3.437121 1.3226902 0.80509734
00000000: 365d f23e 8793 403f ce67 4c3f fbaf 9d3f
00000010: 8029 dd3f 60bc 253f 20b8 813f a08d cf3f
00000020: bf78 ce3e 89a2 6b40 b804 a93f 3a30 e23e
00000030: 327a d13f 4a84 2040 1530 0740 56e7 a93f
00000040: 533e 373f 6a43 3040 0324 f93e 10e1 193f
00000050: f7c2 ca3e b2f1 4f3f e57a a93e 5f74 bb3f
00000060: 6df2 1440 d190 4f3f 79db 913f 2e9b e73f
00000070: 6294 573f caf9 5b40 ea4d a93f dc1a 4e3f

features.denseblock1.denselayer2.conv2.weight f4 [8, 32, 3, 3]
0.016789865 0.019455317 -0.044647854 0.117263116 0.05656696 -0.074096106 0.18657614 -0.0102596
-0.06558402 0.12780954 -0.082573555 0.014962209 -0.022029916 0.104975045 0.037689835 -0.086494766
-0.067128606 0.10270572 -0.01561622 -0.034479327 0.028183836 0.0109053105 -0.14532268 -0.015688024
0.065401986 -0.08866302 -0.0050492296 0.014347716 -0.038519353 -0.106614955 -0.0056640916 -0.06299655
-0.0032893314 0.2232946 0.041272487 -0.018327173 -0.21232674 0.070969366 -0.024118925 0.25061622
-0.006522476 -0.02228002 -0.045920372 0.0005263874 -0.12871023 0.009865996 0.1453328 -0.00031972336
-0.026674042 0.066714615 0.037175752 0.055737242 0.030359492 0.25112626 -0.038095247 -0.08264209
0.03600187 -0.052723825 -0.01242543 -0.026371269 -0.0028233358 -0.039798263 0.032102015 0.010248334
0.022051027 0.053290673 -0.06824974 -0.03993458 0.050645046 0.092557624 0.11570648 -0.0005916176
0.03611421 0.03994254 0.07678023 0.039281305 -0.04800548 -0.033623736 -0.04048795 -0.1441382
0.06314736 0.04754356 0.011709668 -0.04962002 0.22999355 0.03886194 -0.035297524 0.04648543
0.17717731 0.048047453 0.017110994 0.096427724 0.19206049 0.12296176 0.097089626 -0.16891359
-0.011085154 0.052733406 0.07609968 0.038423255 -0.029497925 -0.061876167 0.11631207 0.13731402
0.057207886 -0.15597117 -0.1078436 0.0074867844 -0.059234418 0.023346644 -0.12491464 0.060299676
-0.067327246 -1.7695706e-05 -0.044569932 -0.025136158 -0.018161282 -0.15048295 0.0364315 0.039105862
-0.04704795 -0.034879424 -0.064421915 -0.035167437 -0.000111701745 0.085327365 -0.07075852 -0.09870054
-0.0030484472 -0.09869385 0.09892797 0.13089837 -0.11366479 0.08991607 -0.16668624 -0.02345425
-0.07185317 -0.029213404 0.044477858 -0.21131097 0.13580555 0.06973365 0.083755754 0.055172928
-0.21852995 -0.00914284 -0.033208232 -0.028398508 -0.14411873 0.102095895 0.019954484 0.02879918
-0.026601706 0.006446143 0.00072104984 0.104214184 0.013766103 -0.011025966 -0.100016475 0.20875604
0.021400953 0.10244622 -0.19095233 0.18612349 0.12333947 0.059244137 0.01545601 0.120308556
-0.15218878 -0.2779811 0.08491384 -0.06522738 0.011543961 0.02174608 -0.102756985 0.12091651
0.0780846 0.025752729 -0.034717146 0.12779272 0.06596004 -0.012472982 -0.13140643 -0.020483874
0.07210443 -0.0028072929 -0.06236777 0.057269707 0.037133593 -0.041957077 0.033255916 -0.03900045
-0.09263718 -0.0072446195 -0.085364245 -0.081396505 0.0018755727 0.30695271 0.0095423 0.020051802
-0.012750357 -0.00724873 -0.0017508696 0.032322954 -0.0102958875 -0.0057350337 0.0029770338 0.026224805
-0.06121327 -0.0053333915 -0.04354807 -0.015219894 0.008484595 0.040332057 -0.042687386 0.082852714
-0.08555484 -0.1856219 -0.022769066 0.038101856 -0.017406752 -0.0022008677 0.1160841 -0.015358422
0.051169977 -0.012300465 0.06798584 0.004169252 -0.17089218 0.025759775 -0.093973 -0.1310995
-0.027484478 -0.08733755 0.051588703 0.04160863 0.070529036 -0.051988866 -0.03485726 -0.074006684
0.07928645 0.13097692 -0.17321163 0.0025310598 0.046496358 0.062399928 -0.10154976 0.022714896
-0.0016875442 0.046614934 -0.013400077 -0.08477409 0.042833935 -0.15683252 0.1805793 0.016498486
00000000: e68a 893c c260 9f3c abe0 36bd a527 f03d
00000010: c2b2 673d b3bf 97bd d10d 3f3e e217 28bc
00000020: ea50 86bd 81e0 023e 531c a9bd 0e24 753c
00000030: 1578 b4bc 28fd d63d a860 1a3d 2b24 b1bd
00000040: b97a 89bd 6057 d23d 2ddb 7fbc 323a 0dbd
00000050: cae1 e63c 30ac 323c 78cf 14be 2c84 80bc
00000060: 7af1 853d f594 b5bd 0274 a5bb af12 6b3c
00000070: 78c6 1dbd f158 dabd d899 b9bb 5604 81bd
00000080: d391 57bb 57a7 643e 570d 293d de22 96bc
00000090: 2e6c 59be 6358 913d 0d95 c5bc c550 803e
000000a0: 7fba d5bb 9784 b6bc 0017 3cbd 43fd 093a
000000b0: 9dcc 03be fda4 213c 1fd2 143e 8ba0 a7b9
000000c0: 8583 dabc aca1 883d 9a45 183d bc4c 643d
000000d0: 78b4 f83c 9f93 803e c309 1cbd 4240 a9bd
000000e0: b276 133d f0f4 57bd 0894 4bbc 8f08 d8bc
000000f0: b707 39bb 8103 23bd 677d 033d a1e8 273c
00000100: 5ba4 b43c 5247 5a3d 85c6 8bbd 7192 23bd
00000110: 2e71 4f3d da8e bd3d 85f7 ec3d c916 1bba
00000120: 7eec 133d ca9a 233d f43e 9d3d 6fe5 203d
00000130: 65a1 44bd 0bb9 09bd b1d6 25bd f798 13be
00000140: 6753 813d 09bd 423d e8d9 3f3c 5d3e 4bbd
00000150: 6e83 6b3e b32d 1f3d 2394 10bd 8267 3e3d
00000160: f86d 353e 68cd 443d 5b2c 8c3c e67b c53d
00000170: 81ab 443e 60d3 fb3d edd6 c63d aff7 2cbe
00000180: 819e 35bc fcfe 573d 26da 9b3d b461 1d3d
00000190: a2a5 f1bc dd71 7dbd 0635 ee3d 0c9c 0c3e
000001a0: d152 6a3d e8b6 1fbe 1bdd dcbd b353 f53b
000001b0: ca9f 72bd 7641 bf3c 3fd3 ffbd cbfc 763d
000001c0: dee2 89bd 3d71 94b7 f68e 36bd 58ea cdbc
000001d0: f8c6 94bc 3418 1abe 3239 153d 782d 203d
000001e0: 5ab5 40bd badd 0ebd a3ef 83bd bb0b 10bd
000001f0: 6b41 eab8 1dc0 ae3d d8e9 90bd 8223 cabd
00000200: 75c8 47bb 0020 cabd bf9a ca3d 390a 063e
00000210: 16c9 e8bd eb25 b83d ccaf 2abe 2123 c0bc
00000220: c127 93bd f350 efbc 6a2e 363d e761 58be
00000230: 9c10 0b3e 84d0 8e3d 2388 ab3d 02fd 613d
00000240: 51c6 5fbe dacb 15bc 5b05 08bd fda3 e8bc
00000250: dc93 13be a717 d13d 9677 a33c 42ec eb3c
00000260: d2eb d9bc 2b3a d33b d604 3d3a 3f6e d53d
00000270: 398b 613c 41a6 34bc 70d5 ccbd 25c4 553e
00000280: 0d51 af3c 53cf d13d 0289 43be 2897 3e3e
00000290: 6799 fc3d fba9 723d 343b 7d3c 5564 f63d
000002a0: 60d7 1bbe 8a53 8ebe 4fe7 ad3d ef95 85bd
000002b0: e222 3d3c d624 b23c 4172 d2bd 13a3 f73d
000002c0: d2ea 9f3d 63f7 d23c 9133 0ebd 18dc 023e
000002d0: 0f16 873d 7a5b 4cbc 688f 06be cccd a7bc
000002e0: 7dab 933d 8ffa 37bb 5975 7fbd a493 6a3d
000002f0: 6519 183d 2fdb 2bbd 5b37 083d f0be 1fbd
00000300: 90b8 bdbd 4664 edbb 73d3 aebd 36b3 a6bd
00000310: c7d5 f53a e828 9d3e 4f57 1c3c ad43 a43c
00000320: e0e6 50bc c186 edbb 6f7d e5ba 1365 043d
00000330: 15b0 28bc f3ec bbbb 571a 433b 67d5 d63c
00000340: c4ba 7abd bbc3 aebb 765f 32bd dd5c 79bc
00000350: f902 0b3c 3a33 253d f8d8 2ebd afae a93d
00000360: 6037 afbd ab13 3ebe 3186 babc b110 1c3d
00000370: 9b98 8ebc 6f3c 10bb 80bd ed3d e4a1 7bbc
00000380: 9c97 513d e487 49bc 293c 8b3d 389e 883b
00000390: 5cfe 2ebe 2a06 d33c eb74 c0bd f33e 06be
000003a0: 2127 e1bc 08de b2bd ad4e 533d d06d 2a3d
000003b0: 8771 903d 47f2 54bd 7cc6 0ebd d190 97bd
000003c0: ef60 a23d d01e 063e 645e 31be 23e0 253b
000003d0: f772 3e3d 1197 7f3d 52f9 cfbd 9714 ba3c
000003e0: 9630 ddba 4def 3e3d ff8b 5bbc 0a9e adbd
000003f0: a372 2f3d b498 20be c8e9 383e d527 873c

features.denseblock1.denselayer3.norm1.weight f4 [48]
1.0753247 0.96394396 0.99367684 0.9879882 0.96492654 0.9844251 0.9783554 1.006719
1.0205071 0.9708825 0.980655 0.9798529 1.0223813 0.96095055 0.9682606 0.98293746
1.007211 1.0221119 0.98923355 0.9543415 1.0413386 1.0548947 0.9763266 0.97986114
0.9808329 0.97434705 0.9945316 1.0022571 0.98050904 1.011438 0.9821543 1.0332056
1.0099583 1.0063552 1.0304596 0.9939107 1.0305808 0.97665876 1.0103636 1.0418077
0.9911176 1.026503 0.9825626 1.0284033 1.0163227 1.0026567 1.0061123 0.9959814
00000000: 3da4 893f 08c5 763f 9b61 7e3f cbec 7c3f
00000010: 6d05 773f 4903 7c3f 8075 7a3f 2bdc 803f
00000020: fa9f 823f c18b 783f 350c 7b3f a4d7 7a3f
00000030: 64dd 823f db00 763f eddf 773f caa1 7b3f
00000040: 4aec 803f 90d4 823f 693e 7d3f b94f 743f
00000050: 954a 853f ca06 873f 8af0 793f 2ed8 7a3f
00000060: dd17 7b3f cf6e 793f 9f99 7e3f f649 803f
00000070: a402 7b3f cd76 813f 776e 7b3f 1540 843f
00000080: 5046 813f 3fd0 803f 1ae6 833f ee70 7e3f
00000090: 12ea 833f 4f06 7a3f 9853 813f f459 853f
000000a0: e2b9 7d3f 7364 833f 3989 7b3f b8a2 833f
000000b0: dd16 823f 0e57 803f 4ac8 803f a3f8 7e3f

features.denseblock1.denselayer3.norm1.bias f4 [48]
0.063772075 -0.034503516 -0.048852693 0.0035610362 -0.0064477697 -0.00035128806 -0.0088627 0.047337182
0.005893402 0.0032427 -0.009263856 0.038742717 0.09464638 0.007352245 -0.017266616 -0.017267877
-0.037846535 0.03934048 0.026944743 -0.008090058 0.022080356 0.102758065 0.008447766 0.0033596358
-0.031470414 0.024006607 0.024873143 0.04172148 -0.020146288 0.012102944 0.005189542 0.06646319
0.06849969 -0.0040577967 0.018754657 0.002281866 -0.0023147643 -0.025212513 0.0092593795 0.042595234
0.0037326831 -0.05389759 0.031616997 0.023031255 0.041614342 -0.021570701 0.112035155 0.021575233
00000000: ef9a 823d 8f53 0dbd c319 48bd 4660 693b
00000010: d047 d3bb 162d b8b9 dc34 11bc a2e4 413d
00000020: 701d c13b 7a83 543b 6ec7 17bc afb0 1e3d
00000030: f6d5 c13d 1aeb f03b b872 8dbc 5d75 8dbc
00000040: f804 1bbd 7c23 213d 39bb dc3c 2a8c 04bc
00000050: dde1 b43c d272 d23d 8068 0a3c 562d 5c3b
00000060: 1fe7 00bd 81a9 c43c c3c2 cb3c 25e4 2a3d
00000070: d409 a5bc 6d4b 463c 090d aa3b da1d 883d
00000080: 9149 8c3d 44f7 84bb 5ea3 993c 5c8b 153b
00000090: 4db3 17bb 798a cebc a7b4 173c 5778 2e3d
000000a0: 08a0 743b b8c3 5cbd d380 013d 0bac bc3c
000000b0: cd73 2a3d 0ab5 b0bc b072 e53d 8bbe b03c
