saved_models/model_InceptionV1.pth (torch, 756576 bytes, 68 tensors)

conv1.weight f4 [32, 1, 3, 3]
00000000: 341a 93be 206f 643c 2033 18bd 7815 2fbe
00000010: e459 e33d 0521 853e a082 07bc 56ba bcbd
00000020: e0ac a1be 3e1d d2bd 02cc 4e3e 853c 663e
00000030: c6a0 91bd 8c4e dbbd cfae 633e f3dd 8d3e
00000040: 8fce 9c3e 0ba9 e03d a521 52be e220 26be
00000050: c8ba 603e 4c70 f0bd 40dc 543e 07fa 103d
00000060: c907 903d a037 753e 4f93 44bd 6262 223e
00000070: 49a5 233e e15b 1d3e 9461 2ebe 2660 263e
00000080: 040c 72be 4eba 0cbe f97e a73e 6495 863e
00000090: 0eba 5cbd ec9a b0bd 7fee a0be 4374 953e
000000a0: 9b49 6fbd 6d33 90bd 6e63 e5bd e9ba 0c3e
000000b0: 2a5f e83d e0cf 8abd 947e a8be ff51 47be
000000c0: 4184 e03d 1d45 20be 7a8a b73c b1bc 99be
000000d0: 836a a3bd de0c 5bbe 7ce5 56be a16b d23d
000000e0: 2437 7a3d b02e cbbb f389 c43d b161 5b3e
000000f0: 90f7 e6bd a296 2a3e 628c 8ebd 5042 ae3c
00000100: 54ef 8abe 9c2a a3be 30e0 cbbc d802 36be
00000110: 2666 d6bd 77b6 973e b807 7fbd d6d8 a1be
00000120: 6e4f d83d 60f2 a53e 3c10 3bbe b0f6 6a3e
00000130: 0d3b 883e 7e76 0e3d cb17 2c3e deec 44bd
00000140: 06c8 a7be 725a 44bc ff29 82be ba05 913e
00000150: 9a80 1a3e 1af0 973e 0bcb 33be 83d9 b63d
00000160: ef00 183e eb25 233d 8fd0 1abd 855b f0ba
00000170: 9d58 8e3d a643 8ebe b2e3 823d 4898 95bd
00000180: e044 06be f407 4d3d 2dba 943e 8bb2 163e
00000190: 0d00 7ebd 0e4a 31be d007 903e 2c9e fe3b
000001a0: 790d a33c 6966 5cbd ca6a 4abe d122 48be
000001b0: b725 403d 09de 74be ad9a 123e 67f5 46be
000001c0: 7ac6 1ebd 71e2 77bd e787 38be e1ae 913e
000001d0: 9f2a a23d bc2c debd db06 55be a0a3 223e
000001e0: b3b5 973e 2400 d63d fc9c 86bd ffc3 90be
000001f0: b0b0 d6bd 33b9 90bc 17ec 9b3e 7cad 0abe
00000200: dd11 9d3e ed45 2fbd 69c2 1bbe 2213 a6be
00000210: eab3 01be cac3 31be f51c 8cbe 1cbc c2bd
00000220: f475 ad3d 93b3 7dbe 2028 27bd 2035 50bd
00000230: 005d c2ba a087 20be 0b41 21be 92d1 9abe
00000240: d3e4 7a3e 3321 83be efc8 473e 205a 5bbe
00000250: ec10 a03e 80d6 16be 100c ea3d b194 48be
00000260: 94ad 5c3e 408f 5e3e 0be5 7a3d 6778 9a3e
00000270: d052 46be 86b5 db3d 862b 683d 14c7 403e
00000280: 46bd 6ebe e66c 9b3d b6d1 93be 002b 55bc
00000290: 7628 6abe 3230 723e de21 a2be 00f8 74be
000002a0: e8d4 58bd a302 4fbe 9f9e 873e 8cb9 a33e
000002b0: 8477 8bbd 3c21 12be afc7 58bd b170 1b3e
000002c0: 1498 5abd adba 8d3e 44d4 9d3d 4d86 36bd
000002d0: a41d 3b3e 4b09 40bd 1538 e33d 6c69 153e
000002e0: 6315 c8bd 4556 793d 12ce f53d d961 463e
000002f0: 3d3e 993e 1cb8 fbbd 16f6 59be 8910 8e3e
00000300: 370a 81be 060a 94be 00cd 36be 7566 973e
00000310: d29d 4e3e 8007 00be 9cbd ce3d 3a96 503e
00000320: 2630 eabd 1522 9f3e 0661 6fbe 1355 9bbe
00000330: 4eb9 60be 49e7 a83e c425 88bd 111c e3bd
00000340: 54a7 ab3e eadf 273e 62e1 71bd 0431 363e
00000350: 77bf 3ebe f3fc 3abe d312 a33d 84c5 81be
00000360: 917b 463c a9e6 963d 0fab 48be e24e 493e
00000370: b702 973e bd94 0bbc 6d09 16be 5f60 aabe
00000380: 856f 863e f8af 703d 1a33 863e 669b c93d
00000390: 88c8 6e3d ad0d 2bbe 2a95 7e3c 4e0f 8e3e
000003a0: 2a35 97be 41ca 01be c8ec 543d 086c 6cbd
000003b0: ee15 5b3e e04f 65bd a36f 03be 5068 22be
000003c0: c068 1c3d 3640 2d3e 003f a73a f33b 613e
000003d0: 21f1 9d3e 684e 40be 02f2 933e 09f2 883e
000003e0: 528b 9b3a d47f 753e 0a08 763e 2f40 8a3d
000003f0: 39dd dfbd 2ea0 9b3d 57cb 1f3e 12ac 723e
-0.2873093 0.01394251 -0.03715813 -0.17098033 0.1110113 0.26001754 -0.0082708895 -0.09215228
-0.31577206 -0.10259484 0.2019501 0.22484024 -0.07110743 -0.10708341 0.22234653 0.27708396
0.30626342 0.109697424 -0.20520647 -0.16223481 0.21946251 -0.11740169 0.20787144 0.035394695
0.07032735 0.23947 -0.047992047 0.15857843 0.1598102 0.1536708 -0.1702941 0.16247615
-0.23637396 -0.13742945 0.3271406 0.2628585 -0.053888373 -0.08623299 -0.31431958 0.29190263
-0.058419805 -0.07041059 -0.11200605 0.13743176 0.11346276 -0.0677793 -0.3290907 -0.19464873
0.109627254 -0.15651365 0.022404898 -0.30026773 -0.079793 -0.21391627 -0.20985979 0.10274435
0.061087742 -0.006200634 0.09596624 0.21423985 -0.112776875 0.16659024 -0.0696037 0.021271855
-0.27135718 -0.31868446 -0.024887174 -0.17774522 -0.10468702 0.29631397 -0.06226322 -0.31610745
0.10562025 0.3241148 -0.18267912 0.22945666 0.26607552 0.03478097 0.16805951 -0.048077457
-0.32769793 -0.0119844545 -0.25422665 0.28324682 0.1508812 0.2967537 -0.17557923 0.08928206
0.14844106 0.039831083 -0.037796553 -0.0018337822 0.069504954 -0.27785987 0.06391086 -0.07304436
-0.13112211 0.050056413 0.2904829 0.14716546 -0.062011767 -0.17313406 0.2813096 0.0077703204
0.019903885 -0.053808603 -0.197673 -0.19544531 0.046910968 -0.23912825 0.14316817 -0.19429551
-0.0387635 -0.060518686 -0.18020593 0.28453735 0.079182856 -0.10848376 -0.20803396 0.1588273
0.29630813 0.104492456 -0.06572911 -0.28274533 -0.10482919 -0.017666435 0.3045356 -0.13542742
0.3067769 -0.042791296 -0.1521088 -0.32436472 -0.12666288 -0.17359844 -0.27365842 -0.09508535
0.084697634 -0.24775533 -0.04080975 -0.050831914 -0.0014828742 -0.15676737 -0.15747468 -0.30238014
0.24501352 -0.25611266 0.19510244 -0.21421099 0.3126291 -0.14730263 0.11428082 -0.19587971
0.2155059 0.21734333 0.06125359 0.30169985 -0.19367528 0.10727982 0.056682132 0.18825942
-0.2331439 0.0758913 -0.28870934 -0.01301074 -0.22866997 0.23651198 -0.31666464 -0.2392273
-0.05293742 -0.2021585 0.26488206 0.319775 -0.06809905 -0.1427049 -0.052924808 0.15179707
-0.05336769 0.27681485 0.07706502 -0.044561673 0.18273026 -0.046883862 0.11094681 0.14590997
-0.09769704 0.06087329 0.120021954 0.19373263 0.29930297 -0.122909755 -0.2128528 0.2774699
-0.25203106 -0.28913897 -0.17851639 0.29570356 0.20177391 -0.12502861 0.10094759 0.20369807
-0.11434965 0.3108069 -0.23376855 -0.30338344 -0.21945688 0.32988957 -0.06647828 -0.110893376
0.335261 0.1639401 -0.059052832 0.17792135 -0.18627726 -0.18260555 0.07962575 -0.25346005
0.012114421 0.07368214 -0.19596504 0.19658998 0.2949426 -0.008519349 -0.14652033 -0.3327665
0.26256958 0.058761567 0.26210862 0.09844093 0.05829671 -0.16704436 0.015538493 0.27746052
-0.29532748 -0.1267481 0.051983625 -0.057720214 0.21395084 -0.055984378 -0.12835555 -0.15860105
0.038185835 0.16919026 0.0012759864 0.21995525 0.3084803 -0.1877991 0.28895575 0.26747158
0.0011867082 0.23974544 0.24026504 0.06750523 -0.10930867 0.07598911 0.15604912 0.23698452

conv1.bias f4 [32]
00000000: 469c 0ebe 1cdd a33d cbae 68bd c0ed 64be
00000010: 30c2 453e 6a92 113d 430a 38be 4b37 4bbe
00000020: b3d3 823d af69 09be 9dcd 1fbe aaa7 683e
00000030: e5fe 363e a982 87bc 12ee 2a3d f456 96be
00000040: fb2d d8bd 9584 28be a042 b0bd eb96 dfbd
00000050: cdff 4f3e ab28 64be 3c6a aabe d304 a33e
00000060: 3a07 703d 9b84 b9bd f862 06be dcb8 833e
00000070: 7ba4 143d 8308 3dbe e086 cebd 9979 18be
-0.13926801 0.08001158 -0.05680732 -0.2235632 0.19312358 0.035540022 -0.17972665 -0.19845311
0.06388035 -0.13419221 -0.15605779 0.22720209 0.17870672 -0.016541796 0.041730948 -0.29363215
-0.10555645 -0.16456826 -0.08606458 -0.10917457 0.20312424 -0.22281139 -0.33284175 0.31839618
0.05860064 -0.090584956 -0.13123691 0.25726974 0.036289673 -0.18460278 -0.10084319 -0.14890136

conv2.weight f4 [32, 32, 3, 3]
00000000: 4393 6f3d 90c5 05bc d457 20bd 60cd 58bc
00000010: 5814 99bc cd9e 433d 8c4d 4c3c 1adf 903c
00000020: 224d 62bd ebf8 74bd 86c7 59bd 7c54 3f3b
00000030: fe32 3abd 6ff9 0c3c 643c 113d 5565 6a3c
00000040: 6a2a 133d 565b 843c 462f 05bc 6c54 c8bb
00000050: 180a fbbc c22a 48bd e3ce e7bc e5c7 063d
00000060: 4671 293d ebb5 cfba a865 f8bc b0c6 2dba
00000070: 9140 94bb 7b2b 223c 2d5a d73c dc43 4cbd
00000080: e8ff 333d 19c4 52bd fd8c 363d a0b4 55bc
00000090: 40bd 4dbd 9920 d5bc c7f9 ef3a 2458 5bbd
000000a0: e17e 563d a06d d13b 24dc 0e3d 8956 94bb
000000b0: 1b2d 2e3c e9c3 2fbd 429b df3b 38d6 063d
000000c0: 27ee 2cbd 6130 21bd aef2 013c a2ce ef3c
000000d0: 92ce 43bc 9a1b febc 7df7 f7bc 1741 41bd
000000e0: 4d96 0d3c daf3 77bc 3ecf cb3c 23e2 43bc
000000f0: 5911 6a3d 303d 933c f725 98bb 0a02 d2bc
00000100: 45e1 4d3d 20c7 c63a 189b f73b 48f4 9b3b
00000110: 82e9 2ebd 8845 813b 2b5d 103d b199 393d
00000120: ee38 6abd f7f9 063c 2eaf 9abb 6b02 b5bc
00000130: 9ef1 b93c 4197 01bd 80f5 7ebc f222 533d
00000140: 569c 8ebc 0779 fc3c 0f64 1abd aa6a 023d
00000150: 2d0a 6cbb a174 6cbd d478 11bd df97 b23b
00000160: 6bfc 2b3d 4fcd 703d ec16 533c 1695 253d
00000170: 6b8c 60bd f6c1 fe3c 1f6a 573d 3e4b b0bc
00000180: 11d9 8b3b 50f3 5e3d 2c80 41bd ef95 ad3c
00000190: b07d 5a3d 21d4 143b 2f58 4b3d 7347 093d
000001a0: ab26 8ebc fbcf b73c a295 5c3d de00 4dbb
000001b0: 3cdc e1bc 5ad5 ae3c 9ca8 5ebd 749e e7bb
000001c0: 317a 3d3d 2d3a 6e3d 1093 3bba 9358 b0bc
000001d0: 6421 62bc b775 3d3d d070 c4bc 664e dcbc
000001e0: 72fd 8e3c c434 c3bc 878c 60bd c463 1a3c
000001f0: 7cab 1fbc 389a fe3b 9f35 beba a9d7 d13c
00000200: bf00 2cbd 962c a0bc ddec 83bc fb1e 9ebc
00000210: 94e7 f03b abf0 fc3b 0702 2b3d 91a5 35bd
00000220: 4e48 58bd 88a6 1abd 8e9d 4ebd b31c 263d
00000230: d066 8cbc e0da 23bb cb69 38bd a731 623d
00000240: 714f ea3a 80dc 273d 6d07 f03c 0587 2f3d
00000250: cc0c 6f3d a967 6abb c0da 173d 9001 e9bc
00000260: 042f b9bc 44b5 b7bb a2c3 5fbd 5165 f7bc
00000270: 0348 0fbc 1a26 98bc 7ff2 2abd b870 713c
00000280: af33 d7bb 7b29 3a3d 07c8 0c3d d849 1cbc
00000290: 98f9 e53b 7837 fdbc 0787 033d 84c1 33bd
000002a0: 639e 473d 8075 033a 60e8 2abb 0428 9c3b
000002b0: 4bf7 3bbd 51d3 ea3b b52c 91bc 9662 143c
000002c0: 2dc7 80bc b0ab c03c f322 9dbc 5fb3 2f3d
000002d0: c479 4bbc f69c 68bb f541 213d d1c3 fcbb
000002e0: f847 bbbc a473 60bc e1d3 183d 1226 64bd
000002f0: 5e31 4d3d e6f9 c03c a049 acbc b924 343d
00000300: 0368 46bd acba 26bc 5ed5 f83c 8ab9 873c
00000310: a226 03bd b7d1 54bd 7e75 873c 0a5e b83c
00000320: b238 923c 8860 d13b 30d7 23bd c447 13bc
00000330: 40ce 253a 3df8 023d 1d20 543d df96 ee3b
00000340: 3750 563d 9c55 97bc 1c58 c8bb f82a 543d
00000350: 6815 073d 3f97 d53b 6d35 943a b2cb f13b
00000360: 36c4 373d 5206 183d b3fa 19bd c1c8 04bd
00000370: dec0 eb3c bc58 60ba e2f4 29bb a4fa 6ebd
00000380: 4e8c cfbc 2b4c 43bd 3a7e 56bd f675 4fbc
00000390: c7da 40bd ed6f 123d eae3 a6bb b51a 5bbc
000003a0: 5fa4 3f3d abf3 5b3d b66e 1abd b9fa 0a3d
000003b0: ae4a 50bd 4f75 263d 12df 1fbd 1c7e 093c
000003c0: 10b2 bfbc dc23 54bc 5edf b8bc ecd4 f43c
000003d0: d5e9 023d ad74 293d a778 01bd a233 303b
000003e0: b3a8 2abd 4fdd 53bd 1d33 5fbd 8042 22bd
000003f0: 861e ffbc c59e 333d f41c b73c aed0 48bd
0.05849005 -0.008164778 -0.03914626 -0.013232559 -0.018686458 0.047758866 0.0124696605 0.017684508
-0.05524934 -0.0598077 -0.053168796 0.0029194644 -0.045458786 0.0086043915 0.035457984 0.014306386
0.03592912 0.016156834 -0.008128947 -0.0061135795 -0.030644462 -0.048868902 -0.028296893 0.032905478
0.04136779 -0.0015847062 -0.030321911 -0.0006629033 -0.0045242985 0.009898062 0.026288116 -0.049869403
0.043945223 -0.051456545 0.04456805 -0.013043553 -0.05022931 -0.02601652 0.0018308692 -0.053550854
0.052367095 0.006391242 0.03487791 -0.0045269174 0.010630871 -0.042911444 0.006823928 0.03291914
-0.042219307 -0.03935278 0.0079313945 0.029273335 -0.011951106 -0.03101902 -0.030269379 -0.047181215
0.0086417915 -0.015133822 0.024879094 -0.011955771 0.05714545 0.017973512 -0.0046431976 -0.025635738
0.050263662 0.0015165545 0.0075563304 0.004759345 -0.04270316 0.0039450563 0.035245102 0.045312587
-0.0571832 0.008238307 -0.00472059 -0.02209588 0.02269822 -0.031638388 -0.015561461 0.051547
-0.017408531 0.03081943 -0.03769308 0.031840004 -0.0036016807 -0.057728413 -0.03551562 0.0054502334
0.04198877 0.058789548 0.012883883 0.040425383 -0.054821413 0.031098347 0.05259144 -0.021520253
0.0042678197 0.05443126 -0.047241375 0.021189658 0.05334252 0.0022709446 0.049644645 0.033515405
-0.017352423 0.02243804 0.05385364 -0.0031281034 -0.027570836 0.021341968 -0.054360017 -0.0070684496
0.04625911 0.05816095 -0.0007155398 -0.02152661 -0.013801906 0.04625484 -0.023979574 -0.026892852
0.017454837 -0.023828872 -0.054821517 0.0094232 -0.009745475 0.007769849 -0.001451183 0.02561553
-0.0419929 -0.01955251 -0.016104156 -0.019301882 0.007351825 0.0077191195 0.04174998 -0.04434735
-0.05280333 -0.037756473 -0.050443225 0.040554713 -0.017138869 -0.0025002286 -0.045022767 0.055223133
0.0017876459 0.04098177 0.029300416 0.042853374 0.058361813 -0.0035767353 0.03707385 -0.028443128
-0.022605427 -0.0056063253 -0.05462993 -0.030199679 -0.008745196 -0.018572856 -0.04173517 0.014736347
-0.0065674405 0.045449715 0.03437045 -0.00953909 0.0070182793 -0.030910239 0.032111194 -0.043885723
0.048735034 0.0005014762 -0.0026078448 0.0047655124 -0.045890134 0.007166304 -0.017721513 0.009056708
-0.015719974 0.023519367 -0.019181704 0.04289567 -0.012419168 -0.0035493947 0.039369542 -0.007713773
-0.022861466 -0.013699446 0.03731144 -0.05570037 0.05009591 0.02355666 -0.0210312 0.043980334
-0.048439037 -0.010176342 0.030375179 0.016567964 -0.032019265 -0.051957812 0.016535517 0.022505779
0.0178493 0.0063896812 -0.04000014 -0.008989278 0.0006324984 0.03197502 0.051788438 0.007281169
0.052322593 -0.018473439 -0.006114019 0.05179879 0.0329794 0.006518274 0.0011307426 0.0073790187
0.044864856 0.037115403 -0.0375926 -0.032418016 0.02877849 -0.00085581443 -0.0025933315 -0.0583445
-0.025335457 -0.04768006 -0.052366473 -0.012662401 -0.047083642 0.035751272 -0.0050930874 -0.013373067
0.046787616 0.053699177 -0.03770324 0.033930514 -0.05085247 0.040639218 -0.039031096 0.008391883
-0.023400337 -0.012948003 -0.022567447 0.029886685 0.03196128 0.041371036 -0.031609204 0.0026886244
-0.04166479 -0.05172473 -0.054492105 -0.0396142 -0.031142484 0.043852586 0.022352673 -0.049027137

conv2.bias f4 [32]
00000000: b25b a63b 10ae 50bd afb2 cc3c bb5a 053d
00000010: aa65 1dbd 8294 dd3c 0509 74bd d715 743c
00000020: 5597 8cbc cdb7 653d 4645 193d 766f 5b3d
00000030: 8b2c 06bd bc82 043d 8b55 0b3d 3e4c d5bc
00000040: 1adb 623d 8ea8 033d 3fd8 f2bb 1851 653c
00000050: 64fe c63b 4d77 95ba 09f3 48bd 5d96 5a3c
00000060: 7290 e03c 8f12 7f3c 9e77 823c edb8 40bd
00000070: e58c 023d d264 0bbd d6e7 f0bc 87b2 5fbd
0.005076849 -0.05094725 0.024987547 0.03255723 -0.038427033 0.027048353 -0.059578914 0.014897785
-0.017162004 0.05608349 0.03741958 0.053573094 -0.032757323 0.03235124 0.034017127 -0.026037332
0.055384733 0.03214317 -0.0074110324 0.013996385 0.006072806 -0.0011403352 -0.0490599 0.013341513
0.027412627 0.01556839 0.015926179 -0.04705136 0.03187265 -0.034031697 -0.029407423 -0.054613616

conv3.weight f4 [64, 32, 3, 3]
00000000: a9e9 4c3d 2db8 223c c26d 26bd ed49 8dbb
00000010: be40 5fbd 09a4 5b3d b21f 05bc 8b3d dc3c
00000020: 16ec 2b3c 8940 1d3d 46fa 29bd e917 5f3d
00000030: 5859 bb3b 0606 8cbc 5ab5 973c 34ad 57bc
00000040: 8603 8d3c 0f33 70bd 8b38 15bd 0166 203d
00000050: bf14 563c 7b4d 663d c029 02ba a6d3 2b3b
00000060: 66fd e8ba 5b07 453d 2100 2d3d 28d0 06bd
00000070: a49e 9abc 5aa8 4dbd dfe0 273d a220 893c
00000080: 3b95 4abd ef6e 3bbd 4fef 4fbd d81e b33b
00000090: 2dd4 f1bc e32f 1fbd 91b5 133d d8ee 64bc
000000a0: 5785 56bd f043 bbbb f0f6 64bd 1764 3c3d
000000b0: 9e4a 84bc 0cfe 323d 269b 6ebd 1274 33bd
000000c0: d328 fc3c 5751 33bd 1ab4 393d 347d 043d
000000d0: 7b99 60bd 3079 613c 9f8d 5cbc df80 503d
000000e0: d860 81b6 a3f6 603c fcdc 1f3d 59a1 2a3d
000000f0: c0b2 6ebd b5a6 37bd 1c4e 803c a24e d4bc
00000100: 7f5e 393d 6c1c ae3c 5e7c d6bc 30b0 8d3b
00000110: d185 663d 8691 603c 7019 653d e31e b6bb
00000120: b9a2 b0bb d70c 52bd 4fde b8bb 91a5 263d
00000130: 7520 cebb f703 213d 7f30 ed3b dee0 11bd
00000140: 5a93 9a3c 99c0 e9bc d674 343d b331 d43c
00000150: 865a 0ebd 01b6 a13c 0978 d33c b4af efbc
00000160: de57 49bd 7022 2bbd 341e 343d 5b08 1fbc
00000170: bc33 263d 3a23 f3bb 47b5 233d 883b d1bc
00000180: b7a0 c9bc 726b 37bd 8621 8bbc 6511 163d
00000190: bbb8 52bd d4da 023d 2198 02bd 9aaf 9d3c
000001a0: d2d4 4fbc 4ff0 533d bef4 8fbc d595 253d
000001b0: 345f e8bc 87d0 583d 6c4b 6dbd 6fa7 3dbd
000001c0: 15ea 4d3d e678 6c3d a240 e9bc 20fc 333c
000001d0: 8f33 6fbd ab55 623d cef8 21bd 2743 34bc
000001e0: 1488 5a3c 147e 4a3d 29e0 053c 2f93 a4bb
000001f0: c249 973c 79a9 16bb 0ae0 f13c 9740 3f3d
00000200: 31db 28bd 94ec 0e3c 9d06 54bd 3867 44bd
00000210: b739 4d3d f5f1 f0bc 34d2 7d3c 3489 42bc
00000220: 006f ea3a 83f7 123d a854 c43b 03e2 163d
00000230: 91c9 f2bc 30f7 34bc 66e8 8abc fcd2 83bc
00000240: 2dc4 423d 07bd 2ebd 09ba c53b 8da8 1e3d
00000250: a79a 33bd 2414 c13c a3d2 923c d7f0 703c
00000260: 13fb 36bd d299 6bbd a6a9 133d 61e8 01bd
00000270: 417e 32bc 6cb5 893b 1917 df3c 4202 f63c
00000280: 6a9a 203b dc28 643c a82e ca3c e3e5 203d
00000290: 8132 343d 0aad 45bd 6ee4 fd3c 085b 4bbc
000002a0: ab3d 163d ef6b 1c3d 6d2d 24bd 257a 79bc
000002b0: 0bb7 443d f99a 55bd 3c50 7bbc 78f8 3bbd
000002c0: 1efd 15bd 8d4b 983c c763 cd3c 2bf3 523d
000002d0: d672 cfbc ddae f3bc 63cc 293d b4c2 bbbc
000002e0: 24a3 18bd e67d 42bc d103 2a3d 15d8 853b
000002f0: d38a a93c 4ef2 e63c 6b85 37bd 88aa 5b3c
00000300: cb64 003c 5ecb 213d 15e6 6ebd 6ca5 61bd
00000310: 802c e9bc 9528 38bd 358c debc cf43 5a3d
00000320: bbaa 56bc 06cd 083d c1a2 fa3c 5f25 0abd
00000330: 300a 56bc b45d 59bd d0f6 b63c f2ca ec3c
00000340: 4d57 6a3d d47e 32bd fb51 733c a35a 823c
00000350: a34b 573d b289 1dbd b0ef 883c e95f fdbc
00000360: 6d10 d43c 2814 11bc dff2 65bd 7782 08bd
00000370: f0f9 2e3c 4480 03bd 0528 17bd 5e57 d83b
00000380: 6639 e03c f373 ed3c 095d 203b 7ec1 183d
00000390: 3dca 9abc 596a 55bd a235 3f3d 1958 98ba
000003a0: ad8a 443d 18ac d2bc 3634 45bd a9ae 173d
000003b0: 424b bc3c 2ec6 b63c 78d8 b03b 32d0 893c
000003c0: f487 07bd 9a17 9bbc 8a8d b4bc ceda ff3c
000003d0: 4ccd debc bc53 d2bc 83b2 6fbd 9806 e1bc
000003e0: af75 513d a68e f83c f3f4 5dbd 92b8 42bd
000003f0: 43b4 c5bc 095c e63c 364e abbc d716 b43a
0.050027523 0.009931606 -0.040632017 -0.004311791 -0.054505102 0.053623233 -0.0081252325 0.026884815
0.010493299 0.038391624 -0.041498445 0.054466162 0.0057174377 -0.017092716 0.018519092 -0.013163853
0.017213594 -0.058642443 -0.036430877 0.03915978 0.01306647 0.056226235 -0.00049653277 0.0026218682
-0.0017775714 0.048102718 0.04223645 -0.032913357 -0.018874474 -0.05020938 0.04098594 0.016739193
-0.049458724 -0.04576009 -0.05076533 0.0054663233 -0.029520119 -0.038864028 0.036061827 -0.01397296
-0.052373257 -0.005714886 -0.05589956 0.04599389 -0.016148861 0.04369931 -0.05825343 -0.043811865
0.030781185 -0.043778744 0.045337774 0.032345966 -0.05483387 0.0137618035 -0.0134614995 0.05090415
-3.8557737e-06 0.013730678 0.039029106 0.04165778 -0.058275938 -0.04483672 0.015662245 -0.025916401
0.045256134 0.021253787 -0.02618235 0.0043239817 0.05627996 0.0137065705 0.055932462 -0.005557881
-0.005390492 -0.051281776 -0.0056417356 0.04068524 -0.0062904903 0.03931042 0.007238447 -0.03561484
0.01886909 -0.02853422 0.044056736 0.025902605 -0.0347543 0.019740107 0.025814073 -0.029258586
-0.049156062 -0.04178089 0.043974116 -0.009706582 0.04057668 -0.007419971 0.0399678 -0.025541082
-0.024612768 -0.044780202 -0.016983759 0.036637682 -0.051445704 0.031946972 -0.031883363 0.019248772
-0.012685018 0.051742848 -0.017572757 0.040426094 -0.028365709 0.052933242 -0.057933256 -0.046302255
0.050272066 0.057732485 -0.028473202 0.010985404 -0.05839878 0.05525748 -0.03954392 -0.0110023385
0.013338108 0.049436644 0.00817112 -0.0050224285 0.018467788 -0.0022989197 0.029525775 0.046692457
-0.041224662 0.008723397 -0.05176412 -0.04795 0.05010387 -0.02941225 0.015492011 -0.011873532
0.0017885864 0.035880577 0.005991537 0.036836635 -0.02963713 -0.011045262 -0.01695652 -0.016091816
0.04755037 -0.04266074 0.00603414 0.03873496 -0.04384866 0.023569174 0.017922705 0.014705858
-0.044673037 -0.05751974 0.03605046 -0.031715754 -0.010894359 0.0042025354 0.027232694 0.030030373
0.00245061 0.013925757 0.02468045 0.039281737 0.043993477 -0.048260726 0.030992713 -0.01241184
0.036679905 0.03818887 -0.040082384 -0.015226875 0.048026126 -0.052149747 -0.015338954 -0.045891255
-0.036618344 0.018590713 0.025071992 0.051501434 -0.025323313 -0.029746467 0.041454684 -0.02291999
-0.037264958 -0.011870837 0.041507546 0.004084597 0.02069608 0.028191712 -0.04480497 0.013407357
0.007836531 0.039500587 -0.058324892 -0.0550894 -0.028463602 -0.044960577 -0.027166465 0.053287324
-0.013102229 0.03339865 0.030595185 -0.033727046 -0.013063952 -0.053067878 0.022334486 0.028905366
0.057212163 -0.043577984 0.014851089 0.01591236 0.052562367 -0.038461395 0.016715854 -0.030929523
0.025886739 -0.008854903 -0.056139823 -0.033327546 0.010679707 -0.032104746 -0.0369034 0.006602212
0.02737112 0.028985953 0.0024469516 0.037293904 -0.018895263 -0.052103374 0.046682008 -0.0011622935
0.047983814 -0.025716826 -0.048145495 0.037031803 0.022985104 0.022311296 0.005396899 0.016822908
-0.03308864 -0.018932153 -0.022040147 0.031232264 -0.027197503 -0.025674693 -0.05851985 -0.027468964
0.051137622 0.030341458 -0.05418868 -0.0475393 -0.024133807 0.028120058 -0.020911317 0.0013739717

conv3.bias f4 [64]
00000000: f61c d23c 7095 08bd 4769 af3b 2b33 653d
00000010: 10a0 d93c 43ae f0bc d23a 853c bf8b d23c
00000020: edc3 10bd da36 d53d c839 23bd 8d63 8e3b
00000030: f3f7 3ebd 9731 c93c 51ee 33bd 4857 4fbd
00000040: 9e18 5ebc 3f3a 343d f748 26bc e249 b8bc
00000050: 8291 9f3a aaa2 81bc 6a1b 2a3c db27 53bd
00000060: 17ab c1bc 3e87 3dbd f4b0 d63c dbe6 6d3c
00000070: 14c4 1d3d 7218 1dbd 59d2 0ebd 7ab7 e9bb
00000080: 33a0 c13c 31df 2abc 4a9b 36bc 253f d7bc
00000090: c159 bbbc e666 f3bc 1793 b13c 75b6 c93c
000000a0: 287d 0e3d 2178 6d3d 97f2 bfbb 6826 073d
000000b0: 3ecf b0bc 3726 f33c 0cc5 f13a d0f3 3a3c
000000c0: 5d31 45bd 36cc 243b a01e 293c 31b8 523d
000000d0: a5f0 31bd e325 7abc f4cd 52bc 4fa1 e3bc
000000e0: ae49 0638 8fba fa3c 71dc 423a d243 623d
000000f0: 9eb4 593d d7ed ae3d d98d 4e3c 9f67 4cbc
0.025648575 -0.03334564 0.005353126 0.055957 0.026565582 -0.02937997 0.0162634 0.025701402
-0.0353431 0.10410853 -0.039850026 0.0043453635 -0.04662318 0.02455978 -0.043928448 -0.050620347
-0.013555674 0.04400086 -0.010149232 -0.022496168 0.0012174102 -0.015824635 0.010382513 -0.05155168
-0.023641152 -0.046271555 0.026207425 0.014520372 0.038517073 -0.03835339 -0.034868572 -0.007132468
0.02363596 -0.01042919 -0.011145422 -0.026275227 -0.022869946 -0.029712152 0.021676583 0.024623135
0.034787327 0.057975892 -0.0058577764 0.03299561 -0.021583196 0.029681308 0.0018445565 0.0114106685
-0.04814278 0.0025146133 0.010322243 0.05144519 -0.043442387 -0.015267822 -0.012866486 -0.027786879
3.201671e-05 0.030606536 0.0007433361 0.05524046 0.053150766 0.08541458 0.012607061 -0.012475877

inception1.branch1.0.weight f4 [32, 64, 1, 1]
00000000: 9d12 2f3d 7b5b 23bd a95e c4bc 5454 b4bd
00000010: e13e e93c 0d3c f9bd 53f1 adbd d5e6 40bd
00000020: 9f23 713d 2b17 89bd 3aa8 de3d 3c4f 81bd
00000030: d44a ee3d 3222 0cbd ad7d a03c 16d6 97bb
00000040: 1863 94bc 874e 3c3d ef0b c6bd c8e3 5e3d
00000050: eec6 a6bd c16b 47bd bea1 1abc 96a5 903d
00000060: f46c 063d f89b e53c 402d 8b3b 8dfd b73d
00000070: 8769 c5bd cf50 62bc 609f a73d 569f 773d
00000080: 77c9 b1bd dee8 e53d 652d c23d 492c 1f3d
00000090: c841 5c3c 9883 a63d e4f4 a03d 6222 c03d
000000a0: af29 043c 4850 113d aaa6 99bb a002 d13d
000000b0: b235 8dbd 02ab a03d 7c57 c1bc a841 f43d
000000c0: 7b79 68bc a18e 6bbd 5e68 063c 2eea 913d
000000d0: 93f2 f43c 3b28 163d 79e9 583d 745f ba3c
000000e0: f417 afbd 52f9 f4bd 1cd5 84bc 0197 b43c
000000f0: b11a 92bc f6c7 97bd 7dd5 753d 7586 31bd
00000100: 77ae 1c3d 6533 9b3c cde5 ddbc 17de 95bd
00000110: 6ce3 1bbd f7c7 ad3d 1d91 da3d 5e58 733d
00000120: 11c6 b53d 0781 823d c0b4 cf3d 1ea9 4a3d
00000130: a060 393d 5cb4 c1bd 9f3e ba3d c35b c53d
00000140: 2db4 ca3d 6abc 003c 1aac ef3d 08fa 7e3d
00000150: f0f5 4d3c 6bf9 ddbd 23d5 86bd 4c5a f0bc
00000160: 493f 85bc f951 9a3d 15eb 6ebc 257c bc3d
00000170: 653f 443d 9448 7f3c 1a39 debd b721 83bd
00000180: 2f4a a7bd e806 8f3d 4436 f43d c7b0 95bc
00000190: 1c56 dfbd f022 2c3c 0514 413c 6327 fe3d
000001a0: 83b3 a13d 9370 e23d 8d7b c83d aa0e cb3d
000001b0: e9af a73c acce f03d e751 7f3d 0d51 f83d
000001c0: da56 da3d 1950 ac3d b7a7 b9bd 8dda 78bc
000001d0: 623d d8bd 2e1d a7bd 7cfd b03d 1187 d1bc
000001e0: 8410 6c3d d474 0abd 9b78 0bbd 0ea4 af3d
000001f0: a8fa f33d 1f79 d9bd 2065 b13d bc24 b5bd
00000200: dd86 12bd 4775 ffbd ca22 a73d 939f f9bd
00000210: 946c b2bd 1a01 0f3c 7709 b0bd d312 debd
00000220: 3c71 aa3d 7936 eabd b887 3e3d 78d1 a73d
00000230: 26fa f0bd b6d2 47bd b6aa cabd 0a03 88bc
00000240: 53d5 c2bc 3d69 81bd 9a3a 8bbd e076 18bc
00000250: b139 8c3d 7d73 2b3d c774 68bd 3359 2e3c
00000260: 62a3 953d e513 7b3d 221a 0c3e ceb8 8a3d
00000270: 1b6c fb3d b174 033d 1bd7 cdbd 355f 7c3d
00000280: 26f8 fa3d 3d8a 8cbd ac5a b0bd f97f 60bd
00000290: a485 63bb b486 393d 0ff7 f0bd 4b89 893d
000002a0: 0c4f 0e3d 3cea 97bd 0d4f b23c 9630 eb3d
000002b0: 8ff1 d5bd 7837 e43c a515 253c f4d3 cdbd
000002c0: daa6 a63c d50f e2bb 9df3 c23d 13f7 a53c
000002d0: d75d cdbb bd68 19bd f006 2cbd a604 d3bd
000002e0: 993d 9d3d bcec 85bd 5cc4 a63d e5da 2fbc
000002f0: f037 ad3c 7627 22bd 4031 b83d 7487 90bd
00000300: 37cd 6f3d 9bcd c73d 698b dfbd d1c9 91bc
00000310: 9491 d6b8 fd70 f93b 0e94 913d 7308 bebd
00000320: 5daa ddba 5a1b cd3d 88d0 863d c33f f23c
00000330: 3c47 40bd 3dc4 f93c 5946 723d 3bc9 9f3d
00000340: f916 cd3d d902 dc3d 9e90 083d 58e9 db3d
00000350: 24d6 7e3d 2e61 5f3d 70cd cc3c 5a85 2fbd
00000360: 87e0 8abd ac2e 42bd 6f76 69bc e95f e5bd
00000370: dc41 483d 857c 8dbd b65a 9cbc 4c3e 7d3d
00000380: c242 a13a 6e9d 803c 7666 40bd af98 ddb8
00000390: bf86 b3bd 368f e3bd 2fec d93d 8754 fc3d
000003a0: 6b79 223d b570 9ebd 8345 a5bd be13 e0bc
000003b0: 0e85 863d 557c e8bd 6b6b 8dbb bfce 203d
000003c0: aac7 64b8 2e74 94bd d2c1 f9bc 1cb1 87bd
000003d0: 6018 cc3d bba7 f0bd 86fc 22bd 3441 9d3d
000003e0: 7cc2 7d3d e940 97bc d41e 90bd 7267 56bd
000003f0: 64fb c6b8 bc2b 1cbd 91d5 b5bd 3d44 33bd
0.04274236 -0.039882164 -0.023970919 -0.08805147 0.028472366 -0.12169657 -0.084932946 -0.04709514
0.05887186 -0.06693872 0.108719304 -0.06313941 0.11635366 -0.0342123 0.019591177 -0.0046336753
-0.018113658 0.045973327 -0.09670245 0.054416448 -0.081434116 -0.048686747 -0.009437976 0.07062833
0.03281875 0.028028473 0.0042473376 0.08983908 -0.09639268 -0.013813212 0.08184695 0.06045469
-0.086810045 0.112260565 0.094813146 0.038860593 0.013443418 0.08130568 0.07859209 0.09381558
0.008066579 0.035476953 -0.0046890574 0.10205579 -0.06895007 0.07845117 -0.023601286 0.119265854
-0.014189119 -0.05750907 0.008203594 0.07124744 0.029900825 0.03665946 0.052957032 0.022750594
-0.085494906 -0.119616166 -0.0162149 0.02204466 -0.017834993 -0.074111864 0.06001805 -0.04334112
0.03825232 0.018945405 -0.027087117 -0.07317751 -0.038058683 0.08485406 0.106722094 0.059410445
0.08875669 0.06372266 0.10141897 0.04947769 0.045258164 -0.09458229 0.09093975 0.09636643
0.09897647 0.007857421 0.11702748 0.062250167 0.012570843 -0.10838588 -0.06583621 -0.029339932
-0.016265528 0.07535166 -0.014582415 0.09203366 0.04791202 0.015581269 -0.10850735 -0.06402915
-0.08168446 0.06983739 0.11924413 -0.01827277 -0.10905096 0.010506377 0.011784558 0.12409856
0.07895567 0.11056628 0.097891904 0.09914906 0.020469623 0.117581695 0.062333968 0.12124834
0.10661097 0.08413715 -0.09065192 -0.015188825 -0.10558583 -0.081598625 0.08642098 -0.0255771
0.057632938 -0.033802822 -0.034050565 0.08576213 0.11913043 -0.10618805 0.08661866 -0.08844897
-0.035773147 -0.12473541 0.08160932 -0.121886395 -0.08712116 0.00872829 -0.08595555 -0.10843434
0.08322379 -0.11436171 0.04651615 0.0819425 -0.11766462 -0.048784934 -0.09895842 -0.016603012
-0.023783362 -0.06318901 -0.06798287 -0.009305686 0.06846941 0.041858185 -0.056751993 0.010641384
0.073065534 0.06129827 0.13681844 0.0677353 0.12276479 0.032093707 -0.10050794 0.061614234
0.12254362 -0.06862304 -0.08611044 -0.054809544 -0.0034717107 0.04529448 -0.11765873 0.0671564
0.034743354 -0.074177235 0.02176621 0.114838764 -0.10446464 0.02785848 0.010075961 -0.100501925
0.020343233 -0.00689886 0.09519122 0.020259416 -0.00626729 -0.0374534 -0.041998804 -0.10303621
0.076777644 -0.06539294 0.08142921 -0.010733341 0.021144837 -0.039588414 0.08993769 -0.07057086
0.058545318 0.09756013 -0.10915262 -0.017796429 -0.00010231431 0.007612346 0.07108317 -0.09278955
-0.0016911734 0.100149825 0.06582743 0.02957142 -0.046942934 0.030489082 0.05914912 0.078020535
0.10014147 0.10742731 0.033341043 0.10737866 0.06221594 0.054536037 0.025000304 -0.042851783
-0.067811064 -0.04740779 -0.014249428 -0.11199934 0.048890933 -0.06908516 -0.019086223 0.06182699
0.001230322 0.015700068 -0.046972714 -0.00010566541 -0.08765935 -0.111113 0.106407516 0.1232081
0.039666574 -0.07736341 -0.08069899 -0.027353164 0.06568347 -0.113518395 -0.0043157837 0.03925967
-5.4545388e-05 -0.07248722 -0.030487929 -0.06625578 0.09965587 -0.11750742 -0.039791606 0.07678452
0.061953053 -0.018463569 -0.0703713 -0.052344747 -9.488201e-05 -0.038127646 -0.08878625 -0.04376625

inception1.branch1.0.bias f4 [32]
00000000: b85c e33d b29f a1bd d8d6 5ebc 5bb9 6f3c
00000010: 0ca9 823c de4d d0bd d6d4 d03d 8c24 8d3d
00000020: b4fc 3fbd 65c0 cbbd 6805 37bd c3b4 b9bc
00000030: 19a5 65bb 68b6 6ebc 88cb 27bd 99d3 3b3c
00000040: bca1 e73d 842b 463d f22c b5bd dc58 b03d
00000050: b278 adbd 460a 9f3d 18e4 a83d dff3 f6bd
00000060: 5813 b0bd ea22 be3d eef8 cbbd de4f d2bb
00000070: c918 b53c a822 b4bc 60d7 c13d 5e15 f3bb
0.11101669 -0.078917876 -0.013601027 0.0146315945 0.015949748 -0.10171102 0.10196845 0.068917364
-0.046871856 -0.09948806 -0.04468289 -0.022669202 -0.0035041033 -0.014569856 -0.040965587 0.011464023
0.11310145 0.048381343 -0.08846463 0.086106986 -0.084702864 0.077656314 0.082466304 -0.120582335
-0.085974395 0.09284003 -0.09959589 -0.0064182123 0.022106545 -0.021989182 0.09464908 -0.0074183187

inception1.branch1.1.weight f4 [32]
00000000: e0c3 7f3f aac5 7e3f 5f1e 813f fb92 7e3f
00000010: a2ec 7f3f 1006 803f 844c 803f 7049 7f3f
00000020: 057c 7f3f f8f4 7f3f a7b1 803f a61c 803f
00000030: a32c 7f3f afa5 7f3f b504 803f 7b20 803f
00000040: ccc1 7f3f a400 803f 5608 803f 5f68 803f
00000050: 2bc8 7f3f f45e 803f 58b9 7f3f ed42 803f
00000060: 0070 7f3f 6cd6 7e3f f1aa 7f3f 7a9b 7f3f
00000070: c3ab 803f 97ce 7f3f 773b 803f 67fc 7f3f
0.99908257 0.9952036 1.0087394 0.99443024 0.9997045 1.000185 1.0023351 0.9972143
0.99798614 0.9998317 1.0054215 1.0008743 0.99677485 0.9986219 1.0001436 1.0009912
0.99905086 1.0000196 1.0002544 1.0031852 0.9991481 1.0028977 0.9989219 1.0020424
0.99780273 0.9954593 0.9987021 0.99846613 1.0052418 0.99924606 1.0018147 0.9999451

inception1.branch1.1.bias f4 [32]
00000000: bad0 c53b a4cf 1a3b 92d0 70b8 4d6f fbba
00000010: 2ab9 2b3b b0a2 953b c336 003b eb7d c8ba
00000020: 84c7 99bb e7c0 ea39 1139 0039 9b03 a436
00000030: 88ee eeba f940 d3b9 452a 0c3a d104 edba
00000040: e3a6 f5ba 26c1 613b c4c2 a43a 5e03 bd3b
00000050: e3ff bd3a 1d7f df3b 20e1 baba 5f5d 443a
00000060: 14d7 baba 73f9 aebb c21d 833a 2cc1 39bb
00000070: 1432 593b 8c1e 2d37 93d4 c73b 9d07 5f3a
0.006036845 0.0023622299 -5.7414705e-05 -0.001918295 0.0026202896 0.004566513 0.001956389 -0.0015296316
-0.0046929736 0.0004477568 0.0001222829 4.8880006e-06 -0.0018229047 -0.00040293465 0.0005346875 -0.00180831
-0.0018741753 0.00344474 0.0012570252 0.0057682237 0.0014495816 0.006820573 -0.0014257766 0.000749072
-0.0014254772 -0.0053397953 0.0010003375 -0.00283439 0.003314142 1.0318716e-05 0.006098339 0.00085079094

inception1.branch1.1.running_mean f4 [32]
00000000: 395f a43d c6c0 f4bc 60b0 21bd 05b1 1fbc
00000010: 4d83 993d ceba aabd 67d1 8f3d a7aa a63d
00000020: 5d81 c2bd 128f cfbd c6a7 88bd 5638 09bd
00000030: c699 e73c f90b 7fbd 8643 3b39 bedd ae3b
00000040: ff6d 963d 4a14 ce3d 7f05 8abd aeac cc3d
00000050: ef86 d9bd 8065 623d 7df9 c23d cbe3 0fbe
00000060: 15bb 93bd 114f 743d 278a d3bd 7e61 bc3c
00000070: d627 d2bc cc66 c03c d07b 463d caf9 bc3c
0.08025975 -0.029877078 -0.039474845 -0.009746795 0.07495747 -0.083364114 0.07022362 0.08138018
-0.0949733 -0.1013471 -0.06672625 -0.03350099 0.028271567 -0.062267277 0.00017858864 0.0053364923
0.07345199 0.100624636 -0.067393295 0.099938735 -0.1062144 0.05527258 0.09520242 -0.1405174
-0.072134174 0.059645716 -0.10329085 0.022995707 -0.02565376 0.023486517 0.04845792 0.023068327

inception1.branch1.1.running_var f4 [32]
00000000: 94ba fe36 cc86 9b38 5451 e937 f2f6 d037
00000010: b480 ef38 930b 1039 63a1 e137 325e 0838
00000020: 961c 5638 9244 f637 6cd6 1c38 1c50 6d38
00000030: a085 1039 2938 5a38 5bd8 f638 4ab8 8938
00000040: 35e6 2c39 c05a 4439 709d c138 7059 f037
00000050: 2b14 6c37 f1ed d936 2525 b238 1eab f137
00000060: c1bb ae38 f334 5938 ce06 9736 eb07 e638
00000070: c15c d538 32fd e738 6cda f737 a05b 6338
7.5915104e-06 7.416084e-05 2.7813636e-05 2.4910525e-05 0.00011420381 0.00013737222 2.6897242e-05 3.2512653e-05
5.10482e-05 2.9357416e-05 3.7392994e-05 5.657981e-05 0.0001378269 5.2027553e-05 0.000117704934 6.5669956e-05
0.00016488957 0.00018725824 9.232282e-05 2.8651877e-05 1.4071392e-05 6.494804e-06 8.49462e-05 2.8809121e-05
8.3319384e-05 5.1786144e-05 4.500943e-06 0.000109687295 0.00010173908 0.000110621 2.9546405e-05 5.420635e-05

inception1.branch1.3.weight f4 [64, 32, 1, 1]
00000000: 5b44 ee3d 6437 dfbd 9094 1a3e c2f7 bb3d
00000010: 38c4 c2bd e24b cb3d 524a 58ba d21a 0f3e
00000020: 17a7 b3bd e273 293e dc3f 60bd da1e e93c
00000030: d1b0 8ebd e691 2a3e 7e0a bfbd 0693 84bd
00000040: 4be8 bb3d e61c 8a3d af21 4a3d 1e23 033c
00000050: e778 b1bd 3ef8 a8bd 0352 9d3c 6b2b 98bd
00000060: f228 4dbd 8e12 30be 13b8 10be c72a 8ebd
00000070: b6df 353d 8b4e 1e3d ceb5 babd 4ec9 1cbe
00000080: e3fa ea3d fc8e bc3d c731 0fbe f61b 21ba
00000090: 110f c0bd 8163 99bd 8257 503d 7ad9 72bd
000000a0: 0fb5 f93d d065 a43d 16d5 c93d 4a46 133e
000000b0: f1fe 053e 51c8 ee3d ce0d 01bd 6d59 183e
000000c0: fe95 dd3d dd7e 05be a1c2 f5bc 9777 c03d
000000d0: 137d a23c 0b10 9bbd 0ba5 92bc 9383 c0bc
000000e0: d248 153e 8879 123e 3798 ed3c 9aec 32be
000000f0: 7b08 f0bd c6c4 a93d 588f 16be ed0f 123e
00000100: df0f 8c3d fedf 083e c824 32be ec3f 1dbe
00000110: 2bf1 043e 0bd5 a73d d18a 963b b2b7 1f3e
00000120: 527f 30be b1a1 8b3d 18d9 e5bd 1345 273e
00000130: 3f27 12be de12 dabd fdca 193e 56a8 33ba
00000140: 9dbb 66bd d49c f83d 5821 943d 7974 14be
00000150: 9c70 1abe 3ab9 a5bd 8888 f7bd 16af ebbd
00000160: 2af8 2abd d2ec 0fbe 2dc5 28be d05c fe3d
00000170: 4d8f d4bd 1b5c d7bd 8026 183e e3cf 263e
00000180: 4e4d 82bd 5ad8 fd3d 166f 9b3d 96a1 2abe
00000190: 6946 fa3d 2b26 053e 7fdb 1bbe 4842 2f3d
000001a0: 1927 e2bd 3443 0fbe 4cee 153e 83fc 2ebe
000001b0: 8773 c4bc 5c78 0ebc 6eff 5e3c cf77 0e3e
000001c0: db93 a7bc e000 053e 6a7b 15be af6c dabd
000001d0: 4f3a 8ebd 295a e3bc 9483 2abe 84b9 2abe
000001e0: d431 723d a57c 26be 2fa5 24be e453 063d
000001f0: a072 213e cd40 d8bd 155c 2d3e 2c12 e63c
00000200: ff58 353e c5e6 353b 66c8 a23d 937e 98bd
00000210: 6750 eb3d 90fb 003e 824e 0fbd a684 943d
00000220: d547 853d 1709 adbd b08f f3bd a504 753d
00000230: f253 073e c166 3dbc a101 80bd ae53 eabd
00000240: 3206 3b3d d765 4f3d 24aa dd3d 10cf bd3d
00000250: 8340 a6bd a74b 2f3d 9042 9ebd 7b45 cf3d
00000260: 39d7 10bd 07f9 b93d 7fa1 f03d 2c51 0d3c
00000270: 0767 b8bd bb84 a73d 9501 d43d ccce 1abd
00000280: 4169 a1bd 0395 d2bd cd38 283e b515 27be
00000290: be07 333d 6aa2 2f3d d5ad 06be d195 053e
000002a0: 9790 c03d e7c3 c2bd 4587 793d e393 1cbe
000002b0: 6285 b0bc b8d1 eebc 7682 34bd 52dd 023e
000002c0: 3072 0a3e cb87 a13c a4fe c8bd d36a 9e3c
000002d0: d82a cebd 7f2c bbbd 2c3c 1dbe 7249 6dbd
000002e0: cb3d 0d3d 5f2b 903c 51b2 a8bd 109f 293e
000002f0: f82f 0b3e 9241 743d ad08 983d 97f8 913d
00000300: 672e fc3d 7c5d 383b b923 d13d 88ed fb3d
00000310: 986f a13d a02a f83d 355f 173e 18fb f93d
00000320: 84c2 bdbd 707b 31be e277 9cbd 8ddf 9a3b
00000330: d38a 00bd 71c9 313d e61a 73bc 28f4 f4bd
00000340: 8259 f83d e42e 143e dcdc 09be 415c e7bd
00000350: 74d0 e73d 7767 433d 5005 393c 2a11 183e
00000360: 26e4 67bd 8ad2 24be ea7d e13d acc0 0ebe
00000370: 9f6c cdbd f647 223e dbea 24be 8351 c23d
00000380: 4bee a1bb dccf 353e fd78 103e af3a e93c
00000390: 2954 a5bd df3e 32be 3265 72bd d311 44bb
000003a0: bdb7 1bbe 199a 2ebe 21a8 563d 9749 01be
000003b0: 91ec c2bc abfb 473d 6e1c 1cbe 4806 c8bd
000003c0: 39f0 f6bc 5f31 91bd 4337 e7bd 6b5e f6bd
000003d0: 7b80 1b3e f976 69bd ebac 993c 0390 043e
000003e0: a259 f4bd 0107 873d 4ad8 adb9 b56e 3fbc
000003f0: 2857 c4bd 373f fdbc 1f07 04be e71a 11be
0.116341315 -0.10899237 0.15095735 0.091781154 -0.09510082 0.09926583 -0.00082508207 0.13975075
-0.08772104 0.16548112 -0.0547484 0.028457094 -0.06967319 0.16657218 -0.09328173 -0.06473355
0.09175166 0.06743793 0.04934853 0.008003978 -0.086656384 -0.082504734 0.019204145 -0.07430156
-0.050087877 -0.17194578 -0.14132719 -0.06941753 0.0444028 0.038649123 -0.09116708 -0.15311167
0.11473634 0.092069596 -0.13983832 -0.0006145829 -0.09377874 -0.07489682 0.050864704 -0.059289433
0.12192737 0.08027232 0.09855096 0.14382282 0.13085534 0.11659301 -0.031507306 0.14877863
0.10819624 -0.13036676 -0.030000033 0.0939781 0.01983503 -0.07571419 -0.017900964 -0.02350024
0.1457856 0.14304173 0.029003246 -0.17473069 -0.117203675 0.08289485 -0.14703119 0.14263888
0.06838965 0.13366696 -0.17396843 -0.15356416 0.12982623 0.081949316 0.004594185 0.15597418
-0.17236069 0.068179496 -0.11223048 0.16334943 -0.14272784 -0.1064813 0.1501884 -0.0006853392
-0.056331266 0.121392876 0.07232922 -0.14497556 -0.1508202 -0.0809197 -0.12086588 -0.11508004
-0.041740574 -0.14055184 -0.16481467 0.12420046 -0.10378895 -0.105156146 0.14858437 0.1629024
-0.06362401 0.123947814 0.07589547 -0.16663203 0.12220461 0.13002841 -0.1522045 0.04278782
-0.110426135 -0.1399048 0.14641684 -0.17088513 -0.023980869 -0.008695688 0.013610704 0.13912891
-0.020456245 0.12988615 -0.1459786 -0.10665261 -0.06944715 -0.027752953 -0.16651756 -0.16672331
0.05912955 -0.16258486 -0.16078638 0.032794848 0.15766382 -0.10559235 0.16929658 0.028084837
0.1770973 0.0027755958 0.07948379 -0.07446017 0.11489945 0.12595963 -0.03498698 0.07251863
0.065078415 -0.084489994 -0.118926406 0.059818882 0.13215616 -0.011560143 -0.06250311 -0.11441742
0.045660205 0.05063423 0.108234674 0.0926801 -0.081177734 0.042796757 -0.077275395 0.10120674
-0.035361502 0.09080701 0.11749553 0.00862531 -0.09004026 0.08179613 0.10351864 -0.037794873
-0.07881404 -0.10282328 0.16427918 -0.16316874 0.043708555 0.0428795 -0.13152249 0.13045432
0.09402578 -0.09510022 0.06092002 -0.1529079 -0.021547977 -0.029152736 -0.04406973 0.1277974
0.13520122 0.019718071 -0.09814194 0.019338047 -0.100667655 -0.09139346 -0.15354985 -0.05793137
0.03448276 0.017598806 -0.08237136 0.16564584 0.13592517 0.059632845 0.0742353 0.07127493
0.12313538 0.0028131893 0.10211892 0.12301165 0.07882613 0.12117505 0.14782412 0.122060955
-0.092656165 -0.17332244 -0.07640053 0.0047263564 -0.031382393 0.043405 -0.014837956 -0.119606316
0.12126447 0.14471012 -0.13463157 -0.11296893 0.11319056 0.047706094 0.0112927705 0.14850298
-0.056614064 -0.1609594 0.11010344 -0.13940686 -0.100304835 0.15847763 -0.16105215 0.094882034
-0.004941737 0.17755073 0.14108653 0.028470365 -0.08072693 -0.17406796 -0.05917854 -0.002991785
-0.1520681 -0.17050971 0.052406434 -0.12625729 -0.023794444 0.048823994 -0.1524522 -0.09766823
-0.030143844 -0.07089495 -0.11289837 -0.120297275 0.1518573 -0.056998227 0.018759212 0.12945561
-0.119311586 0.06593133 -0.0003315828 -0.011684109 -0.09586936 -0.030913932 -0.12893341 -0.14170419

inception1.branch1.3.bias f4 [64]
00000000: 2404 16bd feff e83d 2c7b 293d 4a27 a73d
00000010: 782c 433d 388e f2bd bc64 323d ecc5 06bd
00000020: b4dc 943d 50f0 cb3c 20e3 d7bb f888 69bd
00000030: 44ca 2abd eccc 13be f851 09bd e855 18bd
00000040: 6582 b9bd 9112 babd d6aa b4bd 653a 1fbe
00000050: a8dc 783d ceb8 d63d 06e6 d73d 28e1 453d
00000060: 70cf 76bc 14ca 8f3d d05a 263d eae1 08be
00000070: c3f4 023e 93a6 093e 8071 52bb 9602 da3d
00000080: 4ef1 e63d db0d aabd 78e8 c7bc d6f8 b73d
00000090: 29a4 a4bd 30f6 b4bd 6604 19be 3064 fbbd
000000a0: f822 dfbc a49d 8f3d d062 733c 7e49 ec3d
000000b0: 5db7 2abe 5e72 9c3d 74a1 033d 000c 493c
000000c0: 54fa 1abe f8f5 e93c 8c06 31bd b6e4 b83d
000000d0: e84e 693d 40a8 1abd 7dcf 203e 30dd 9fbc
000000e0: c734 243e 823c e93d 1c6e 74bd ee21 c03d
000000f0: 7ede f43d 162a bc3d 8a2f b43d 60e0 633d
-0.036625043 0.11376952 0.04137723 0.08161791 0.04764983 -0.11843532 0.0435531 -0.032903597
0.07268658 0.024894863 -0.0065883547 -0.05701539 -0.0416968 -0.1443364 -0.033525437 -0.0371913
-0.09058074 -0.090855725 -0.08821647 -0.1554962 0.06075731 0.104844674 0.1054192 0.04831043
-0.015064105 0.07020965 0.04061395 -0.1336743 0.12788682 0.1344245 -0.0032111108 0.106450245
0.11276494 -0.08303424 -0.024402842 0.089830086 -0.080391236 -0.08836019 -0.14943084 -0.122749686
-0.027238354 0.070124894 0.014855102 0.11537455 -0.1667151 0.07639001 0.032136396 0.012270927
-0.15134555 0.02855967 -0.043219134 0.09027998 0.056960016 -0.037758112 0.1570415 -0.01951465
0.16035758 0.11388494 -0.05967532 0.093814716 0.119564995 0.09187715 0.0879813 0.055633903

inception1.branch1.4.weight f4 [64]
00000000: 5a02 803f 44ca 7f3f 4b04 803f 3dca 7f3f
00000010: d661 7f3f bdda 7f3f 76da 7f3f 0b52 803f
00000020: 5feb 7f3f 49ed 7f3f a9f6 7f3f f300 803f
00000030: 09ad 7f3f 4e38 803f 1021 803f b470 7f3f
00000040: 60e3 7f3f c35f 803f bcb6 7f3f 279b 7f3f
00000050: 800a 7f3f 4ef3 7f3f 0668 803f 84f6 7f3f
00000060: 62e2 7f3f 2419 803f 2981 7f3f 0391 7f3f
00000070: 2020 803f e40a 803f 7a5b 803f 1718 803f
00000080: 2ab3 7f3f 1e61 7f3f 8428 803f fe82 7f3f
00000090: 14ac 7f3f 2f69 7f3f 23bf 7f3f 2ded 7f3f
000000a0: e229 803f 759c 803f f567 803f 3409 803f
000000b0: 03a8 803f fb45 803f 92b1 7f3f 1015 803f
000000c0: 39df 7f3f bae2 7f3f 4cc5 7f3f 6c31 803f
000000d0: 67ab 7f3f e479 7f3f fba4 7f3f 2455 803f
000000e0: fddf 7f3f 1193 803f 61db 7f3f b411 803f
000000f0: 8410 803f cb20 7f3f c00f 803f aad0 7f3f
1.0000718 0.9991801 1.000131 0.99917966 0.9975866 0.99943143 0.9994272 1.0025038
0.9996852 0.99971443 0.9998575 1.000029 0.99873406 1.0017183 1.001009 0.99781346
0.9995632 1.0029224 0.99888206 0.9984612 0.99625397 0.9998063 1.0031745 0.9998553
0.9995481 1.0007672 0.9980646 0.99830645 1.0009804 1.0003324 1.0027916 1.0007352
0.9988276 0.99757564 1.0012364 0.99809253 0.99871945 0.9976987 0.99901026 0.99971277
1.0012782 1.0047747 1.0031725 1.0002809 1.0051273 1.0021356 0.99880326 1.0006428
0.99949986 0.9995533 0.99910426 1.0015082 0.99870914 0.99795365 0.99861115 1.0025983
0.99951154 1.0044881 0.9994412 1.0005403 1.000504 0.99659413 1.0004807 0.9992777

inception1.branch1.4.bias f4 [64]
00000000: 7dfa 99ba 6e94 30ba a9e5 b239 d8c5 dfb8
00000010: 01a4 0d3a 45d1 9238 3cb7 aab7 e28e fd3a
00000020: 3d6c a7ba 6a0a 95b8 7bd5 d739 8f93 16ba
00000030: 8c5b 26b9 27cc 8f3a 171c be3a 76f4 0bbb
00000040: cd7b aab8 767c 2c3a ca31 9039 b93f c5ba
00000050: 3978 9eba a008 a539 013e 273a fa4f b5b9
00000060: 3eb9 18b9 1455 323a 9f81 bfba 803b 74ba
00000070: 295b 023b 0eb9 4dba 1a5e e73a 778b 89b9
00000080: e946 9438 4147 e8ba eb9f 2cb9 cc34 0aba
00000090: 6038 3eba 5102 c4ba 39c8 0e39 bc38 12ba
000000a0: 27e7 a639 032d bb39 a439 3c3b 877f 1d3a
000000b0: 8efc e53a 529a de38 7320 a939 657b c83a
000000c0: 5236 c0b9 eac4 b5b9 a396 d4b9 5c03 8b3a
000000d0: e9e1 8eba 9760 3eb9 28d6 1cba e4b2 433a
000000e0: f873 3c3a 1fde 303b a5d0 d939 9b1a 173a
000000f0: 8fb6 d039 a8c6 1cba 27ef 083a 7524 8e3a
-0.0011747625 -0.0006735985 0.00034121916 -0.0001067032 0.00054031616 7.000802e-05 -2.0350904e-05 0.001934495
-0.0012773346 -7.1068134e-05 0.0004116705 -0.0005744034 -0.00015865098 0.0010970876 0.0014504221 -0.0021355427
-8.1292914e-05 0.00065798254 0.00027502916 -0.0015048898 -0.0012090273 0.0003147768 0.0006379784 -0.00034582597
-0.00014564858 0.0006802839 -0.0014610774 -0.00093167275 0.0019890761 -0.00078477047 0.0017651946 -0.00026234586
7.070398e-05 -0.0017721431 -0.00016462772 -0.00052721496 -0.00072563253 -0.0014954304 0.00013616764 -0.0005577912
0.0003183421 0.00035700956 0.002872088 0.0006008078 0.0017546581 0.00010614529 0.00032258368 0.0015295563
-0.00036661566 -0.00034669723 -0.00040548024 0.001060586 -0.0010901067 -0.00018155795 -0.00059828395 0.00074653164
0.00071889115 0.0026987863 0.00041544918 0.00057641574 0.00039808868 -0.000598053 0.0005223625 0.0010844605

inception1.branch1.4.running_mean f4 [64]
00000000: 3adc cabd 3b3d c43e 51be 9bbd f60d 9fbd
00000010: 1150 a23e e231 98bd 299e 1d3e 8e02 f5be
00000020: f34d 953d b71b ef3c b602 c33d ee8a 7ebe
00000030: e98c 1abe 853b dcbd 11df 80be bc26 04be
00000040: 1cb6 5fbe b8a8 d83c c179 1abd e7e0 80be
00000050: 9ce0 9c3e df81 183e 83a7 893e fe37 873d
00000060: 0bb1 23be 898a 6bbd d8f4 b03c 6498 963d
00000070: 0ad3 b6bd c3e6 113e cec3 093e 6f0c 2f3e
00000080: 430c c93d 7c84 b8bd d362 4c3e 5930 763e
00000090: 20c3 75be 4714 d7be 51ec dbbe 94cd 5ebe
000000a0: 8bee 963d f450 093e 9bf0 d53d c21d 9b3b
000000b0: a718 1b3b 047c f93c f227 883e abf3 b0be
000000c0: 40c3 0dbd bd37 0a3e ada3 bfbd d973 dabc
000000d0: 3502 5dbe fb6d e23d dd4f 67bd 1914 b43d
000000e0: f32d c23e aa9a 553d 5800 423e 130b cebd
000000f0: 5494 84bd 1a50 363e 5e6b ae3d 109e 43bc
-0.09905286 0.38327965 -0.07604659 -0.07766335 0.3170171 -0.074313894 0.15392365 -0.47853512
0.07290258 0.02918802 0.095220014 -0.24857685 -0.15092815 -0.1075354 -0.25170186 -0.12905401
-0.21846813 0.026447639 -0.03771377 -0.25171587 0.30640113 0.14893292 0.26885614 0.066024765
-0.15985505 -0.057505164 0.021601126 0.07353285 -0.08926971 0.14248185 0.134536 0.17094587
0.09816792 -0.090096444 0.19959573 0.2404188 -0.24000216 -0.42007658 -0.42953733 -0.2175811
0.07369717 0.13409787 0.104462825 0.004733772 0.0023665817 0.030454643 0.26592976 -0.34560904
-0.034610033 0.13497825 -0.093573906 -0.026666569 -0.21582873 0.11056133 -0.056472648 0.08792896
0.3792568 0.052149452 0.18945444 -0.10060706 -0.06473604 0.17803994 0.085165724 -0.0119395405

inception1.branch1.4.running_var f4 [64]
00000000: 3509 c83c 1622 853e 9d64 c23e e65d fe3c
00000010: 2e5b 133e 25bf b03c 94a7 993d 706f de3d
00000020: 6c43 5e3c 8b43 113e b4a5 1a3d 296e 4a3d
00000030: 9ecf 993d 3a89 073d 1f14 0e3d 4d25 6e3e
00000040: a659 0f3e b076 b13d 53c1 253e b101 e93c
00000050: 2682 0b3e 1680 bd3c 2a1f 073d 96d7 243d
00000060: 8182 c63d b73f e23d 7434 023d c50d 453d
00000070: 7aab 153e 258a 2d3d d03b 843c 36d1 f53c
00000080: 1e20 b43d a5a6 083e c406 643d 4d57 683d
00000090: e435 723d b607 a93d 6881 a13d f390 2b3e
000000a0: f924 6d3d a1af 1f3d a5ba 783d d2dd 8a3d
000000b0: 3b81 2c3d 7851 713d 7d2d 833d 09d2 aa3d
000000c0: fae8 563d 2283 f33e 52b5 ae3e d5c8 313d
000000d0: 5a55 853d 8d98 d53c 9f61 f83c 38a7 2c3e
000000e0: 08c4 1c3e 0b80 1d3d 480e 503e d757 2f3d
000000f0: 7570 123d 08fd 983c dfdb 2c3d d76d 4f3d
0.024418453 0.26002568 0.37967387 0.031050634 0.14390251 0.02157552 0.07502666 0.10861099
0.013565879 0.14185922 0.037755683 0.049421463 0.07510303 0.033089854 0.034687158 0.23256417
0.13999042 0.08665216 0.16187029 0.02844319 0.13623866 0.023132365 0.032988705 0.04024466
0.096928604 0.11047309 0.031788304 0.048108835 0.14616194 0.042368073 0.016141802 0.030006986
0.08795188 0.1334482 0.055670515 0.05672388 0.059133425 0.08253424 0.078860104 0.16754512
0.057896588 0.038985852 0.060724873 0.0678059 0.04211543 0.058915585 0.064051606 0.08340842
0.052468278 0.47560984 0.3412271 0.04340442 0.0651042 0.026073718 0.030319987 0.16860664
0.15309155 0.03845219 0.20317948 0.04280838 0.03575178 0.018675342 0.042201873 0.05064186
