saved_models/model_InceptionV1.pth (torch, 756576 bytes, 68 tensors)

conv1.weight f4 [32, 1, 3, 3]
000000 b3 46 a0 bd 40 ef 16 3d 66 e8 37 3e 73 37 03 3d
       -0.07825985 0.03684926 0.17959747 0.032035302
000010 8f 03 9e 3e 4c c3 1f bd 90 fb f0 bd ee 11 46 3e
       0.3086209 -0.03900461 -0.11766732 0.19342777
000020 48 d8 45 be 70 62 94 bd 16 7b b4 bd ba 85 46 3e
       -0.19320786 -0.07245338 -0.08812539 0.1938695
000030 98 31 7f be db 25 6a be 63 02 91 be c0 b4 47 be
       -0.24921262 -0.22866003 -0.28322133 -0.19502544
000040 60 0f 40 bd a8 4e 4e 3d 7b 3f 21 be 32 c8 69 bd
       -0.046889663 0.05036798 -0.15746872 -0.057075687
000050 7a 2f 5e 3e 75 19 8c bd b4 60 db 3a 86 42 3d be
       0.21697798 -0.06840793 0.0016737194 -0.18482408
000060 94 de 9d 3e b3 cd 7b 3e 2c 5c a9 3e 49 c9 01 3e
       0.30833876 0.24590187 0.33078134 0.1267444
000070 2e 9b 8e 3e 6c 02 85 3e a0 07 4e 3d 3c ec 21 3e
       0.27852768 0.2597841 0.05030024 0.15812773
000080 95 21 14 be 41 d4 ab be ab da 58 be 80 57 54 3e
       -0.14465936 -0.33560374 -0.21177165 0.20736504
000090 1f 4a ab bd d0 d3 4e be e5 a6 99 3e 21 d6 14 3e
       -0.08363747 -0.20197988 0.30010143 0.14534809
0000a0 0c d7 47 3e 51 79 89 3e 9f ed 8b 3e 25 4c 38 3e
       0.19515628 0.2685037 0.27329728 0.17997797
0000b0 52 e8 e2 3d 4c 2b 0e 3e d4 f2 57 be bb c3 33 3e
       0.11079468 0.13883704 -0.21088725 0.17555134
0000c0 04 67 a0 3d 1c 96 ac 3e df 9d a8 3d fe 3c eb 3d
       0.07832149 0.33708274 0.082332365 0.11486243
0000d0 46 b2 13 3c 3f 67 41 be ee 78 84 be 08 07 40 bd
       0.009014672 -0.18887042 -0.25873512 -0.046881706
0000e0 80 10 2c 3b 60 2c b0 3d 62 b7 90 be 36 42 42 be
       0.0026254952 0.08602214 -0.2826491 -0.1897057
0000f0 70 81 6a be d8 13 a6 be 00 38 94 bc 43 29 8a 3e
       -0.22900939 -0.32437015 -0.01809311 0.26984605
000100 c6 d7 ec bd b9 8c e7 bd c1 cb 84 bb 50 61 85 bd
       -0.11564593 -0.113061376 -0.0040526097 -0.065127015
000110 52 8e 26 bd 49 d8 92 be 54 f6 0a 3e a7 7a 83 3e
       -0.04066307 -0.28680637 0.13570529 0.25679514
000120 31 19 a6 be a3 7c db 3d 8d 6d de bd fe ee 4e bd
       -0.32441095 0.10717132 -0.10860739 -0.05052089
000130 08 a6 07 3e 9e 50 5d 3d e4 7a 08 be ae 0d a2 3e
       0.1324693 0.05403196 -0.13328129 0.31651062
000140 99 e1 d4 bd 28 c9 02 be dc 8c f4 3d 18 0c 24 bd
       -0.10394592 -0.12772048 0.11940929 -0.040050596
000150 cf 9a a8 be 76 3b 1c be 48 f4 14 3d d4 27 8e be
       -0.3293061 -0.15257058 0.036365777 -0.2776476
000160 06 e0 32 3e 84 7c be 3d e6 cb e8 3d 03 72 58 be
       0.1746827 0.09301093 0.113670155 -0.21137242
000170 40 09 5c 3b 84 1f 1d be ca 96 de bc 5f 4b 6d 3e
       0.003357485 -0.15344054 -0.027171511 0.23173283
000180 c3 2e 0d 3c d2 fb 82 be 26 d6 c3 bc 00 b1 05 be
       0.008617106 -0.2558275 -0.023905825 -0.13055801
000190 d1 20 d7 3c 83 33 76 3e b0 00 88 be 4f 2f e7 bd
       0.026260765 0.24043088 -0.26563025 -0.1128832
0001a0 ad cb 8a 3e 9c 76 db bd cf d3 dd bd e5 48 f8 3b
       0.27108517 -0.10715982 -0.10831415 0.007577049
0001b0 4e f9 96 be dd 71 84 3e 2f 28 84 3e 8f 57 88 be
       -0.2948708 0.2586812 0.25811908 -0.26629302
0001c0 7e 7d 71 be 9e b0 8e bd 57 d1 61 be 6e e0 70 3e
       -0.23583028 -0.06967281 -0.22052513 0.23523113
0001d0 bc 3c a6 3c 0b 1a 20 3d 80 0c 9c 3e 56 33 59 3e
       0.020292632 0.039087337 0.30478287 0.2121099
0001e0 33 b5 5d 3e a3 0d 5d 3d bc 82 dd 3c 80 cf 24 3c
       0.21651153 0.053968083 0.027039878 0.0100592375
0001f0 cd 26 73 be 4b a5 ce bd 2b f4 8f 3e 3d 85 0e 3e
       -0.2374527 -0.10090121 0.28115973 0.13918014
000200 d9 24 45 be 44 fb 3a be 60 d1 d1 3c f7 f6 a2 3d
       -0.19252338 -0.18259913 0.025612533 0.07957261
000210 e4 dc 97 be d2 be 7b bd 93 f8 21 3e 77 58 23 3e
       -0.29660714 -0.061461277 0.1581748 0.15951715
000220 58 1d 20 3c cf db ca 3c 1a d8 70 be c2 9d 0e 3e
       0.009772621 0.024763016 -0.23519936 0.13927367
000230 bc 8a d7 3d 67 27 fa bc 21 e4 a5 3e d1 33 99 3c
       0.10524508 -0.030536367 0.3240061 0.018701466
000240 fc 60 68 3e 44 e1 e4 bd f6 1d 8b be a1 47 c2 bc
       0.22693247 -0.111757785 -0.27171296 -0.023715796
000250 77 db 38 3d 6d 26 35 be 2d 65 3c be d5 0c 29 be
       0.045131173 -0.1769044 -0.1839797 -0.16508801
000260 8f 7f 6d 3d f6 fb b5 3c d5 7c 52 3e 65 ee 8e 3e
       0.057982977 0.02221487 0.20555432 0.27916256
000270 e1 fb 96 be 45 b6 7c 3e a4 08 00 3d 2d 0c 9a 3e
       -0.29489043 0.24678905 0.03125824 0.30087414
000280 3a 85 05 3d a9 80 e4 3d 4a 42 3b 3e aa 96 06 3e
       0.032597758 0.111573525 0.18287006 0.13143411
000290 3a a4 3d 3e e8 b5 67 bd d0 a2 f7 bd a2 68 5d 3e
       0.18519679 -0.056569964 -0.12091601 0.21621946
0002a0 af 17 9e be 30 86 0b be db ea 44 be 88 d1 0f bd
       -0.30877444 -0.13625407 -0.19230215 -0.035111934
0002b0 88 3f 55 bd e4 46 af 3d c8 72 0f 3d da cc 47 3e
       -0.05206254 0.08558443 0.035021573 0.19511738
0002c0 20 a1 61 3d d8 af 13 be 5e 1a 67 be 44 3d ef 3d
       0.0550853 -0.14422548 -0.22568652 0.11681607
0002d0 5c 6c 1f 3d 69 b8 71 be 09 33 07 be 2e 3c 08 be
       0.0389217 -0.23605503 -0.13203062 -0.13304207
0002e0 7d be 58 3e 6b 19 5d 3e fd 68 0a 3e 1e 20 02 3e
       0.21166416 0.21591727 0.13516612 0.12707564
0002f0 4d e0 f3 bc cb d9 9d 3e c6 5c 7b be a6 1c 7e bd
       -0.02977004 0.30830225 -0.24547109 -0.06203904
000300 03 d8 95 3e aa 9e 07 be 25 37 52 be 2f 1b bb bd
       0.29266366 -0.1324412 -0.20528848 -0.09136044
000310 1f 40 c6 bd 3e 82 a7 3e bc ce e8 bd de c2 50 be
       -0.09680199 0.32716554 -0.113675565 -0.20386836
000320 ba 5d ba bd 3e 78 9c 3e 09 dc 6f 3d ae a5 c1 3d
       -0.09099908 0.30560488 0.05855945 0.09455429
000330 27 34 96 be 8b 32 90 3e f8 db fc 3d d4 f3 9d be
       -0.29336664 0.2816356 0.12346643 -0.3085009
000340 85 23 4a be e5 54 50 bd 2c 8a 9d 3e 10 ff 57 be
       -0.19740112 -0.05086221 0.3076948 -0.21093392
000350 de 98 9f 3e 1b 97 82 be ea 71 f1 3d dc fe 7d be
       0.31171316 -0.2550591 0.117893055 -0.24804252
000360 80 b2 84 3d 20 bc e7 3d 9c 6b 03 bd 46 aa a2 3d
       0.06479359 0.11315179 -0.032085046 0.07942633
000370 b4 b8 02 3e b8 07 4c 3e 1c 85 73 3e e7 85 86 be
       0.12765771 0.1992482 0.23781246 -0.26274034
000380 e0 aa 82 3e b8 75 5e 3e e0 8f 97 3d a8 11 40 be
       0.25520992 0.21724594 0.07400489 -0.18756735
000390 0c 0a 64 be 75 3d 83 3e d1 b3 10 be 85 5e 26 3e
       -0.22269458 0.25632825 -0.14131095 0.16246994
0003a0 fe b9 76 3d ea 3c a5 3e 1e f4 14 be 28 75 8b be
       0.06023597 0.32273036 -0.14546248 -0.2723782
0003b0 7a d8 31 3e c3 73 9e 3e f6 0a 59 be 16 91 2b 3e
       0.17367736 0.30947694 -0.21195588 0.16754565
0003c0 e8 d4 27 be 3b 4c 34 be 14 bd 8a bd f0 f7 8e bd
       -0.16389811 -0.17607205 -0.06774345 -0.06980884
0003d0 3a df 3e 3e 31 99 8c be 24 02 0a be d2 4a 27 bd
       0.18639842 -0.27460626 -0.13477379 -0.04084284
0003e0 a4 49 e8 bc ce 7f a3 3e 9d 78 52 bd 27 25 c3 bd
       -0.028355427 0.31933445 -0.051384557 -0.095285706
0003f0 52 9a 13 3e 50 83 fd 3c ae 70 1e be 00 f6 df bd
       0.14414337 0.030946404 -0.15472671 -0.10935593

conv1.bias f4 [32]
000000 b5 5e 02 be 88 ff 7b be 74 0f 89 3e ba a9 80 3d
       -0.1273144 -0.24609196 0.26769602 0.06282373
000010 9a c5 21 be f3 76 67 be 13 e9 7a be 0a 84 3c 3e
       -0.15798035 -0.2260397 -0.24502973 0.18409744
000020 0f 82 b5 3d ce d2 49 be 24 eb a2 3e 0d c0 4d be
       0.08862697 -0.19709322 0.31820023 -0.20092793
000030 43 50 83 3e 0f d2 9a bb 21 98 a1 3e 10 4a cc bd
       0.25647172 -0.004724748 0.31561378 -0.09975064
000040 8c 4b 60 3e 0b aa 1b be 83 b0 94 be 92 a2 87 be
       0.21903819 -0.15201585 -0.29040918 -0.2649122
000050 d2 24 aa bd 05 f3 33 3d 15 88 bf 3d 95 0f 8e 3c
       -0.08307804 0.043932933 0.093521275 0.017341414
000060 34 86 ef 3d 28 93 86 be 2e 38 a2 be 91 f8 49 3e
       0.11695519 -0.26284146 -0.31683487 0.19723727
000070 08 9b 75 bd f9 16 9c 3e e4 a4 29 3e a4 e8 a1 be
       -0.059962302 0.30486277 0.16566807 -0.31622803

conv2.weight f4 [32, 32, 3, 3]
000000 ad 33 5b 3b 8c 34 55 bb 5b 64 8a 3c 58 f1 eb bc
       0.003344755 -0.003253254 0.016893556 -0.028801605
000010 d4 65 9d 3c 11 ad 44 bd b3 be a7 bc 44 ff 00 3d
       0.019213594 -0.04801661 -0.020476675 0.03149344
000020 4f 52 f9 3c fc 9e 4f bc 38 de da 3b 24 e9 19 3c
       0.030434756 -0.012672182 0.0066793226 0.009393964
000030 02 bd c3 3c 5f 10 33 bd da 11 d1 bc 82 fe d5 3c
       0.023893837 -0.043716785 -0.025521208 0.026122335
000040 17 93 06 bd 4d 30 47 3d 07 b7 6a bd 09 3b 47 3d
       -0.03285512 0.048630048 -0.057303455 0.048640285
000050 b3 36 3e 3d b3 ba 3a bd 5a ee 9d bc 46 67 03 3d
       0.046438884 -0.045588206 -0.019278694 0.03208091
000060 e5 8d 08 bd ff f9 18 bd a0 33 98 3a aa f9 79 bc
       -0.033338446 -0.03734779 0.0011612065 -0.015257278
000070 97 5d 4b 3d ad 47 de 3c c2 fb 98 3c 87 b4 d1 3b
       0.0496498 0.027133787 0.018674735 0.0063996944
000080 8f 4c 23 3d 8d 1a 8d bb 17 a4 4d bd be e5 45 bd
       0.039867934 -0.0043061436 -0.050205316 -0.048314802
000090 81 f7 5a 3c c9 a6 ee 3c 0f 60 4b bb 7d 16 6e 3c
       0.013364674 0.029132264 -0.0031032597 0.014531729
0000a0 ac d5 cd 3c 15 89 26 bd 6b 1e 4d bd 40 f8 40 3d
       0.0251263 -0.040658075 -0.050077837 0.04711175
0000b0 0b 05 4e 3d ca 16 99 bc 44 1e e0 3c 52 f5 fc 3c
       0.050297778 -0.018687624 0.027358182 0.030878697
0000c0 50 51 b7 bc 01 e0 b7 3c 83 c5 b3 bc a0 ab bb bc
       -0.02237764 0.02244568 -0.021944767 -0.022908986
0000d0 0f 27 69 bd a7 3f 20 3c 82 bd 41 bd b0 7a b8 bc
       -0.056922015 0.009780801 -0.04729987 -0.02251944
0000e0 c8 fb 8a 3b 07 39 47 3d 61 4f 67 3d 2b e4 09 3d
       0.0042414404 0.04863837 0.056472186 0.033664864
0000f0 28 30 93 3b c4 d5 46 bd bc 51 34 3c 0c 68 b4 bb
       0.0044918247 -0.048543707 0.011005815 -0.0055055674
000100 94 3c 21 bd c0 b1 9b bc 4c 06 03 bc ca b3 e8 3b
       -0.039364412 -0.019005656 -0.007997107 0.0071015107
000110 c6 a4 c9 3c bb bd 0d bc 8f fd 0b 3d 69 7c 3d 3c
       0.024614703 -0.008651192 0.03417736 0.011565306
000120 b9 7e 32 3d a2 81 29 bd f2 d3 13 3d 41 8f 94 bc
       0.043577883 -0.041383393 0.0360908 -0.018134715
000130 8e 8f 65 bd b7 85 59 3c 09 13 4d 3d 90 b7 b8 bc
       -0.056045108 0.013276509 0.05006698 -0.022548467
000140 70 bd 3e bd a6 10 be 3c 05 86 31 3d cc 25 50 bc
       -0.04656738 0.023201298 0.0433407 -0.012704324
000150 f0 f7 39 bd 30 06 1c bd cb 21 19 3d 33 cf 55 3d
       -0.045402467 -0.03809184 0.037385743 0.052199554
000160 4c bd 18 bd 05 72 38 3d 68 9f 26 bd a0 b1 b6 bc
       -0.037289903 0.045030612 -0.040679365 -0.022301495
000170 27 ea b0 39 db 3d 55 bd 5a 34 65 3d 0b 8e 07 3d
       0.00033743793 -0.052060943 0.05595813 0.033094447
000180 7a 5e 1d 3d fd 3a 43 bc 8c 61 ac 3c 8a 0c 22 bb
       0.038420178 -0.011915919 0.021042608 -0.0024726712
000190 27 64 fe bc f0 52 01 bd 27 42 62 bd ae 78 df bc
       -0.031053616 -0.031573236 -0.05523887 -0.027279224
0001a0 d2 75 8b 3c d0 e2 03 bb 1f 2b 1a 3d c0 3f 34 bd
       0.017023955 -0.0020124204 0.03763878 -0.04400611
0001b0 67 38 49 3d 0f 29 86 3c fe cf 46 3c 7a 06 ec 3c
       0.049126055 0.016377 0.01213455 0.028811682
0001c0 ee be 30 3d 2d 77 d0 bc b0 e2 19 bc b9 11 bb bc
       0.043150835 -0.025447452 -0.009392425 -0.0228356
0001d0 8e d6 58 bd 22 26 3d 3b 97 61 2b 3d 72 01 5f 3c
       -0.05293899 0.002886184 0.041841116 0.013611184
0001e0 52 0f 99 ba 59 c9 13 3c 6a aa 6d 3b bd 33 23 3d
       -0.001167754 0.009020173 0.0036264905 0.039844263
0001f0 31 11 7f 3c 7a 04 4d 3d f7 62 00 3d a1 a3 6f 3b
       0.015568064 0.050053097 0.03134438 0.0036566036
000200 25 4b dc 3c 25 76 5c 3c a9 a9 59 bd 52 95 38 bc
       0.0268913 0.013455902 -0.053140316 -0.0112660695
000210 f3 13 ce 3c 83 51 2d 3c 54 74 63 bd 0a f6 ca bc
       0.025155997 0.010578516 -0.05553086 -0.024775524
000220 b3 61 90 bc 9a 21 57 3b 9a 14 84 bc 07 b0 98 3c
       -0.017624712 0.0032826425 -0.016123105 0.018638624
000230 64 bb 0f bd 4a 53 51 bd 45 99 4b bc 0f 1d f7 3c
       -0.03509082 -0.05110482 -0.012426679 0.030165223
000240 ed f2 bd bc fe f2 6c 3d 97 09 e1 bc 74 e5 fd 3c
       -0.023187125 0.057848923 -0.027470393 0.0309932
000250 45 03 5c bd 75 0a 77 3c f9 77 1f 3d 7b 87 2f bd
       -0.053714056 0.015078177 0.038932774 -0.042853814
000260 d2 fd 9f 3c 2f 28 ad bc 05 39 65 3d 2e ba d2 bc
       0.01953021 -0.021137325 0.05596258 -0.025723543
000270 59 89 46 bd ef 09 73 bd 51 13 2e 3d b6 b5 0c bd
       -0.04847083 -0.059335645 0.04249889 -0.03435298
000280 bf 46 10 bd 55 9e 11 bd b8 6c 1e bd 9b 1b 6c bd
       -0.03522372 -0.035551388 -0.0386779 -0.057643514
000290 74 37 47 bc f5 50 08 3d 5c 24 2a 3c 2e 2a a2 bc
       -0.012159217 0.03328033 0.010384645 -0.019795503
0002a0 20 5c 96 3a b0 a2 c4 bb 3b 71 68 3d f8 60 c1 bb
       0.0011471547 -0.006000839 0.05674861 -0.005901452
0002b0 3b b5 6c 3d d0 b0 7f 3b 1e db 8c bc d8 dc 94 3b
       0.057790022 0.00390153 -0.017194327 0.004542928
0002c0 e9 ff e4 bc 58 c0 9e 3b 07 8c 64 bd 51 57 10 bd
       -0.027954059 0.0048447065 -0.055797603 -0.03523952
0002d0 10 10 3e 3d 8a 4c c7 3c 0a fd ef bb 9f 66 29 3c
       0.046402037 0.024328489 -0.007323866 0.010339408
0002e0 35 2b 60 bd e4 58 2c 3d 56 d8 88 bc e2 96 47 3d
       -0.054728705 0.04207696 -0.01670472 0.048727877
0002f0 34 b6 2b bd aa f5 15 3d 99 f8 60 bd 2e ec e0 bc
       -0.04192181 0.036611237 -0.05492458 -0.02745637
000300 0d b9 5d bd a3 c2 08 bd 39 70 52 bc 5e 80 3f bd
       -0.054131556 -0.033388745 -0.012844139 -0.04675328
000310 af ff 55 3d 0b 09 6c 3c 4f 99 24 3b c7 37 f1 bc
       0.052245792 0.014406453 0.0025115793 -0.029445542
000320 09 fb 57 b8 88 d8 16 bd 44 b1 6f bd 84 6a a9 bc
       -5.149379e-05 -0.036827594 -0.058518663 -0.020680673
000330 98 2d 08 bd d5 80 03 bb c6 df 9f 3c f8 d4 07 bd
       -0.033246607 -0.0020065804 0.019515883 -0.033162087
000340 50 db a1 bc 1c eb d5 3c 28 6a 58 bd c9 be 19 3d
       -0.019757897 0.026113085 -0.052835613 0.037535463
000350 2f a2 e9 3c 52 01 14 3d 76 91 53 bc 14 3f 67 bd
       0.028519718 0.03613407 -0.012913099 -0.05645664
000360 01 e2 48 bd a2 d3 6d bd 8e 8f 33 bd 01 c1 e3 bb
       -0.04904366 -0.058063157 -0.043838076 -0.006950498
000370 e2 a5 1c bd f2 07 b3 bc ff 2c d1 3c d7 25 30 3d
       -0.038244136 -0.021854375 0.025534151 0.043004837
000380 a5 73 1d 3d b3 bc 1f bd f7 6f 9b 3c f9 d5 e5 3c
       0.038440365 -0.038998317 0.018974287 0.028056132
000390 d9 77 99 3c 2c db 1e bd ba 9b 19 bc 43 9c dd bc
       0.018733906 -0.038783237 -0.009375507 -0.02705205
0003a0 21 3f b2 bc c5 2a 7b 3c 54 82 31 bc 3c 41 77 3c
       -0.021758618 0.015330021 -0.010834295 0.015091237
0003b0 ad 88 44 3d f1 52 11 3d ce 09 62 bd 2d 64 42 3d
       0.047981907 0.03547949 -0.05518513 0.047458816
0003c0 21 c3 52 bd 30 1a 6d 3b 48 4e 45 bc 50 5b b2 bc
       -0.05145562 0.003617894 -0.0120425895 -0.021772057
0003d0 17 80 61 3c d8 11 b9 3c 05 f8 7d 39 84 17 83 3c
       0.013763449 0.022591516 0.00024220355 0.016002424
0003e0 7c 54 b8 3c 3c af 44 3d 1b 25 5d bd a6 3b 54 bd
       0.022501223 0.04801868 -0.053990465 -0.051814698
0003f0 60 e2 4b bb bf c8 5b bd 5b 28 45 3d e2 1f 85 bc
       -0.0031110272 -0.053658243 0.04813419 -0.016250554

conv2.bias f4 [32]
000000 56 a6 28 3d 51 26 91 3b 44 3b be 3c e6 79 05 3d
       0.041174255 0.0044296165 0.02322162 0.032586955
000010 ca 39 22 bd 4a c5 de 3c 8a dc 1b 3d 48 1b 9f bb
       -0.039605893 0.027193684 0.03805212 -0.004855547
000020 af a8 2a bd 23 b7 3e bc 70 b4 0d bb b1 de b1 bc
       -0.041664775 -0.011640343 -0.0021622442 -0.021712633
000030 20 58 14 3c 4a ce 04 bd cc b3 21 bd 2f 32 c5 bb
       0.009054214 -0.032423295 -0.03947811 -0.0060179452
000040 07 07 78 bb 98 6a 13 bd 18 64 60 bd de da a7 bc
       -0.0037845985 -0.035990328 -0.054782957 -0.020490106
000050 82 17 ca bc 27 60 b5 bb c6 0a 30 bd 03 d3 0f bd
       -0.024669413 -0.005535144 -0.042979024 -0.035113346
000060 9e 0d d6 3c 87 5f 43 b9 63 d5 10 bd 28 9c f3 bb
       0.02612954 -0.00018632236 -0.03535975 -0.0074343868
000070 0f 70 26 3c 9b 7c 58 bd a3 a0 25 bd 83 ad 30 bb
       0.010158553 -0.052853208 -0.0404364 -0.002695889

conv3.weight f4 [64, 32, 3, 3]
000000 98 bd 1f bd 63 d6 4b bd bb bd 28 bd ce 38 c9 bb
       -0.03899917 -0.049765002 -0.041196566 -0.006140805
000010 c2 cc 51 bd 0b de 44 bd 74 94 2c bd b0 8b 85 bc
       -0.051220663 -0.04806332 -0.042133763 -0.01630196
000020 d8 c9 47 3d ee f4 20 3b c0 dc 27 bd 27 72 bc 3c
       0.048776478 0.0024560052 -0.040982008 0.02300365
000030 de ac fa bc 80 67 50 bd ec 68 4a 3d 2f f7 5a 3d
       -0.030600008 -0.050879955 0.049416468 0.05345839
000040 db 8f 7c bd 46 2c 9e 3a ec 48 87 bc 83 e0 d1 bc
       -0.06166063 0.0012067638 -0.016514264 -0.02561975
000050 86 28 40 bd 2a ab 65 3d a3 e3 05 bd cf 61 39 bd
       -0.046913646 0.056071438 -0.032687794 -0.045259293
000060 00 fb 2f 3d 21 77 95 bc bb 92 23 bd 02 7e e4 bb
       0.04296398 -0.018245282 -0.039934855 -0.006973029
000070 9e 52 98 bc f3 11 a5 bc 10 b7 8c bb e0 b2 5d 3d
       -0.018594082 -0.02015016 -0.0042942837 0.054125667
000080 90 5c 58 bd 0c fa 4d 3c 90 52 42 3d c8 c9 08 bd
       -0.05282265 0.012571823 0.04744202 -0.03339556
000090 70 bc 6a bd a8 93 d1 bc 82 5e 54 bd f9 b3 1b 3d
       -0.057308614 -0.025583103 -0.051847942 0.038013432
0000a0 7f 76 06 3d 39 4c 6e bd 1a 83 83 3c 2a 5e b2 3c
       0.03282785 -0.05817816 0.016053725 0.021773417
0000b0 9b 88 70 bd 38 a7 92 3c d5 fe 3d bc 84 3f 90 bb
       -0.058724027 0.017902002 -0.011596401 -0.004402103
0000c0 fc 7b 6d bc 07 d0 3e 3d b7 9d fd 3a 39 2f 5e 3d
       -0.014494892 0.04658511 0.0019349371 0.054244254
0000d0 e8 5d 9b bc aa 05 42 3b 88 2f 0a bd 8c ea 2e bd
       -0.018965676 0.0029605427 -0.033736736 -0.04270415
0000e0 59 cb 0c bc 46 bc 10 3c 3c 4a b4 bc ef d9 17 bd
       -0.008593404 0.00883395 -0.022008054 -0.037073072
0000f0 dd 98 29 bd 8d c6 b2 3b 8f d2 5c bd a6 d2 1c bd
       -0.041405547 0.005455798 -0.05391174 -0.038286828
000100 b2 4f c5 3c 96 94 c0 bc 7a 3b b0 3c f5 52 59 bd
       0.024085853 -0.023508351 0.021512736 -0.05305763
000110 4c 52 3b bd 1a 61 db bc c2 e5 1c bd 38 e8 b3 3b
       -0.04573278 -0.0267797 -0.03830505 0.005490329
000120 e6 30 46 3c fb 11 b2 bc 41 ca a3 bc 44 8b 0c 3c
       0.012096619 -0.02173709 -0.019993903 0.008578125
000130 35 3e 05 3d 29 a1 11 bb d4 d5 7d 3d b2 5c 0f 3d
       0.03253003 -0.0022221303 0.0619715 0.03500051
000140 17 fa b3 3b 1d 0b e2 3b f3 53 30 bd 30 d7 de 3c
       0.0054924595 0.0068982975 -0.04304881 0.027202219
000150 c9 93 57 3d 12 6c 22 3d 5f ce f4 bc 29 10 00 3d
       0.052631173 0.039653845 -0.029883562 0.03126541
000160 d6 21 51 3d 72 1a 15 bd c1 45 4e bd 22 89 c3 3c
       0.05105766 -0.036402173 -0.05035949 0.023869101
000170 15 8c 44 3d 80 aa fa b9 34 30 1b 3c 1e 44 a6 bc
       0.047985155 -0.00047810748 0.009471942 -0.020296153
000180 c5 f3 0b 3d a0 20 47 3b d1 65 14 3d 65 21 b5 bc
       0.034168024 0.0030384436 0.036229912 -0.02211065
000190 76 e5 2a bd 01 d3 2f bd 90 7f e2 bc 3a 2c 34 3d
       -0.041722737 -0.04292584 -0.027648717 0.04398749
0001a0 33 3c 12 3b ce dc 19 bd 16 14 40 bd 7e f7 b7 bc
       0.0022313714 -0.03756409 -0.046894155 -0.02245688
0001b0 87 64 84 bc 5e 48 7d bc 57 dc 8b 3c 79 30 45 3d
       -0.016161216 -0.015459148 0.01707284 0.04814193
0001c0 bc be 72 bd 4d 63 b4 3a b4 ed b3 3b 60 70 56 bd
       -0.05926393 0.0013762504 0.005490983 -0.052353263
0001d0 7a b0 71 3a ad 47 41 bd 67 f1 15 3c c9 59 10 3d
       0.00092197175 -0.047187496 0.009151793 0.035241876
0001e0 97 4b 48 bd 8b 05 de 3c 2a a2 12 bb 97 85 20 bd
       -0.048900213 0.027102252 -0.002237449 -0.0391899
0001f0 14 d5 e9 bb ca d5 97 3c a8 81 0d bd d7 e5 4f 3d
       -0.0071359966 0.01853456 -0.034547478 0.0507563
000200 0b 49 6c 3b 3f 34 46 3d e2 78 44 bd 55 e9 55 bc
       0.003605428 0.04838967 -0.047966845 -0.013056119
000210 81 61 c0 3b 9a 5d 8e bb af 00 43 38 9b 7d d4 bb
       0.0058709984 -0.0043446543 4.649226e-05 -0.0064847
000220 be fc 62 3d d0 b5 92 3c 92 5b 9d bc b0 da 86 3b
       0.055416815 0.01790896 -0.019208703 0.004115425
000230 88 06 2f 3d 28 82 a7 bc 6e 46 16 bd 94 a5 3c 3d
       0.042730838 -0.020447806 -0.03668826 0.046056345
000240 ff ce 12 3d 8d 8c 8f bc 35 31 96 3c 2b 18 68 bd
       0.035841938 -0.017523075 0.01833401 -0.056663673
000250 e3 26 4e bd b2 28 e0 3c 29 99 56 bc 0c 18 37 bd
       -0.050330054 0.027363155 -0.01309804 -0.044700667
000260 fc 99 eb bc f1 f9 6b 3d 5e 06 2e bd 9d eb 70 3d
       -0.028759949 0.05761141 -0.04248654 0.05881845
000270 1a 1b aa 3c 46 8b b6 bc a6 8a 3d bd 00 a7 e3 39
       0.020764876 -0.022283208 -0.046274804 0.0004342124
000280 48 1e e2 bc 34 01 10 3c 37 0d 71 3d 08 44 29 bd
       -0.02760233 0.008789349 0.058850493 -0.041324645
000290 c9 5a 33 3d 96 89 80 bc 15 b2 6a 3d ef 0d 30 3d
       0.04378775 -0.015690606 0.05729874 0.042982038
0002a0 c4 c3 63 bc 71 f5 2c 3d ec 63 3b 3c 48 e9 ba bb
       -0.013901655 0.04222626 0.011437397 -0.005704079
0002b0 cf 10 2d bb 51 82 47 3d be 7e dd bc 2b 98 1d 3d
       -0.0026407724 0.048708264 -0.027037974 0.038475197
0002c0 e2 0a ea bc f6 e9 04 bd 15 95 69 3d 10 13 35 bc
       -0.028569642 -0.032449685 0.05702694 -0.011051908
0002d0 0a 19 6e 3a ea bf 08 3d 53 a7 9c bc 63 5d 54 bd
       0.00090827106 0.03338615 -0.019122755 -0.051846873
0002e0 0e 99 2e 3d fa 71 16 bd 1d 6b 38 bd 3a 4c 39 3d
       0.042626433 -0.03672979 -0.045024026 0.04523871
0002f0 6a 33 51 bd 54 f9 3b bc 61 18 36 3c 0b f7 6a bd
       -0.051074423 -0.011473019 0.011114211 -0.057364505
000300 68 90 53 3d a3 5f 59 bd 44 80 b0 bb 19 3f 0c 3d
       0.05165139 -0.053069722 -0.005386384 0.034239862
000310 54 db 2d 3d ea 2d 93 3c d8 17 2a bd fe 00 4f bd
       0.042445496 0.01796623 -0.041526645 -0.050538056
000320 8a 30 26 ba fd 8c 30 3d a6 df 49 3b ce 93 46 bd
       -0.00063396303 0.043103207 0.003080347 -0.0484808
000330 46 c1 9d bb aa e4 f1 3c bf 30 09 3d 10 3e 45 bd
       -0.0048142998 0.02952798 0.033493754 -0.04815489
000340 d9 4f 00 bc 59 37 45 3d 2b e1 0d 3c b1 96 2b bc
       -0.007831537 0.048148487 0.008659641 -0.010472939
000350 0a e4 c8 bc ba f4 3b 3c 2a 35 f9 3c 1c f2 12 ba
       -0.0245228 0.011471922 0.030420858 -0.0005605535
000360 75 8e 60 3d f9 47 0c bd 81 a5 f9 bc 8c f6 ed bc
       0.054823358 -0.034248326 -0.030474426 -0.029048227
000370 30 98 49 bc 5e 27 49 bd 14 28 7b 3c f1 ca 05 3d
       -0.012304351 -0.04910981 0.01532938 0.032664243
000380 c8 f0 33 bd 8f 5e d4 ba a7 9b 21 3d e2 a4 c7 ba
       -0.0439308 -0.0016202497 0.039455082 -0.0015231634
000390 45 0c a2 bb 4d f6 c2 3c 56 e6 61 bd 61 70 e4 bc
       -0.0049453103 0.023799086 -0.055151306 -0.027885618
0003a0 5e 3c b3 3c 2e 10 21 bd 73 98 04 bd 8a 27 34 3d
       0.021879371 -0.03932207 -0.03237195 0.04398302
0003b0 3c 63 63 bd 0e 66 70 3b e0 78 5b bd d8 19 80 3c
       -0.05551456 0.0036681923 -0.053582072 0.015637323
0003c0 ec 70 63 bd 64 bf 36 bd a7 be e3 3c 40 3d b4 bc
       -0.055527613 -0.044616118 0.027800871 -0.022001863
0003d0 8c 47 21 bd 20 2b 3a 3b 00 1f 48 bc d2 60 ec 3c
       -0.039374873 0.0028407052 -0.012214422 0.028854761
0003e0 f6 ed 1e bd b0 1e 65 bc 8d 8f 08 3d d6 e5 ff bc
       -0.038801156 -0.013984367 0.033340026 -0.031237524
0003f0 f9 4d 6c bb 39 a8 4e bb 51 b4 45 bc e5 8a 0c bd
       -0.0036057218 -0.0031533374 -0.012066917 -0.034312148

conv3.bias f4 [64]
000000 68 55 b2 3c 4c 22 e2 3c b9 63 ec bc 1d 9a 44 3c
       0.02176924 0.027604245 -0.028856145 0.011999634
000010 ee 58 77 3d 3f a5 5c 3d b5 fb 01 bc fe e0 fc bc
       0.060387544 0.05386853 -0.007933547 -0.030869003
000020 f8 10 33 3d c4 0a c3 bc 15 4a d9 3c be 45 2f 3d
       0.043717355 -0.023808844 0.026524583 0.04279112
000030 21 60 08 bc 84 79 39 3d 04 c5 30 bd e9 f3 a1 3c
       -0.0083237 0.045281902 -0.04315664 0.019769626
000040 6e 44 e5 3c 84 c1 06 3d 5a dc 46 3d 2b fd 70 3c
       0.027986731 0.032899395 0.048549987 0.014708797
000050 c6 cf 11 3b 4a a6 ed 3a 0c ab 7b bb 08 8e 05 3d
       0.0022249087 0.0018131223 -0.0038401512 0.032606155
000060 d5 87 2e bd 9b d0 a1 3c a9 03 8f bd 31 31 42 3d
       -0.04261001 0.019752791 -0.0698312 0.047410194
000070 60 9d 2f bd ef 38 94 39 d6 82 b9 bb fd 88 32 bd
       -0.042874694 0.0002827118 -0.005661349 -0.043587673
000080 f7 82 f5 3c b2 a4 13 bd a7 94 e6 bc bf 9b 8d 3d
       0.029969675 -0.036045738 -0.028147055 0.06914472
000090 2d 44 1e 3d 23 be 52 3d 7a aa 34 bd 59 9b f6 bc
       0.038639236 0.05145086 -0.04410789 -0.030103372
0000a0 cd 13 c3 bc ed 90 5f 3c 59 a8 0e bd fd 65 55 bd
       -0.023813153 0.013645393 -0.034828518 -0.052099217
0000b0 06 65 2d 3d 6b e8 ab bc 17 b4 18 3b 09 49 0c ba
       0.04233267 -0.020984849 0.0023300701 -0.0005351459
0000c0 ee 45 c5 bc fd c1 a6 bc 8a 88 58 bd 81 1b cc bc
       -0.024081197 -0.020356173 -0.05286459 -0.024915459
0000d0 9b 49 42 3d ca 51 b2 bc a0 30 60 3b 8f 36 01 bd
       0.047433477 -0.021767516 0.003420867 -0.03154617
0000e0 de 61 2a 3d c8 5b 5f 3d c4 15 50 bc 60 fc 23 3d
       0.04159724 0.05453089 -0.012700502 0.040035605
0000f0 d0 f2 c1 3b 8f a5 32 3b e9 37 32 3a 63 5b 52 b9
       0.005918838 0.0027259325 0.00067984924 -0.00020061205

inception1.branch1.0.weight f4 [32, 64, 1, 1]
000000 ae 0a 35 3d 80 29 8b bd 68 45 ef 3d 87 cb 59 bd
       0.044199638 -0.06795025 0.1168316 -0.053172614
000010 04 f1 03 bd 19 c4 e7 3d 38 30 b1 3d 77 54 01 ba
       -0.032212272 0.113166995 0.08651775 -0.0004933546
000020 fe c1 63 3d 6d 64 dc 3d 47 1a 02 3d 12 28 12 bd
       0.055604927 0.10761342 0.03176334 -0.035682745
000030 30 f2 37 bd 51 d1 c7 bc c0 37 58 3d 9c 36 55 3d
       -0.044908702 -0.024391802 0.052787542 0.052054033
000040 ba 2c f1 bd 77 6d f7 bd 9c ce fd 3c 33 6f 50 bd
       -0.11776109 -0.12081426 0.030982308 -0.050887298
000050 cc 2d 40 bd e7 20 9a bd 55 60 fe bd dd 27 9e bd
       -0.046918675 -0.07525807 -0.124207176 -0.07722447
000060 44 67 d0 bd ef e5 39 3d c4 a9 af 3d 7b 6c a8 3d
       -0.10175946 0.045385297 0.08577302 0.08223816
000070 b2 34 a0 bd 4a 9f e2 3d 11 58 9e bd ce ee f1 bd
       -0.07822551 0.11065538 -0.07731641 -0.118131265
000080 e9 7a 89 bc c0 d5 b1 3d 35 b5 47 3d d9 0d cb 3d
       -0.016782241 0.08683348 0.048756797 0.099147506
000090 1a dd c2 3d 43 23 d9 bd 52 1d 0e bd ee 11 08 3d
       0.09514828 -0.10602429 -0.03469593 0.033220224
0000a0 25 37 c7 3b 15 62 eb bc c2 95 ec bd d8 57 73 bd
       0.006079572 -0.028733293 -0.115520015 -0.059409946
0000b0 7e 62 3c bc d2 5e 98 3d 97 56 f2 3d 71 02 bd bd
       -0.011498092 0.074399605 0.11832922 -0.09228981
0000c0 15 76 aa bd b3 cd cc 3d a9 9f f7 bd c1 a9 b2 bd
       -0.083233036 0.100001715 -0.12091 -0.08723784
0000d0 2a 8d 61 bd e9 10 a9 3d 63 a9 cc bd 80 1a 6b bd
       -0.055066265 0.082551785 -0.099932455 -0.05739832
0000e0 0d 6d aa bd 8a 36 47 3c 8e 78 40 bc 77 88 26 bd
       -0.08321581 0.012158999 -0.0117474925 -0.040657487
0000f0 16 34 67 3c 8a 7b ac 3d fe 46 d5 bd bd 93 d9 bd
       0.014111539 0.08422001 -0.10413931 -0.10623882
000100 57 13 19 bc a9 63 ce 3d 16 6a 9c bd ea fa ab 3d
       -0.00934299 0.100776024 -0.07637422 0.083974674
000110 42 b2 5a bd ac 8e 2c 3d af 3e b7 3c f4 97 0d 3d
       -0.053392656 0.04212825 0.022368757 0.034568742
000120 36 82 d9 3c fc 27 b4 3d ee a6 e2 bc f3 79 48 3d
       0.026551347 0.08796689 -0.027667489 0.048944425
000130 f6 f0 95 bd 95 fc 53 bd 90 17 45 bd 9f eb ca bd
       -0.0732135 -0.051754553 -0.048118174 -0.099082224
000140 b6 07 b7 bd 4c 83 61 bc ae f5 a5 bd 37 d2 cd bb
       -0.089370176 -0.013764214 -0.081035 -0.006281163
000150 be 28 2c bd c8 c9 bf 3c 42 13 ae 3d 34 d5 98 bd
       -0.042031042 0.023411646 0.08499767 -0.0746254
000160 df fb e2 3d 8f 24 f1 3d 56 a8 65 bd a6 43 b5 bd
       0.11083197 0.11774551 -0.05606874 -0.088507935
000170 64 52 b2 bd ff 81 bc bd 5d 6f 8c bd 33 49 cf bd
       -0.08707121 -0.09204482 -0.06857178 -0.101213835
000180 98 9e 87 bd 62 6d b4 3d 71 6e 44 3c 57 02 43 3b
       -0.06622046 0.088099256 0.011989222 0.0029756033
000190 ae 1f 0c 3d b5 d5 86 3d 4f 82 e5 3d b8 b1 74 bd
       0.0342099 0.0658373 0.11206495 -0.0597398
0001a0 83 d0 7f 3d 3f 0c 61 3d 22 ed 94 bd 60 3b 31 3d
       0.06245471 0.05494332 -0.07271792 0.043269515
0001b0 8e 22 d6 3d 38 e8 a5 3d e7 91 f0 bc 59 c0 9e bc
       0.104558095 0.08100933 -0.029366447 -0.019378828
0001c0 20 83 f7 3d c9 57 3c bd f9 10 9b bd 72 84 7a 3d
       0.12085557 -0.045982156 -0.07571597 0.061161466
0001d0 a1 36 26 bd 4a f0 91 bd 84 fc f9 3d b0 7f 99 bd
       -0.040579442 -0.071259096 0.12206367 -0.074950576
0001e0 1b 2d a3 3d cd ed 8d 3d 2d 56 d9 bc 11 30 f3 bc
       0.079675876 0.069301225 -0.02653035 -0.029686006
0001f0 b8 ee 3a 3d be fa f5 3d 41 ce fb bd cc d0 de bd
       0.045637816 0.12010716 -0.12295199 -0.108796686
000200 55 d3 c9 bd 82 81 ac bc 5a 20 ff 3c a2 b1 e8 3c
       -0.098547615 -0.021057848 0.031143356 0.028405014
000210 81 75 1d 3d 21 8f bf bd e8 f1 cb 3d fa 95 94 3d
       0.03844214 -0.093534715 0.09958249 0.07255168
000220 76 a1 c8 3d 69 f0 b0 ba 1c d7 6d bd 17 d0 c2 3d
       0.09796421 -0.0013499382 -0.058066472 0.09512346
000230 87 c0 bf 3d f8 78 ae bd f0 e3 50 bc dc 63 fb bd
       0.093628936 -0.08519167 -0.012749657 -0.12274906
000240 57 d4 ff bd 94 e9 e0 3c 5c 7f 43 3d dd 02 94 bd
       -0.124916725 0.027455129 0.04772888 -0.07227109
000250 78 72 06 bd 15 98 b6 3a 20 7d 08 3d ca 17 de 3d
       -0.03282401 0.0013930822 0.033322453 0.10844381
000260 47 cd 23 3d 3a 59 d5 bc 20 63 18 bd 73 31 f5 bd
       0.03999069 -0.026043523 -0.037203908 -0.11972322
000270 4e c9 e7 bd 7b 91 38 bd 66 54 51 3c 9f 7f 5d bb
       -0.11317693 -0.045060616 0.01277647 -0.0033797992
000280 08 1d 95 3d d6 6a db 3d 48 00 a4 3d 0d 77 f6 bd
       0.07280928 0.10713737 0.08007866 -0.12034426
000290 72 b0 c7 3d ca f3 a3 3d 0e 23 85 bd 65 9a d2 3d
       0.09750451 0.080054834 -0.06500827 0.10283355
0002a0 f9 0f 6e bd af cb 1b 3b 28 8b bb bd d4 19 14 3d
       -0.0581207 0.0023772528 -0.09157401 0.036157444
0002b0 7a 83 85 3d 68 67 98 bc 37 07 b3 bc 31 b6 b5 bd
       0.06519218 -0.018603995 -0.021854026 -0.08872641
0002c0 e7 6b 9a bc 50 6c fa bd ed 67 3f bc 10 39 e7 3c
       -0.01885028 -0.1222769 -0.011682493 0.028225452
0002d0 6d 7b 3c 3d ce ec 90 bb 37 02 a3 3d 40 2e b3 3c
       0.046016145 -0.0044227606 0.07959407 0.02187264
0002e0 de c4 f8 bd d2 88 3f 3d a7 4f 87 3c 0c 2f cd 3d
       -0.121469244 0.04676134 0.016517473 0.10018739
0002f0 76 c7 c8 3d da 2c df 3c 4b 7b a6 3d e3 83 3e 3d
       0.09803669 0.027243067 0.08128985 0.046512496
000300 f2 17 2f 3d 72 75 67 bd 8a fe 97 3c 3e 86 d7 3c
       0.042747445 -0.05650849 0.01855399 0.026309129
000310 b4 89 cd bd 81 b3 63 3d 1e a3 77 bd 7e 9f b0 3d
       -0.100360304 0.05559111 -0.060458295 0.08624171
000320 c7 71 f5 bc bc 26 0e bd 11 4d 9d bd e4 56 d7 3d
       -0.02996148 -0.03470491 -0.07680715 0.1051462
000330 05 c6 5c 3b 91 ab e6 bd 6e d7 f9 bd 6e 69 b8 bd
       0.0033687365 -0.112631924 -0.12199293 -0.09004484
000340 e3 6c ac 3c fd ff 79 3d 3a 28 f8 3d 7b 77 e0 3d
       0.021048015 0.061035145 0.121170476 0.10960289
000350 4f 66 82 3d f1 30 4a 3d 72 69 2a bc a6 24 9a bc
       0.0636717 0.04936308 -0.010401117 -0.018816303
000360 6a 74 89 3d c7 ef 20 3c 42 08 8e 3d 99 97 1c bd
       0.06711657 0.009822792 0.06935169 -0.038230512
000370 68 55 c6 bd fa 16 d5 bd 2f e3 bd bc a6 e2 c7 bd
       -0.09684259 -0.10404773 -0.023179619 -0.09760027
000380 32 6f 20 3d 4b 0d f7 bd 1f 0c d6 3d 17 f9 b9 3d
       0.039168544 -0.12063082 0.10451531 0.09080713
000390 31 fe b9 3d 17 57 97 3d 88 79 1a bd 67 6e ea bd
       0.09081686 0.07389658 -0.037713557 -0.11446839
0003a0 9f 91 00 be 78 18 a6 3d ef cd dc 3d 34 2e d3 bd
       -0.1255555 0.08110136 0.10781466 -0.10311547
0003b0 f3 cd 6d bc e8 2c f5 3d e0 ec e9 3d 9e 9b 84 bd
       -0.014514434 0.11971456 0.114221334 -0.06474994
0003c0 5a 88 9f 3d e2 d1 a2 bd 40 cc dc 3d cb 05 db bc
       0.07789679 -0.07950188 0.10781145 -0.02673616
0003d0 dd 70 88 bb 10 63 01 bd 0c f7 3a 3d 94 aa ea bd
       -0.004163845 -0.031588614 0.04564576 -0.114583164
0003e0 a9 90 db 3c 41 eb fd 3c f8 1a bd bd 25 60 a5 bd
       0.026802378 0.030995967 -0.092336595 -0.08074979
0003f0 e6 7a b1 3d ca 50 ac bd ce 5b 4b bd 7e 21 af ba
       0.08666019 -0.08413847 -0.0496481 -0.0013361422

inception1.branch1.0.bias f4 [32]
000000 a5 50 f4 3d 32 e6 82 bd cc e2 c9 3d e4 6b 93 bd
       0.11929444 -0.063915625 0.09857711 -0.07198313
000010 74 fd f0 bd 70 4d 97 3d e8 d5 96 bd 06 35 87 3d
       -0.11767092 0.07387817 -0.07365018 0.0660191
000020 7d ae 50 3d 87 00 bb bd 15 b2 ca 3d fa aa 59 bd
       0.050947655 -0.0913096 0.09897248 -0.05314157
000030 58 b3 cc 3b 04 c5 59 3d d5 10 b0 3d de 27 35 bd
       0.0062469654 0.053166404 0.085969605 -0.044227473
000040 07 16 10 3c 40 98 c1 bc ca f2 5c bb b6 71 a8 3d
       0.008794314 -0.023632169 -0.003371405 0.08224814
000050 d7 1a d7 3c 20 de 6e bd 58 9d 21 3d 90 50 bc 3d
       0.026257915 -0.058317304 0.039456695 0.091950536
000060 97 d4 47 bd 0c 9f 85 3d 01 15 70 3c f5 89 d1 bd
       -0.048786726 0.065244764 0.014653445 -0.10231391
000070 32 55 c6 bd 2e 56 d1 bd b1 84 b7 bd 7a 36 a2 3c
       -0.096842185 -0.102215156 -0.08960856 0.019801367

inception1.branch1.1.weight f4 [32]
000000 57 c2 7f 3f 5c 31 7f 3f c3 81 80 3f ba 7e 7f 3f
       0.99905914 0.9968469 1.00396 0.99802744
000010 44 16 80 3f e0 ec 7f 3f a2 34 80 3f 32 7c 7f 3f
       1.0006795 0.9997082 1.0016062 0.9979888
000020 f3 06 80 3f e5 a7 7f 3f 65 ff 7f 3f 99 e6 7f 3f
       1.0002121 0.9986556 0.99999076 0.9996124
000030 84 37 7f 3f 14 c3 7f 3f 8e de 7f 3f 56 25 80 3f
       0.99694085 0.9990704 0.99948967 1.0011394
000040 8b 56 80 3f 66 e0 7f 3f 88 b3 7f 3f d6 c9 7f 3f
       1.0026411 0.9995178 0.9988332 0.9991735
000050 62 6c 7f 3f dd c1 7f 3f 69 aa 7f 3f 73 84 80 3f
       0.99774754 0.99905187 0.998694 1.004042
000060 9d db 7f 3f 2c 17 80 3f c0 05 80 3f ea 24 80 3f
       0.9994448 1.0007071 1.0001755 1.0011265
000070 7d 39 80 3f a8 0f 80 3f 92 6a 80 3f 16 09 80 3f
       1.0017544 1.0004778 1.0032523 1.0002773

inception1.branch1.1.bias f4 [32]
000000 ae d9 f8 ba 08 43 71 bb 97 a9 11 3b e1 02 82 ba
       -0.0018985772 -0.0036813635 0.0022226328 -0.0009919071
000010 1f ba 26 3b 2f 13 8c ba 50 42 2f 3b 53 13 50 ba
       0.0025440527 -0.001068687 0.0026742406 -0.000793745
000020 a1 60 22 bb 15 4a 0c bb 2b 76 4f ba 25 1f 10 3a
       -0.0024776834 -0.002140646 -0.0007914032 0.0005497805
000030 20 d5 2e b9 74 82 fa 39 f1 17 1c bb 22 f3 73 ba
       -0.00016673328 0.0004778091 -0.002381798 -0.0009305944
000040 0e 75 1d bb e2 99 39 3a 65 35 5f 3b 7a ab 03 3a
       -0.002402607 0.000708012 0.0034058925 0.00050228054
000050 0c 9d 11 bb 19 ec e1 3a db c0 2d bb d2 ba 33 ba
       -0.0022218851 0.00172365 -0.0026512656 -0.00068561465
000060 3a 31 23 ba fd bf cf 3a f4 1d 75 3a ba b5 32 3a
       -0.0006225292 0.0015850064 0.00093504717 0.00068172405
000070 ec 1a 02 3b 0b 1c 61 3b 8a 14 a7 3b 9a d4 2d 3a
       0.0019852472 0.003434899 0.005098884 0.00066311064

inception1.branch1.1.running_mean f4 [32]
000000 cd 33 e5 3d 2b 7e 4a bd 8c 93 ac 3d 42 41 9a bd
       0.11191521 -0.04943673 0.0842658 -0.07531978
000010 d1 c7 d5 bd fc 00 4d 3d 7d 3a c0 bd 3a 4e 70 3d
       -0.104385026 0.050049767 -0.09386156 0.058668353
000020 6f 63 a9 3c 6d da a4 bd 0f fc bc 3d eb 34 85 bd
       0.020677296 -0.08049474 0.09227764 -0.06504234
000030 8b 85 bb 3c 5a 46 a6 39 73 2a c7 3d 04 51 d9 bd
       0.022890827 0.00031714403 0.097248934 -0.10611156
000040 0f 0b 40 bd 94 10 be bc ff 3c fe bb 42 fc 82 3d
       -0.046885546 -0.023201264 -0.007758736 0.063957706
000050 ea ba bf 3c 04 3b 57 bd 1c 0e 81 3c 87 71 3c 3d
       0.023404557 -0.052546516 0.015753798 0.046006706
000060 57 ed 36 bd 09 8e 1b 3d 81 31 a3 3c dd d9 d4 bd
       -0.04465994 0.037977252 0.019921066 -0.103931166
000070 b7 87 cf bd 8e 70 ad bd 6a 08 09 be a5 4f db 3b
       -0.101333074 -0.08468734 -0.13382116 0.006692844

inception1.branch1.1.running_var f4 [32]
000000 1e bf 95 37 70 c3 1c 37 d9 34 f3 38 94 2f 2f 38
       1.785118e-05 9.343828e-06 0.000115969866 4.1767562e-05
000010 ee 41 dc 37 cd 88 61 37 7e 9a c9 38 d4 9d 34 38
       2.6256745e-05 1.34428965e-05 9.613203e-05 4.3062333e-05
000020 21 d1 11 37 d2 2e 27 37 1e fa 89 37 3b 07 27 38
       8.691365e-06 9.964877e-06 1.6448143e-05 3.9822637e-05
000030 8d 23 04 37 f7 32 b6 38 c1 f3 bf 36 af 3c 29 39
       7.87609e-06 8.687929e-05 5.7206203e-06 0.00016139702
000040 b3 22 81 39 10 27 03 39 5a b2 f9 37 3d 22 4b 39
       0.0002463065 0.00012507685 2.9766165e-05 0.00019372343
000050 1b 5e 22 37 7d 1b 5c 38 f9 5d 01 39 93 75 c8 37
       9.677863e-06 5.2477688e-05 0.00012337406 2.3896608e-05
000060 a9 c9 7a 37 6f 3e 87 37 e1 49 94 37 a1 78 7e 37
       1.4948114e-05 1.6122327e-05 1.7677377e-05 1.5167666e-05
000070 a8 7b ab 37 7b 63 f2 36 d0 ae c3 37 40 04 8d 37
       2.044237e-05 7.223743e-06 2.3327215e-05 1.6810489e-05

inception1.branch1.3.weight f4 [64, 32, 1, 1]
000000 c5 d9 35 3e 56 ac ca bd 5c e1 cc bd 74 45 b6 bd
       0.17758854 -0.09896152 -0.100039214 -0.08899966
000010 44 60 f2 bd b6 50 07 3e fe 91 33 bc 7b 63 05 3d
       -0.118347675 0.13214383 -0.0109601 0.032565575
000020 fc d7 47 bd 1e a9 e9 bd 2d 70 32 be 4a 02 a1 3d
       -0.048789963 -0.1140921 -0.17425604 0.07861765
000030 28 1f 04 be 56 dc 95 3c a3 d6 07 3e 42 c1 20 be
       -0.1290251 0.01829354 0.13265471 -0.15698722
000040 8c e7 68 bd a7 a0 b5 bd 95 7e 29 be 26 72 26 3e
       -0.056861445 -0.08868533 -0.16552193 0.16254482
000050 3c 42 04 3d c3 7a 8e bd b1 0a 9b 3b 6c cb 1e be
       0.03228973 -0.06957009 0.004731499 -0.15507287
000060 30 9a 8e bc 15 e2 62 bd 17 de 34 bd 41 83 2e 3e
       -0.017407507 -0.05539139 -0.044157114 0.17042257
000070 b8 01 55 bd 27 21 05 be ec c4 05 3d 26 d5 66 bc
       -0.052003592 -0.13000928 0.032658502 -0.0140889045
000080 5d 30 9f 3d cd 88 c3 bd dd 66 0c 3d 01 dd 81 bd
       0.077728964 -0.09547577 0.034277786 -0.06340981
000090 60 11 08 bd 81 f4 7e 3c 89 e5 a2 3d 67 a9 00 be
       -0.033219695 0.015561224 0.079539366 -0.12564622
0000a0 1e 74 e1 3d e7 7d 2e bd 85 66 85 3d 9d 4f 93 bc
       0.11008476 -0.04260054 0.06513695 -0.017982299
0000b0 9e b7 d4 bc 00 58 0e bd fc bc b1 bd 79 e1 05 3e
       -0.025966462 -0.034751892 -0.08678624 0.13074292
0000c0 62 a8 14 3e b5 80 8a b9 98 90 05 bd 52 af 8e bd
       0.14517358 -0.00026417305 -0.0326086 -0.069670334
0000d0 e8 77 d6 3c 21 dc c7 3d 68 fb 6f bd c7 26 32 be
       0.026180223 0.09758783 -0.05858937 -0.17397605
0000e0 95 10 bb bc 8b cc 34 3e e8 2b e4 3c e0 bd 71 bd
       -0.022835055 0.17656152 0.027852967 -0.05901897
0000f0 20 bd 1d be b7 cc 93 bd f4 0f ca 3d ea 86 f0 bd
       -0.15404177 -0.07216781 0.09866324 -0.11744483
000100 47 34 ef 3d b2 50 2b be a6 35 58 bd f4 41 90 3d
       0.11679893 -0.16730002 -0.052785538 0.070438296
000110 49 c7 9f 3d 6f 87 86 bc 46 e2 c7 3d cc 5d 11 be
       0.078016825 -0.016422002 0.09759955 -0.14195937
000120 73 65 10 3e cb de 11 3e 2e b1 2c 3e 25 07 2d be
       0.141012 0.14245145 0.16864464 -0.16897257
000130 65 1a 42 3d 21 df b0 bd 4b 4a eb 3d 36 14 9e bd
       0.047388453 -0.086363085 0.1148878 -0.07718699
000140 c5 ce f9 bc a3 1e 74 bc 1b 45 5a bd f1 a0 15 be
       -0.030494103 -0.0148998825 -0.05328856 -0.14612176
000150 81 f9 19 be cc d9 19 3e de 9a e5 3c a3 e2 11 3e
       -0.15036584 0.15024489 0.028027948 0.14246611
000160 01 fb 00 3d 6c da 20 be c3 cf 0d be 51 74 2f 3e
       0.031489376 -0.15708321 -0.13848786 0.17134215
000170 6d 41 84 bc 5e 6f 0a 3e c8 a3 dd bb 0c 27 24 3e
       -0.016144479 0.13519046 -0.006763909 0.1603052
000180 92 56 3d bd 70 a5 25 be c7 25 73 bc 51 71 8d bd
       -0.046225138 -0.1617639 -0.01484055 -0.06906379
000190 e5 0f 05 3e ba 1d 9b 3d de 29 9b 3d 47 7a 97 bd
       0.12994345 0.07574029 0.07576345 -0.073963694
0001a0 51 db ab bd c3 e1 d3 3d c8 c5 fd 3d e0 99 f8 3d
       -0.08391441 0.10345795 0.123912394 0.12138724
0001b0 a2 7a 2a be 9d 79 82 3d 8b 01 a8 3d 5c 54 25 be
       -0.16648343 0.06370852 0.08203419 -0.16145462
0001c0 51 d9 13 3d 91 86 1b be 75 c2 2b be 06 cf ec 3d
       0.03609592 -0.15188052 -0.16773398 0.11562924
0001d0 58 56 87 3d 95 7a 08 3d 7e 83 9d bd 84 c6 0a be
       0.06608266 0.03332003 -0.07691096 -0.1355229
0001e0 f7 7a 30 3e 92 ba ec bc 5e 57 1b be 65 6a 65 3d
       0.17234407 -0.028897557 -0.15170047 0.05600967
0001f0 15 2a f6 bd 81 b6 63 bd ab fe 8d 3d ca fb 7d 3d
       -0.12019745 -0.05559397 0.0693334 0.062007703
000200 71 0a 2f 3e e4 5d f9 3d 80 1e 04 3e f0 38 e9 3d
       0.17093827 0.12176111 0.1290226 0.11387813
000210 f9 0b fd 3d 7a 7b 0e 3e b9 aa 27 be cc 02 a2 bc
       0.12355799 0.1391429 -0.1637372 -0.019776724
000220 10 a9 f0 bc fc 60 cd 3d bc 26 1e 3e 1f 94 34 bd
       -0.02937749 0.10028264 0.15444463 -0.04408657
000230 02 41 ba 3d 94 b1 58 3d b8 dc 11 be 26 8d 1e be
       0.090944305 0.052903727 -0.14244354 -0.15483531
000240 82 01 d0 bd 8a 27 0d 3d 1a 72 6d 3d e7 d4 1e 3e
       -0.101565376 0.034461536 0.057970144 0.15510903
000250 ca a2 f4 3d da 84 ca bc fa 42 1b be 55 69 9d bc
       0.11945112 -0.024721552 -0.15162268 -0.019215265
000260 24 8e 32 3e 37 f1 14 be 02 ce 3c bd 46 27 0f be
       0.17437035 -0.14545141 -0.0460949 -0.13979825
000270 51 05 e1 bb e3 f2 b5 3d d9 c0 37 bd ab 68 82 bd
       -0.006867089 0.088842176 -0.04486165 -0.0636762
000280 96 81 7c bd 58 3c e6 3d 05 63 2b be 75 99 8d 3d
       -0.06164702 0.112419784 -0.16736992 0.06914035
000290 4d 84 33 bc 20 26 bd 3d 49 55 00 3e cb 98 2f 3c
       -0.010956836 0.092357874 0.12532534 0.010717581
0002a0 e3 91 9c bd bb 60 81 bd 8d 95 20 3e 8a 23 1b 3e
       -0.07645013 -0.06317278 0.15682049 0.15150276
0002b0 5b f6 26 3e 40 3a fc 3d e0 ac 04 3d c7 b9 0b 3e
       0.16304915 0.12315798 0.03239143 0.13645087
0002c0 a8 15 21 3e 3a 2b d4 bd 43 04 ea bc b1 82 f6 3d
       0.15730917 -0.10359807 -0.028566485 0.12036646
0002d0 ed a0 10 3e 0a a0 24 be e1 ff b9 bd 91 12 44 bd
       0.14123888 -0.16076675 -0.09082008 -0.04786927
0002e0 fa d1 fd 3d 91 cd 32 3e df 56 8e 3d 82 ee 1c 3e
       0.123935655 0.1746123 0.06950163 0.15325359
0002f0 cf 07 24 3e 07 b0 1a be 8e 50 03 3e ef a0 f8 bd
       0.16018604 -0.15106212 0.12823698 -0.12140071
000300 14 d3 97 3d 3f 1d 17 bd a3 ab 2b be 42 b7 a4 bd
       0.07413307 -0.036893126 -0.16764693 -0.08042766
000310 48 79 dd 3d 5c 72 fd bd 4d c4 3b 3d d7 86 33 3d
       0.10814148 -0.12375328 0.045841504 0.043829765
000320 5a 18 16 3d 3e f7 1c 3d ef 55 71 bd 9f 8b 29 3e
       0.036644317 0.038321726 -0.058919843 0.16557167
000330 04 19 a5 3d 10 04 89 3d 2e 44 8b bc 6e eb 0b 3d
       0.08061412 0.06690228 -0.017000284 0.03416007
000340 04 55 8f 3d 42 f6 56 3d e6 80 9a 3d af a6 2f bc
       0.06998637 0.052480944 0.07544117 -0.010720893
000350 75 00 d7 3c cc 1f dc 3b c7 da 03 be 4d e6 1a 3e
       0.026245335 0.0067176577 -0.12876426 0.15126915
000360 85 3e 1b 3e b0 10 0e bd 4b 79 8f 3d 8a f4 9a bd
       0.15160568 -0.034683883 0.07005557 -0.075661734
000370 7f ea 20 3e 0c 37 06 be cb 76 c4 bd 16 45 0d be
       0.15714453 -0.13106936 -0.095929705 -0.13795885
000380 7e ff 2d 3e 1f 1c c8 3c c6 82 34 3d ea db 1c bd
       0.16991994 0.024427472 0.044070028 -0.038295664
000390 59 2d 12 3e 58 31 08 bd 74 2a 91 3c f0 07 71 3d
       0.14275111 -0.033250183 0.017720439 0.05884546
0003a0 0e 99 d0 3c e9 df da 3d 20 ab 44 bd 39 ac 34 be
       0.025463607 0.10687239 -0.04801476 -0.17643823
0003b0 8b f0 03 3e 00 e8 85 3d 98 1d 18 3e 7b 31 25 3e
       0.12884729 0.06538391 0.14855039 0.16132157
0003c0 58 00 91 3d 8f 80 03 be 9a ef 11 bd c2 73 83 bd
       0.07080144 -0.1284201 -0.035628892 -0.064185634
0003d0 2f c6 c0 3d af ac 12 3e 27 ac 2d be 09 a0 df 3d
       0.094128005 0.14323686 -0.16960202 0.10919196
0003e0 1f aa 2a bd 61 22 0e be 46 9a 9f 3d 94 b6 ab 3d
       -0.041666146 -0.13880302 0.07793097 0.083844334
0003f0 a6 12 fa bc 45 01 f6 bc 53 59 d3 3d 6d 87 25 3e
       -0.03052647 -0.030029902 0.103197716 0.16164942

inception1.branch1.3.bias f4 [64]
000000 9e 27 da 3d 97 5f 29 3e 40 74 4e bb cf 72 b2 bd
       0.10652088 0.16540371 -0.0031502396 -0.08713304
000010 fa 83 05 be 80 6d 55 bb 40 d8 d3 3c a0 c6 9c bc
       -0.13038626 -0.0032566488 0.025859952 -0.01913768
000020 0a da b9 3d 24 ce 3b 3d de 21 d6 3d ed 29 e6 bd
       0.09074791 0.045850888 0.104556784 -0.112384655
000030 17 ff 26 3e fe 09 b8 bd 2c 52 47 3d 86 c6 fc bd
       0.16308247 -0.08986281 0.04866235 -0.12342553
000040 c9 ab 09 3e bb 88 16 3e 20 df 98 3b 7d d6 25 3e
       0.13444437 0.14700596 0.0046652704 0.16195102
000050 af 00 11 3e 2e 1f c6 3d bc 2b 39 bd 66 e4 8d 3d
       0.14160417 0.09673916 -0.045207724 0.06928329
000060 e0 06 c4 bc 92 a0 ba 3d 38 85 9b bc 34 74 c9 bd
       -0.02392906 0.091126576 -0.018984422 -0.09836617
000070 30 59 27 3d 0c cb 09 be cb be 0f be 37 9a 22 be
       0.04085654 -0.13456362 -0.14037625 -0.15879141
000080 28 ba 8c 3c a2 ac cc 3d 34 29 5d bd 48 21 c7 bd
       0.01717861 0.099938646 -0.053994372 -0.09723145
000090 9e ce e7 3d e8 b3 c1 bc 20 67 33 be a3 31 12 3e
       0.11318706 -0.023645356 -0.17519808 0.14276747
0000a0 13 41 8b bd 32 4d c3 3d 3c e1 07 be 9a c8 ce 3d
       -0.06799521 0.09536208 -0.13269514 0.100968555
0000b0 45 bd af bd f0 5f 64 3c 08 3f f4 3c 44 4c 21 3d
       -0.08581022 0.013938889 0.029815212 0.039379373
0000c0 ac 72 1a 3d 4e 9d ef 3d bb 86 04 3e 11 05 0d 3e
       0.037707016 0.11699925 0.1294202 0.13771464
0000d0 ee 57 e7 3d 6e 27 34 be c3 e2 0e 3e 9e 2a a9 3d
       0.11296068 -0.17593166 0.1395369 0.08260082
0000e0 b4 9a 35 3d 3c ca 27 3d dc 87 c9 bd b2 fe ed bd
       0.04433699 0.04096435 -0.09840366 -0.11620845
0000f0 09 56 bb bd 02 fa d3 3d 1b 48 86 bd 88 0a 8f 3c
       -0.09147269 0.103504196 -0.06556722 0.017461076

inception1.branch1.4.weight f4 [64]
000000 75 41 80 3f cf 64 7f 3f 61 fd 7f 3f 2e 63 80 3f
       1.0019976 0.99763197 0.99996 1.0030267
000010 a2 8f 7f 3f 9b 01 80 3f ad 67 7f 3f 63 2a 80 3f
       0.9982854 1.000049 0.9976757 1.0012935
000020 ff 1d 80 3f 21 94 7f 3f c6 bc 7f 3f f9 26 80 3f
       1.0009154 0.998354 0.9989742 1.0011894
000030 2a 07 80 3f d9 b2 7f 3f 95 b1 7f 3f 25 07 80 3f
       1.0002186 0.99882275 0.99880344 1.000218
000040 53 d4 7f 3f de fe 7f 3f a9 15 80 3f 13 09 80 3f
       0.99933356 0.9999827 1.000661 1.0002769
000050 87 e5 7e 3f 63 17 80 3f c2 16 80 3f a0 e3 7f 3f
       0.9956898 1.0007137 1.0006945 0.99956703
000060 b8 c7 7e 3f cf 72 80 3f 94 44 80 3f a4 9d 7f 3f
       0.99523497 1.0035037 1.0020928 0.99849916
000070 4b 0c 80 3f ee c6 7f 3f be a4 7f 3f 4f 44 80 3f
       1.0003752 0.9991292 0.9986075 1.0020846
000080 77 b3 7f 3f 0e 90 7f 3f c1 10 80 3f e4 11 80 3f
       0.99883217 0.99829185 1.0005113 1.000546
000090 b1 13 80 3f 95 ad 7f 3f 87 b0 7f 3f 7e a5 7f 3f
       1.0006009 0.9987424 0.99878734 0.99861896
0000a0 7f 03 80 3f 7d fb 7f 3f 3d a1 7f 3f 04 7e 7f 3f
       1.0001067 0.99993116 0.99855405 0.9980166
0000b0 7f 25 80 3f 52 1d 80 3f 14 3f 80 3f da 01 80 3f
       1.0011443 1.0008948 1.001925 1.0000565
0000c0 c3 a1 7f 3f fd a3 7f 3f 0d 5c 7f 3f 63 d3 7f 3f
       0.99856204 0.998596 0.99749833 0.99931926
0000d0 66 02 80 3f 8f 14 80 3f c6 11 80 3f 2b e0 7f 3f
       1.0000732 1.0006274 1.0005424 0.9995143
0000e0 3b 09 80 3f 1c db 7f 3f d3 15 80 3f 4e ca 7f 3f
       1.0002817 0.9994371 1.000666 0.9991807
0000f0 1e 3d 80 3f 37 b3 7f 3f 11 0f 80 3f fc c1 7f 3f
       1.0018651 0.99882835 1.0004598 0.9990537

inception1.branch1.4.bias f4 [64]
000000 5a 4a 99 3a 44 c9 d1 ba 7a e2 ec b7 c3 63 38 3b
       0.0011695132 -0.0016005416 -2.8238854e-05 0.0028135634
000010 83 76 88 ba 72 e0 c1 3a e7 6a a4 ba 13 f0 50 3a
       -0.0010411296 0.0014791621 -0.0012544066 0.0007970344
000020 ac d9 e5 3a b1 ef b7 ba ac 13 97 ba 99 9b 93 3a
       0.0017536185 -0.0014033226 -0.0011526248 0.0011261582
000030 82 29 0a 3a e2 39 07 ba 60 77 dd ba 30 6a 5f ba
       0.00052704674 -0.00051584665 -0.0016896538 -0.0008522598
000040 94 5e f7 b9 35 a0 84 b9 cc 36 9d 3a a3 2b 65 3a
       -0.00047181977 -0.00025296365 0.001199448 0.0008742159
000050 d5 52 3f ba b3 59 4d 3a 09 1b af 39 94 cf a7 ba
       -0.0007298415 0.00078334956 0.00033398744 -0.0012802952
000060 cd 63 37 bb 48 32 d7 3a 3d 08 90 3a 1b 0e 6b b9
       -0.002798307 0.0016418183 0.0010988783 -0.00022416601
000070 7f a9 a7 b8 a2 a9 0e 3a 71 36 80 ba c9 fb 96 3a
       -7.994752e-05 0.00054421474 -0.000978185 0.001151913
000080 87 bc a1 39 4e dd 10 38 27 22 70 38 e4 b3 15 3a
       0.00030848777 3.453838e-05 5.7252266e-05 0.0005710705
000090 42 8c 0a 3b 02 48 d0 b9 9c 91 e6 b9 cc 33 c3 ba
       0.002114073 -0.00039726502 -0.00043977506 -0.0014892756
0000a0 92 47 30 39 d7 c3 35 b9 b4 9f 5f ba d8 45 9e ba
       0.0001681133 -0.00017334461 -0.00085305725 -0.0012075258
0000b0 92 ac 9e b8 1f 60 55 3a df 37 0b 3b 34 f8 82 b9
       -7.566171e-05 0.00081396283 0.0021243019 -0.00024980458
0000c0 ff 5e 90 b8 b7 6e 8c b9 10 c5 f4 ba 96 ad a4 ba
       -6.8841495e-05 -0.0002678537 -0.0018674452 -0.001256394
0000d0 ef 28 8d 3a 28 22 56 b9 c1 ea 52 ba 7d b2 55 39
       0.0010769645 -0.00020421355 -0.00080458453 0.00020379755
0000e0 7e c4 8a 3a 1f 6d ba ba 5f f3 79 38 2d 0f 08 ba
       0.0010587124 -0.0014223194 5.9592883e-05 -0.00051902496
0000f0 f7 ed 14 3b 46 bb b2 38 bb 31 16 ba 65 f8 9e b9
       0.0022724846 8.522584e-05 -0.00057294563 -0.00030321177
